Models/SavedModels/BreastCancerTracker.pth (torch, 9024 bytes, 5 tensors)

model.0.weight f4 [32, 30]
0.21164003 0.2107698 0.023632238 0.24521707 -0.03185037 0.008614333 0.04001795 0.2937931
0.15524924 -0.16074288 0.28769144 0.011273936 0.23635174 0.15881673 0.18598934 -0.10723641
0.18339665 0.08107864 -0.1946779 -0.012454013 0.00788606 0.036010418 0.0021734864 0.21767358
-0.12916057 -0.12382699 0.03171137 -0.04749985 0.033799242 -0.21331824 0.16619492 -0.3693859
0.14115337 0.024039665 0.03179981 0.113638684 -0.07311209 0.056129772 0.104537584 -0.06525555
-0.06972573 -0.091208935 -0.012945017 0.05101615 0.08811569 -0.02508514 0.08143343 -0.011952831
0.058610268 -0.1436421 -0.21467066 -0.25449336 -0.16502796 0.108656675 0.14144951 0.046211958
-0.03912718 -0.08664997 0.04440926 -0.19502927 0.10749589 -0.0024239768 0.1471599 0.03833559
0.066116594 -0.072302006 0.25119305 0.03985762 -0.11706442 -0.19050637 0.2982367 -0.016749531
0.26172063 -0.0025261894 -0.09739919 -0.24263462 -0.1311716 0.08645376 -0.030776298 0.07615399
0.025588032 -0.03624427 0.19990246 0.049327657 0.13507423 -0.08322348 0.16052324 -0.09653208
-0.04969982 -0.004030224 0.0043269796 -0.17424914 0.078833476 0.08369032 -0.0025928128 -0.0841682
0.10732528 -0.11793999 0.070557036 -0.17977135 -0.25133932 0.04692149 -0.14311783 -0.2775304
0.026051097 -0.08258794 -0.18716906 -0.1416869 -0.0695683 -0.11760832 0.10325258 -0.07848659
-0.005840091 -0.25315115 0.00727752 -0.09751232 -0.068070374 -0.21265067 -0.12676057 -0.16540441
-0.017432107 -0.1991969 -0.027743 -0.14645526 -0.05853208 -0.08984809 -0.09037102 -0.17385456
0.22239082 -0.053168274 0.10882098 0.08040858 -0.1828069 0.06995728 -0.0013893889 -0.017074667
-0.13452381 -0.17572789 0.13353422 -0.03249516 0.011916909 -0.28372756 0.087160304 -0.19712503
0.028822348 -0.011958969 0.013344239 0.07476866 0.08424903 -0.22691692 0.03597237 -0.19148493
-0.029587012 -0.1566732 0.34389666 -0.09312808 0.023974422 -0.014749935 0.24071348 -0.10122115
0.0373451 0.014010401 -0.077862255 -0.29656982 0.12413629 0.065318614 -0.08736032 0.13935007
0.10192775 -0.05842116 -0.14126372 -0.13226022 0.065645434 -0.10716235 0.077570565 -0.05411685
-0.22127074 0.013557056 0.110913455 -0.19437747 0.07372755 0.1550814 0.06811407 -0.031402804
0.1376954 0.16797446 0.2702179 0.22522897 -0.019980256 0.060855303 0.08877621 -0.074093044
0.15856643 0.27682376 0.10488241 -0.115807675 0.059239548 0.04450106 -0.019576153 -0.023462152
-0.0769153 0.041230697 0.22026469 0.16179311 0.048760615 -0.071998455 0.040028777 -0.0031120172
0.07516142 0.09294426 0.2337105 0.20647185 -0.041101526 0.004302896 0.10615572 0.2588543
0.02316202 -0.06978792 0.21803989 -0.11350455 -0.07840358 0.20086123 0.019399596 0.023962067
-0.25864187 0.24741586 0.17432104 0.11352885 -0.08448949 -0.10929325 -0.049666826 0.2228694
0.21082012 0.24661258 0.22327231 0.16509801 0.021187995 -0.091933385 -0.13793306 -0.12719767
0.04085049 -0.26710322 -0.06339783 -0.14684956 0.13849765 -0.08567537 -0.12535584 0.030496448
0.10963901 0.119427934 -0.16520223 -0.18192199 -0.09345083 -0.19646426 -0.0042307787 -0.08983605
00000000: 2ab8 583e 0ad4 573e 6598 c13c 2f1a 7b3e
00000010: 8975 02bd 2223 0d3c dde9 233d 0d6c 963e
00000020: a8f9 1e3e c899 24be 4b4c 933e 51b6 383c
00000030: 3106 723e daa0 223e fd73 3e3e c39e dbbd
00000040: 55cc 3b3e 8f0c a63d a559 47be eb0b 4cbc
00000050: 8834 013c a97f 133d 0d71 0e3b d3e5 5e3e
00000060: ab42 04be 0199 fdbd c8e3 013d 348f 42bd
00000070: 1371 0a3d 1970 5abe 002f 2a3e 2620 bdbe
00000080: 828a 103e d5ee c43c 8440 023d 66bb e83d
00000090: cbbb 95bd 55e8 653d cd17 d63d b4a4 85bd
000000a0: 5dcc 8ebd c0cb babd 5617 54bc 4ff6 503d
000000b0: 0076 b43d 5a7f cdbc 92c6 a63d cfd5 43bc
000000c0: 5211 703d ea16 13be a0d2 5bbe f44c 82be
000000d0: 17fd 28be 6487 de3d 24d8 103e c048 3d3d
000000e0: d243 20bd 8a75 b1bd 7ce6 353d c1b5 47be
000000f0: ce26 dc3d 95db 1ebb 16b1 163e c805 1d3d
00000100: 2368 873d 1313 94bd 609c 803e be41 233d
00000110: 78bf efbd 1a14 43be 7bb2 983e 5036 89bc
00000120: 3f00 863e 6d8e 25bb 3a79 c7bd 3675 78be
00000130: d951 06be ab0e b13d 931e fcbc a0f6 9b3d
00000140: fe9d d13c df74 14bd 3bb3 4c3e cc0b 4a3d
00000150: e650 0a3e 1271 aabd 3460 243e 9cb2 c5bd
00000160: 0a92 4bbd f80f 84bb 56c9 8d3b 5e6e 32be
00000170: 7273 a13d d565 ab3d 2eec 29bb 6160 acbd
00000180: 5bcd db3d 858a f1bd 3580 903d fb15 38be
00000190: 8caf 80be c030 403d 7b8d 12be 7718 8ebe
000001a0: 1c69 d53c de23 a9bd 3fa9 3fbe 5f16 11be
000001b0: d379 8ebd a2dc f0bd 1776 d33d 94bd a0bd
000001c0: 3c5e bfbb 079d 81be 4378 ee3b 8ab4 c7bd
000001d0: 7b68 8bbd 19c1 59be 86cd 01be c65f 29be
000001e0: c7cd 8ebc 46fa 4bbe 4a45 e3bc 5ef8 15be
000001f0: 56bf 6fbd 4702 b8bd 7114 b9bd ee06 32be
00000200: 6bba 633e fac6 59bd 89dd de3d 41ad a43d
00000210: bb31 3bbe c345 8f3d 281c b6ba 2ce0 8bbc
00000220: 9cc0 09be 03f2 33be 32bd 083e a519 05bd
00000230: 243f 433c bd44 91be 1a81 b23d 25db 49be
00000240: d81c ec3c 8def 43bc cca1 5a3c 5020 993d
00000250: c18a ac3d e95c 68be c457 133d a014 44be
00000260: 7660 f2bc f06e 20be 3913 b03e efb9 bebd
00000270: 0266 c43c b6a9 71bc 987d 763e 094d cfbd
00000280: 2df7 183d e28b 653c 3f76 9fbd 00d8 97be
00000290: 2b3b fe3d c4c5 853d f8e9 b2bd c9b1 0e3e
000002a0: 7fbf d03d 074b 6fbd 70a7 10be 396f 07be
000002b0: 1d71 863d ef77 dbbd 51dd 9e3d a1a9 5dbd
000002c0: cc94 62be 6a1e 5e3c 9826 e33d e30a 47be
000002d0: 78fe 963d a9cd 1e3e 647f 8b3d 3aa0 00bd
000002e0: 0600 0d3e 7f01 2c3e 005a 8a3e 6ca2 663e
000002f0: a2ad a3bc 6943 793d 4dd0 b53d 18be 97bd
00000300: 3d5f 223e d8bb 8d3e 97cc d63d 932c edbd
00000310: 2ba5 723d be46 363d 2b5e a0bc b333 c0bc
00000320: c585 9dbd 85e1 283d 118d 613e 18ad 253e
00000330: 36b9 473d ed73 93bd 37f5 233d fcf2 4bbb
00000340: 3bee 993d 8f59 be3d ce51 6f3e 5b6d 533e
00000350: 135a 28bd 4fff 8c3b 2c68 d93d 8d88 843e
00000360: 47be bd3c f8ec 8ebd d945 5f3e 1375 e8bd
00000370: 0e92 a0bd 91ae 4d3e e7eb 9e3c 194c c43c
00000380: b56c 84be 955a 7d3e 3781 323e d081 e83d
00000390: d308 adbd 24d5 dfbd 716f 4bbd e037 643e
000003a0: 3be1 573e 0288 7c3e 7fa1 643e 740f 293e
000003b0: 7292 ad3c 9247 bcbd 533e 0dbe 1b40 02be
000003c0: d852 273d c1c1 88be b9d6 81bd bb5f 16be
000003d0: 54d2 0d3e 9276 afbd 485d 00be b0d3 f93c
000003e0: 6b8a e03d a296 f43d c62a 29be c249 3abe
000003f0: 2663 bfbd ed2d 49be 58a2 8abb f7fb b7bd

model.0.bias f4 [32]
-0.14294876 0.09849677 -0.14420216 0.08782532 0.013921632 0.33718175 0.06581352 0.110146314
0.19249132 0.09821337 0.14367098 0.12696616 0.2416328 -0.033156108 0.16956268 0.01463755
0.16152404 0.15057719 0.34211457 0.32305795 0.13576327 -0.04905371 0.32324737 0.15717967
-0.16900581 0.1642111 0.039698455 0.21470214 0.30692554 -0.026221534 -0.0602628 0.24262944
00000000: 2961 12be adb8 c93d bba9 13be c3dd b33d
00000010: 8f17 643c 16a3 ac3e 3dc9 863d 6494 e13d
00000020: 721c 453e 1724 c93d 7c1e 133e 6b03 023e
00000030: 976e 773e b3ce 07bd d7a1 2d3e 56d2 6f3c
00000040: 8f66 253e e830 1a3e a429 af3e da67 a53e
00000050: 8705 0b3e 8bec 48bd ae80 a53e b5f3 203e
00000060: dc0f 2dbe f426 283e d99a 223d e1da 5b3e
00000070: 5825 9d3e 8bce d6bc 20d6 76bd da73 783e

model.2.weight f4 [16, 32]
0.16714889 -0.1393056 0.290848 -0.01640233 0.0838705 0.034859274 0.17623311 -0.15810366
0.068799935 -0.11276942 -0.090719655 0.23403604 -0.11622894 -0.04210297 0.13604344 0.15456389
-0.19515982 0.17047408 -0.022187587 -0.10240459 -0.20525987 0.16368076 -0.16715482 0.28577223
0.06829565 -0.02925596 0.13343114 0.07529833 -0.21047285 0.11748705 -0.0008387767 -0.024209192
0.2735834 -0.059453636 0.21821357 -0.019184083 0.07760883 -0.06340337 0.252447 -0.040972207
-0.06840009 -0.18705891 0.016305191 0.37940443 0.055821896 -0.057261165 0.19737104 0.1851401
-0.23650904 0.33039096 -0.044357605 0.076625116 -0.17189986 0.07973232 -0.09491579 0.2601806
0.22909287 -0.15260084 0.21822205 -0.05200585 -0.16514216 0.082739234 0.3210534 0.0931729
0.1327649 -0.12900497 0.050530113 -0.11522949 -0.123247415 0.09446799 0.28731528 0.16647919
-0.21096092 0.02511093 -0.11334988 0.27159113 0.05825885 0.12722987 0.27885047 0.27740207
-0.12537992 0.22082241 -0.11986364 0.06564871 -0.14809002 0.11905448 -0.2879443 0.114128895
0.07569018 -0.18251556 -0.080193155 -0.19143121 -0.09599668 0.26232588 0.28827223 0.12226398
0.057710767 -0.21168877 0.15977061 0.11125628 -0.13870186 0.047526143 0.26602077 -0.018449146
-0.1474271 0.08890183 0.04271013 0.2773746 -0.17422189 0.07449796 0.025864651 0.3262287
-0.19215603 0.22325967 -0.040724445 0.03853972 -0.117738806 0.18864958 -0.23061655 -0.0006222395
0.10125356 0.029369056 -0.040603265 -0.012688059 -0.16071917 0.25723767 0.21096848 0.08408202
0.09906999 -0.20130607 0.10272064 -0.08427366 0.18297149 -0.18660635 0.23423941 0.16893306
0.017022297 0.005990073 -0.18688436 0.3345529 -0.07706221 -0.18827249 0.34183323 0.12216996
-0.18605644 0.33303785 -0.20910805 -0.13883008 -0.07128463 0.099039696 -0.15562971 0.03827057
0.20525557 -0.22185212 -0.055705342 -0.16932268 -0.02562242 0.1962533 0.008399225 0.16043718
-0.053520128 0.19730936 -0.12100555 0.10556459 0.25725952 0.25418243 -0.16618733 0.25371212
0.19414023 0.23344342 0.23692365 0.042378284 0.028690003 0.218481 -0.20234273 -0.058610477
0.07776847 -0.04276053 0.1339656 0.12879668 0.14248316 -0.029299665 0.40255892 -0.0020586986
-0.0025996817 0.34326404 0.24528956 0.17193633 0.24001747 -0.017072389 -0.20808046 -0.04375187
-0.09106506 0.17443234 -0.013598697 0.061182763 0.13745119 0.28114668 -0.047735464 0.26566902
0.35462394 0.048214503 -0.00661242 -0.18063979 0.09891866 0.023789251 -0.04498835 -0.07864168
0.14251423 -0.026256775 0.10992586 0.35273844 0.14884116 -0.109524146 0.33232436 -0.06428096
0.044057965 0.41705894 0.29006398 0.07753504 0.37512848 0.12255263 -0.1307536 0.29257026
0.29762283 -0.05070054 0.19236477 -0.010915593 -0.13201153 0.027712889 0.18973528 -0.12751329
-0.013727807 -0.22284013 0.08915346 0.345768 -0.03866799 -0.09391768 0.25349396 0.20310712
-0.14133988 0.18593352 0.03980721 -0.1138852 -0.18150212 0.18746512 -0.16534197 0.31234893
0.08516862 -0.17980292 0.04017025 -0.13836451 -0.031683642 0.16234623 -0.029032858 0.0073937974
00000000: 1429 2b3e 21a6 0ebe 07ea 943e 2e5e 86bc
00000010: 4cc4 ab3d 99c8 0e3d 7476 343e ede5 21be
00000020: fbe6 8c3d a7f3 e6bd 3acb b9bd 25a7 6f3e
00000030: 7009 eebd 2a74 2cbd f94e 0b3e ff45 1e3e
00000040: fad7 47be c290 2e3e bec2 b5bc 7fb9 d1bd
00000050: a52f 52be ee9b 273e a22a 2bbe bd50 923e
00000060: 97de 8b3d 32aa efbc 2ca2 083e 0336 9a3d
00000070: 3286 57be 0d9d f03d 5ae1 5bba 5b52 c6bc
00000080: 2013 8c3e a885 73bd 6173 5f3e f027 9dbc
00000090: 61f1 9e3d a0d9 81bd bc40 813e 79d2 27bd
000000a0: 5915 8cbd 5f8c 3fbe 7792 853c 4c41 c23e
000000b0: 80a5 643d af8a 6abd a21b 4a3e 5e95 3d3e
000000c0: 6d2f 72be 0129 a93e 52b0 35bd a1ed 9c3d
000000d0: 8406 30be b34a a33d 3663 c2bd 6436 853e
000000e0: 5297 6a3e 6543 1cbe 9a75 5f3e 1604 55bd
000000f0: 071b 29be 3073 a93d 1c61 a43e 6fd1 be3d
00000100: 86f3 073e e119 04be aaf8 4e3d 70fd ebbd
00000110: 2469 fcbd 6f78 c13d fd1a 933e 8579 2a3e
00000120: 2406 58be 70b5 cd3c fb23 e8bd fe0d 8b3e
00000130: d5a0 6e3d 8c48 023e 7dc5 8e3e a507 8e3e
00000140: 9863 00be 451f 623e 117b f5bd d572 863d
00000150: e9a4 17be d6d2 f33d 6f6d 93be 69bc e93d
00000160: 7403 9b3d 5ce5 3abe 4f3c a4bd 8b06 44be
00000170: e899 c4bd 944f 863e 6b98 933e 8a65 fa3d
00000180: 2062 6c3d f1c4 58be e89a 233e 55da e33d
00000190: dc07 0ebe c6aa 423d e033 883e aa22 97bc
000001a0: 21f7 16be 2a12 b63d d1f0 2e3d 0b04 8e3e
000001b0: 3967 32be 6392 983d 1be2 d33c 7307 a73e
000001c0: 8dc4 44be 2f9e 643e adce 26bd d3db 1d3d
000001d0: 0b21 f1bd 5b2d 413e bf26 6cbe c91d 23ba
000001e0: 075e cf3d 6097 f03c 9c4f 26bd 94e1 4fbc
000001f0: 9193 24be a8b4 833e 1f08 583e 3233 ac3d
00000200: 35e5 ca3d 2e23 4ebe 335f d23d ab97 acbd
00000210: e15c 3b3e bc15 3fbe 75dc 6f3e cafc 2c3e
00000220: 5872 8b3c 6048 c43b 9d5e 3fbe 854a ab3e
00000230: cbd2 9dbd 81ca 40be c404 af3e 3e34 fa3d
00000240: 9485 3ebe f083 aa3e 6c20 56be 7929 0ebe
00000250: adfd 91bd 53d5 ca3d 655d 1fbe 9ac1 1c3d
00000260: 842e 523e 342d 63be 492b 64bd ed62 2dbe
00000270: 1ce6 d1bc a0f6 483e e79c 093c a549 243e
00000280: ec37 5bbd 770b 4a3e c2d1 f7bd 3f32 d83d
00000290: 85b7 833e 3324 823e 032d 2abe 8ee6 813e
000002a0: b2cc 463e cb0b 6f3e 1d9c 723e da94 2d3d
000002b0: 4c07 eb3c 7cb9 5f3e ef32 4fbe 8a11 70bd
000002c0: 1345 9f3d aa25 2fbd 472e 093e 47e3 033e
000002d0: 1be7 113e da05 f0bc 341c ce3e 3beb 06bb
000002e0: 6c5f 2abb 4ec0 af3e 302d 7b3e 1410 303e
000002f0: 24c7 753e 65db 8bbc 0b13 55be 2935 33bd
00000300: 5180 babd 649e 323e 12cd 5ebc c79a 7a3d
00000310: 01c0 0c3e 75f2 8f3e 4386 43bd c505 883e
00000320: 4591 b53e 927c 453d 00ad d8bb a3f9 38be
00000330: de95 ca3d ade1 c23c b445 38bd e40e a1bd
00000340: 40ef 113e 7318 d7bc cf20 e13d 229a b43e
00000350: d169 183e 324e e0bd 6b26 aa3e bca5 83bd
00000360: 2076 343d c088 d53e 4483 943e b1ca 9e3d
00000370: d710 c03e e0fc fa3d 46e4 05be c5cb 953e
00000380: 0562 983e 5fab 4fbd 45fb 443e 51d7 32bc
00000390: 082e 07be 2406 e33c f749 423e d892 02be
000003a0: 99ea 60bc 3430 64be 1796 b63d 8108 b13e
000003b0: 5462 1ebd ea57 c0bd f6c9 813e 50fb 4f3e
000003c0: 67bb 10be 5b65 3e3e e30c 233d a53c e9bd
000003d0: b1db 39be dbf6 3f3e 684f 29be 33ec 9f3e
000003e0: e36c ae3d 421e 38be 8f89 243d 6daf 0dbe
000003f0: b5c6 01bd 173e 263e 51d6 edbc ab47 f23b

model.2.bias f4 [16]
0.109907046 -0.11109225 0.07367883 0.010744492 0.03355958 0.2234873 0.12004575 0.10783174
0.18416336 0.28215623 0.04537437 0.10633556 0.27822092 0.27548623 0.32992452 0.15501381
00000000: f216 e13d 5584 e3bd ede4 963d aa09 303c
00000010: c575 093d dbd9 643e 8cda f53d e3d6 dc3d
00000020: 5295 3c3e c876 903e 7ada 393d 75c6 d93d
00000030: f972 8e3e 880c 8d3e deeb a83e f1bb 1e3e

model.4.weight f4 [1, 16]
0.46284428 0.31879282 0.3346799 0.4234522 0.21967964 -0.29803574 -0.2717706 0.2557204
-0.22545294 -0.27468377 0.4238827 0.16651846 -0.35281813 -0.25667316 -0.27223274 -0.3970465
00000000: edf9 ec3e d038 a33e 2a5b ab3e bace d83e
00000010: b3f3 603e 2498 98be 8425 8bbe c9ed 823e
00000020: 23dd 66be 5aa3 8cbe 2707 d93e d183 2a3e
00000030: 94a4 b4be aa6a 83be 1762 8bbe ae49 cbbe
