Models/SavedModels/HeartDiseaseModel.pth (torch, 52088 bytes, 7 tensors)

model.0.weight f4 [128, 13]
0	0x3e50caf5	0.20389922
1	0x3e73d0f8	0.23810184
2	0xbe1864ce	-0.14882204
3	0x3ddf0f89	0.10891635
4	0xbceb299b	-0.028706362
5	0xbd8f3fa8	-0.06994563
6	0xbec2a550	-0.38016748
7	0x3e575fe5	0.21032675
8	0x3dc37621	0.09544016
9	0xbe09d064	-0.13458401
10	0x3e0a233b	0.13490002
11	0x3bfb1436	0.0076623214
12	0x3ddfbb26	0.109243676
13	0x3ded525a	0.11587973
14	0x3b855a20	0.0040695816
15	0x3dc79bbf	0.09746503
16	0x3d464d86	0.048413776
17	0x3c922724	0.01784093
18	0xbdcc5179	-0.09976477
19	0x3da664d1	0.08124698
20	0xbe11511f	-0.14191101
21	0xbd8e4785	-0.06947235
22	0xbe33304b	-0.17498891
23	0x3e79bc06	0.24388131
24	0xbeaf0630	-0.34184408
25	0xbe046f98	-0.12933195
26	0xbd85d61c	-0.06534979
27	0xbd59f2e3	-0.05321015
28	0xbc698a1d	-0.01425412
29	0xbe754dbd	-0.23955436
30	0x3ed1c64e	0.40971607
31	0xbe960442	-0.29300123
32	0x3e202041	0.15637304
33	0x3d187f7a	0.037230946
34	0xbd2373ec	-0.039905474
35	0x3e674a7e	0.2258701
36	0x3cdc5b49	0.026898997
37	0x3dc01a56	0.09380023
38	0x3d612d19	0.05497465
39	0xbe10579d	-0.14095922
40	0x3dd1a065	0.10235671
41	0xbd458223	-0.04821981
42	0x3e17fab1	0.14841725
43	0x3e807cbb	0.25095162
44	0x3e189c5f	0.14903401
45	0xbdeab818	-0.11460894
46	0x3e8fd26d	0.2809023
47	0xbdd6f2a3	-0.10495498
48	0x3dd3fc70	0.10350883
49	0xbe2353e2	-0.15949968
50	0xbef75998	-0.48310542
51	0xbe31097b	-0.17288773
52	0xbe80365a	-0.25041467
53	0x3e72257f	0.23647116
54	0x3d15cfac	0.036575004
55	0x3e0da38c	0.1383192
56	0x3e02f835	0.12789996
57	0xbe121a2a	-0.14267793
58	0x3e40339e	0.1876969
59	0xbe90084d	-0.28131333
60	0xbd8a9baa	-0.06767972
61	0xbd9f828a	-0.0778857
62	0xbdd583fa	-0.10425563
63	0xbdec9301	-0.11551476
64	0xbc88db96	-0.01670627
65	0xbd6708a3	-0.05640472
66	0x3e771288	0.24128163
67	0xbe081929	-0.13290848
68	0xbdc654e3	-0.096841596
69	0xbe1f797d	-0.15573688
70	0x3eaaa612	0.33329827
71	0x3d918e94	0.07107273
72	0x3ec5da4e	0.38643116
73	0xbe3107de	-0.17288157
74	0xbe867d1b	-0.26267323
75	0xbe6e2657	-0.23256813
76	0xbe8aec9a	-0.27133638
77	0x3db74bab	0.089499794
78	0x3cc12cef	0.023580996
79	0x3e7c6f90	0.24651933
80	0xbdd151c6	-0.10220675
81	0xbe808a9b	-0.25105748
82	0x3e8285c6	0.25492686
83	0xbd086e69	-0.03330842
84	0x3dabec29	0.08394653
85	0xbd5fa0dc	-0.054596767
86	0x3da976de	0.08274625
87	0xbe0e4ee3	-0.1389728
88	0xbe1c9d9e	-0.15294501
89	0x3e1e6873	0.15469532
90	0x3c81f456	0.015863579
91	0xbe03b099	-0.12860335
92	0x3c3bc44c	0.011460375
93	0x3e368da5	0.1782747
94	0xbdf5ee82	-0.120083824
95	0xbe7de4e4	-0.24794346
96	0x3ee03c49	0.43795994
97	0x3c5db197	0.01353111
98	0xbcddb62b	-0.027064404
99	0xbd8c9aad	-0.068654396
100	0xbe39d1db	-0.1814646
101	0x3dc965d0	0.09833872
102	0xbde7a916	-0.113115475
103	0xbe4c60ea	-0.19958845
104	0x3e17377d	0.14767261
105	0xbe9ca33d	-0.3059329
106	0xbca0c427	-0.019624783
107	0xbd9af636	-0.07566492
108	0xbe85addf	-0.26109216
109	0xbe156516	-0.14589342
110	0x3e983fa1	0.29736045
111	0x3d03b074	0.0321507
112	0x3e2364cf	0.15956424
113	0xbeb3b81e	-0.35101408
114	0xbde874dc	-0.11350414
115	0xbe84d22a	-0.25941592
116	0x3c9a44f8	0.018831715
117	0xbe1fdd93	-0.15611868
118	0x3c9262fa	0.017869461
119	0xbe2b2c20	-0.16716051
120	0x3de223f4	0.11042014
121	0xbe83d62a	-0.25749332
122	0x3dd0e81b	0.102005206
123	0xbe72b860	-0.23703146
124	0xbed9a191	-0.42506078
125	0xbd9650e8	-0.073396504
126	0x3e1498a8	0.14511359
127	0xbe847224	-0.25868332
128	0x3e531abc	0.20615667
129	0xbde389e1	-0.11110283
130	0x3df45b1a	0.11931439
131	0x3e488b21	0.19584323
132	0xbeabbef1	-0.33544114
133	0x3e34f996	0.17673334
134	0x3cb3b85c	0.021938495
135	0xbe23e0a3	-0.16003661
136	0xbee8c668	-0.45463872
137	0xbcd16029	-0.025558548
138	0xbd227825	-0.03966536
139	0xbdeabcc5	-0.11461786
140	0x3d3831d8	0.04496941
141	0xbc9ca6a3	-0.019122427
142	0x3e318fad	0.17339964
143	0xbba4c454	-0.005028287
144	0x3d673533	0.05644722
145	0xbe01e055	-0.12683232
146	0x3e54dfbd	0.20788474
147	0x3e5c133a	0.2149171
148	0x3ea6b88d	0.32562676
149	0xbebc4b3b	-0.36776146
150	0xbdba3f53	-0.090941094
151	0x3e64ae07	0.22332011
152	0x3d1bba9b	0.038019758
153	0xbe89230c	-0.2678455
154	0x3e87e5c7	0.26542494
155	0xbe5028d3	-0.20328073
156	0x3db0af8b	0.08627232
157	0x3e792375	0.24329932
158	0x3cc2dba4	0.023786373
159	0xbe0f1a76	-0.13974938
160	0x3e768732	0.2407501
161	0x3ca7f531	0.020502659
162	0x3c85e71e	0.016345557
163	0xbda6aced	-0.08138452
164	0x3e2ca4f6	0.16859803
165	0x3d97df5b	0.074156485
166	0xbe245d3c	-0.16051191
167	0x3dfb8674	0.12281504
168	0x3d4968ae	0.049172096
169	0xbdc75501	-0.0973301
170	0xbd31128d	-0.043230582
171	0xbbc3dd9b	-0.005977345
172	0x3e41c3a6	0.1892229
173	0x3b6f695e	0.003653131
174	0xbe5d316c	-0.21600884
175	0x3dbdfcbf	0.09276723
176	0xbdf1b295	-0.1180164
177	0x3dbd28cc	0.09236297
178	0x3e6208d7	0.22073685
179	0xbe978655	-0.29594675
180	0xbd86673a	-0.06562658
181	0x3e6bd654	0.23030978
182	0xbdd34f20	-0.10317826
183	0xbea76c34	-0.3269974
184	0x3da47d78	0.08031744
185	0x3dc62ee0	0.096769094
186	0xbda57df5	-0.08080665
187	0x3daf61c8	0.08563572
188	0xbd94e277	-0.07269757
189	0xbdcd54ac	-0.100259155
190	0xbd5e7193	-0.05430753
191	0x3ce7e370	0.028306693
192	0x3e2428d3	0.16031198
193	0x3dd23f0b	0.10265931
194	0xbda45a22	-0.08025004
195	0xbd7e5a48	-0.062097818
196	0x3b849e40	0.004047185
197	0xbc87a900	-0.016560078
198	0x3d888e88	0.06667811
199	0x3d9f2d24	0.07772282
200	0xbe80f9b5	-0.2519051
201	0xbdd19e44	-0.10235265
202	0x3e6f2b96	0.2335647
203	0x3ddd45b4	0.108043104
204	0xbc620340	-0.01379472
205	0xbe2b3aaa	-0.16721597
206	0xbe2dc1b2	-0.1696842
207	0xbe7e6753	-0.24844103
208	0xbc946028	-0.018112257
209	0x3c27a6b2	0.010232614
210	0x3de45fb5	0.11151067
211	0x3d4d1f18	0.05007848
212	0xbe5cd685	-0.21566208
213	0x3d9d45a4	0.076792985
214	0x3bd3c1b9	0.0064623025
215	0x3e9bc747	0.30425474
216	0x3e37da6b	0.17954414
217	0xbdb53f31	-0.088499434
218	0x3e39d6fc	0.18148416
219	0xbea07e2a	-0.31346256
220	0xbe420000	-0.18945312
221	0x3e6a3869	0.22873081
222	0xbe8cad22	-0.2747584
223	0xbd79c9fa	-0.060983635
224	0xbe206fb5	-0.15667613
225	0x3e1e8ea2	0.15484098
226	0x3dedc500	0.116098404
227	0x3e2c0f4c	0.1680271
228	0xbe12e36e	-0.1434457
229	0xbec96f24	-0.39342606
230	0xbe7aeb97	-0.24503933
231	0x3d1ae087	0.037811782
232	0x3e1a33bb	0.15058796
233	0x3dad1494	0.084511906
234	0x3d947777	0.072493486
235	0x3cf1fd0a	0.029539604
236	0xbb4d7f17	-0.003135627
237	0xbe4e5f89	-0.20153631
238	0xbe59e66b	-0.21279304
239	0xbea23b39	-0.31685808
240	0x3d35f7d8	0.044425815
241	0xbd379ff5	-0.04483028
242	0x3e181ae2	0.14854005
243	0xbe439576	-0.19099984
244	0x3d6d5349	0.057940755
245	0xbe9b0146	-0.3027441
246	0xbe09d728	-0.13460982
247	0x3df3285b	0.118729316
248	0xbe3981dd	-0.18115945
249	0x3e1fbb45	0.15598781
250	0xbe1cfa2a	-0.15329805
251	0xbe59274e	-0.212064
252	0xbd3407de	-0.043952815
253	0xbe1f6964	-0.15567547
254	0x3d0b01f4	0.03393741
255	0xbe84033c	-0.25783718

model.0.bias f4 [128]
0	0xbea26a88	-0.31721902
1	0x3d9fba06	0.07799153
2	0xbe6bdd57	-0.23033653
3	0x3e630a6d	0.22171946
4	0xbe33bbc3	-0.17552094
5	0xbb3d9f25	-0.002893397
6	0xbe271c58	-0.16319406
7	0x3da773d6	0.08176391
8	0xbddadd38	-0.106867254
9	0x3dcb31f3	0.099216364
10	0x3d7c6a2c	0.06162469
11	0x3e213921	0.15744449
12	0x3d202086	0.039093517
13	0xbe8b8b1a	-0.27254564
14	0x3e253b2f	0.16135858
15	0xbdb03602	-0.08604051
16	0xbd795ae1	-0.060877685
17	0xbe4279d5	-0.18991788
18	0x3e95e313	0.29274806
19	0x3e283206	0.16425332
20	0xbcac61f7	-0.021042807
21	0x3e3b478f	0.18289016
22	0xbe9185f0	-0.284225
23	0xbd81d08e	-0.06338607
24	0xbe9e4bd0	-0.30917215
25	0x3c94ea0e	0.018178012
26	0xbe4b0c59	-0.19828929
27	0xbd06c491	-0.032902304
28	0x3e5c40f9	0.2150916
29	0x3e5db252	0.21650055
30	0xbe39399d	-0.18088384
31	0xbda65380	-0.08121395
32	0x3dabfc52	0.08397736
33	0xbc666821	-0.014062912
34	0xbe4fabd1	-0.20280387
35	0xbdc082e2	-0.09399964
36	0xbe9339ab	-0.28754935
37	0x3d91aaa6	0.07112627
38	0x3e97deec	0.29662263
39	0xbe409ffb	-0.18811028
40	0x3e2e26eb	0.17007034
41	0x3dadb77a	0.08482261
42	0x3de54b98	0.11196059
43	0xbd1c0162	-0.038087256
44	0xbddaaf7d	-0.10678003
45	0x3e6fa6b8	0.23403442
46	0x3cd3c617	0.025851293
47	0x3ea1cdcb	0.3160232
48	0xbd9453ce	-0.07242547
49	0x3e2a9cc6	0.16661367
50	0x3e4f2d5d	0.20232148
51	0xbe938241	-0.28810313
52	0x3dee0eff	0.11623954
53	0xbe249e16	-0.1607593
54	0x3de41143	0.11136105
55	0xbdbdcdff	-0.09267806
56	0xbd681dc1	-0.056669
57	0x3d7c2df8	0.061567277
58	0xbe3ba8ff	-0.18326186
59	0xbe2abc1c	-0.1667332
60	0xbe539e82	-0.20665935
61	0x3e1e8624	0.15480858
62	0x3df934b7	0.12168258
63	0xbe8c79e4	-0.27436745
64	0x3de49f54	0.11163202
65	0xbe86e649	-0.2634757
66	0xbd51e691	-0.051245276
67	0x3e1e6da6	0.15471515
68	0x3ddfdaa3	0.109303735
69	0xbdb72056	-0.089417145
70	0x3dc5612d	0.096376754
71	0x3d7b0991	0.06128842
72	0x3d674de5	0.05647077
73	0xbdc52f01	-0.09628106
74	0xbeaf064e	-0.34184498
75	0x3e17f12a	0.1483809
76	0x3df1e5e0	0.11811423
77	0x3e4532a6	0.19257602
78	0xbe40c79e	-0.18826148
79	0x3e1a5a93	0.15073614
80	0x3e285da8	0.16441977
81	0x3da9058a	0.082530096
82	0x3dfea146	0.12433104
83	0x3e8da16b	0.27662215
84	0xbd9aad23	-0.075525545
85	0xbc9b9b4e	-0.018994953
86	0x3e8cf09e	0.27527326
87	0x3e8f8ef6	0.28038758
88	0xbe3feb23	-0.18742041
89	0x3e815b5c	0.25265014
90	0xbba3720e	-0.0049879616
91	0xbd955388	-0.07291323
92	0x3e3869ee	0.18009159
93	0xbe411deb	-0.18859069
94	0x3d2fdd9f	0.042935964
95	0x3eb4e02a	0.35327274
96	0xbe1f7f74	-0.15575963
97	0xbdb8ac3f	-0.09017228
98	0xbeac8be5	-0.3370048
99	0xbdf78f60	-0.120878935
100	0xbea1c9a6	-0.31599158
101	0xbd8a0f17	-0.067411594
102	0xbd089faf	-0.03335541
103	0x3e58f65a	0.21187726
104	0x3d9d7d96	0.07689969
105	0x3e098ed0	0.13433385
106	0x3e333dd2	0.17504051
107	0xbe456d68	-0.19280016
108	0xbe640ef8	-0.22271335
109	0x3de32e75	0.11092845
110	0x3e730d65	0.23735578
111	0x3e192915	0.14957078
112	0xbdfb6922	-0.12275912
113	0xbe6f838b	-0.23390023
114	0xbdccd83c	-0.10002181
115	0xbe4fc399	-0.20289458
116	0x3dbefda7	0.09325724
117	0xbcd1014b	-0.025513312
118	0xbe7fc4d7	-0.24977432
119	0x3cf3bbd0	0.029752642
120	0x3cfb0f3e	0.030646916
121	0xbdf06718	-0.117384136
122	0x3da07499	0.07834739
123	0x3d821e98	0.063534915
124	0xbec8a59f	-0.3918886
125	0xbe0d61d7	-0.13806854
126	0x3d038a96	0.032114588
127	0xbe6a7c0f	-0.22898887

model.3.weight f4 [64, 128]
0	0xbd95fc40	-0.073235035
1	0x3c8813e1	0.016611042
2	0xbc14d217	-0.009083292
3	0x3dea749a	0.11448021
4	0xbd8e23e1	-0.06940437
5	0xbda43ba8	-0.08019191
6	0x3e059b07	0.1304742
7	0xbd54e28e	-0.051973872
8	0xbd80cdb2	-0.06289233
9	0xbe94291a	-0.28937608
10	0x3bb5fb5e	0.005553647
11	0xbdf8fbd7	-0.1215741
12	0x3cf1c9cc	0.02951517
13	0xbd20475a	-0.039130546
14	0xbc395075	-0.011310686
15	0x3c80ce6c	0.01572343
16	0x3d9cb47a	0.07651611
17	0x3c50f84d	0.012754512
18	0xbd81bb7b	-0.06334587
19	0x3c876335	0.016526798
20	0xbcca5f86	-0.024703752
21	0x3e7c3d4d	0.2463276
22	0xbe22d2a0	-0.1590066
23	0x3dc217dc	0.09477207
24	0xbd5bc5a6	-0.05365529
25	0xbd91d134	-0.071199805
26	0xbd8b1a84	-0.06792167
27	0x3d0de133	0.034638595
28	0xbd94a733	-0.07258453
29	0x3da94dc5	0.082667865
30	0x3e14056e	0.14455196
31	0xbc339e3a	-0.010963017
32	0x3e93cae6	0.28865737
33	0xbc78e6fb	-0.015191789
34	0x3cddd8d9	0.02708094
35	0x3e618d77	0.22026621
36	0x3c9f0e9f	0.019416152
37	0x3db4161e	0.08793281
38	0x3c0f2e9a	0.008739138
39	0xbddc17f6	-0.10746758
40	0xbd7746d7	-0.060370293
41	0xbc32c138	-0.010910325
42	0x3d4ef49d	0.05052625
43	0x3e97d06a	0.29651195
44	0x3cc4991a	0.023998786
45	0xbe8e3aa3	-0.2777911
46	0x3d8697c7	0.06571918
47	0x3cce3cf6	0.025175553
48	0xbe8b3876	-0.27191514
49	0x3ec54a4a	0.3853324
50	0x3d146f78	0.036239117
51	0xbd329c57	-0.04360613
52	0xbe69eeac	-0.22844952
53	0x3c059a9a	0.008154536
54	0x3d9abfae	0.07556091
55	0xbd6eee6a	-0.058332838
56	0x3d01bdbc	0.031675085
57	0xbd1083d8	-0.035281986
58	0xbe229b95	-0.15879662
59	0xbd6b64da	-0.057469226
60	0x3c5ce218	0.013481639
61	0xbcd4545c	-0.025919132
62	0x3cd45202	0.02591801
63	0x3d96d4e1	0.07364822
64	0x3ead002f	0.33789203
65	0xbcdd2258	-0.026993915
66	0xbd62733b	-0.055285674
67	0x3ce71fd0	0.028213412
68	0xbc1ab02e	-0.009441419
69	0xbe61051e	-0.21974608
70	0x3e8bfb7c	0.27340305
71	0x3ee0ba83	0.43892297
72	0xbe6a9e1d	-0.22911878
73	0x3e2368df	0.15957974
74	0xbd324a6c	-0.043528005
75	0x3cc92ffb	0.024559012
76	0x3cd448a9	0.025913553
77	0x3e9b5fc2	0.30346495
78	0xbce1a2c2	-0.02754343
79	0x3d829bc2	0.06377365
80	0x3d939623	0.07206371
81	0xbccf460d	-0.025301958
82	0x3e199faa	0.15002313
83	0x3c5c37e1	0.013441057
84	0xbd61a062	-0.055084594
85	0x3c96ba25	0.018399308
86	0xbc6823aa	-0.014168659
87	0x3cff594c	0.03117051
88	0xbdf78e61	-0.120877035
89	0xbbb49f91	-0.005512186
90	0x3e3881de	0.1801829
91	0xbafabbc1	-0.0019129441
92	0x3cfd3a1e	0.030911501
93	0xbe04987c	-0.12948793
94	0x3c857613	0.016291654
95	0x3bf5eb93	0.0075048893
96	0x3d59fc40	0.05321908
97	0x3c917e28	0.017760351
98	0x3d35a5d0	0.044347584
99	0x3d8e28f1	0.06941403
100	0xbd12ab46	-0.03580787
101	0x3df1799c	0.11790773
102	0xbd7ce2cc	-0.061739728
103	0x3e40de58	0.18834817
104	0x3cda9136	0.02668057
105	0x3c7cd15d	0.0154307755
106	0x3ca59145	0.020210871
107	0xbeaaff42	-0.3339787
108	0x3d236206	0.039888404
109	0xbd37ce73	-0.04487462
110	0x3b6b7176	0.0035925782
111	0x3e078cfd	0.13237377
112	0x3d0a490b	0.033761065
113	0x3d4f5a5e	0.05062329
114	0x3ef7ee94	0.48424208
115	0x3e1bc9a9	0.15213646
116	0xbdba35d5	-0.09092299
117	0x3b94e250	0.00454358
118	0xbdc7b2b2	-0.0975088
119	0xbcd46cd2	-0.025930796
120	0x3c241857	0.010015569
121	0xbdcb8538	-0.09937519
122	0x3d609af0	0.05483526
123	0x3d0e6dbd	0.034772623
124	0x3ce820c4	0.028335936
125	0xbe89a84c	-0.26886213
126	0x3d0d39b0	0.034478843
127	0xbd7a323c	-0.061083063
128	0x3c2a5c09	0.010397919
129	0xbb2416b3	-0.0025037944
130	0xbdb66800	-0.08906555
131	0x3e3d5c7e	0.18492314
132	0xbc92c8e4	-0.017918058
133	0x3a8e03d6	0.0010834883
134	0xbd324577	-0.043523278
135	0xbc102820	-0.008798629
136	0x3d893a9f	0.06700634
137	0xbc84a705	-0.016192922
138	0xbd8799c6	-0.06621127
139	0xbcad771c	-0.02117496
140	0xbdf9cb99	-0.12197036
141	0xbd79af00	-0.06095791
142	0x3cafad0d	0.021444822
143	0xbd2b2d19	-0.041791055
144	0x3dd27589	0.10276324
145	0xbd835c0c	-0.06414041
146	0x3d21bb14	0.039485052
147	0x3b2b5bd4	0.0026147263
148	0x3d5caa11	0.053873125
149	0x3e50a7a0	0.20376444
150	0x3cd62038	0.02613841
151	0xbb3db503	-0.0028947003
152	0x3c7bbd42	0.015364947
153	0x3d154e20	0.03645146
154	0xbe81d699	-0.25359038
155	0xbdcbf1a6	-0.099582
156	0x3d892195	0.066958584
157	0xbd252284	-0.04031612
158	0x3c8f7e1d	0.01751619
159	0xbe087944	-0.13327509
160	0x3da1a471	0.07892693
161	0xbc8418cb	-0.016125103
162	0xbdda6092	-0.106629506
163	0x3ea22f1e	0.31676573
164	0xbd4475cf	-0.047963914
165	0x3d33e797	0.043922033
166	0x3d67efd9	0.05662522
167	0xbd53274b	-0.051551145
168	0x3ce9fcfa	0.028563011
169	0xbd5700b5	-0.05249091
170	0xbcebefc2	-0.028800849
171	0x3e9e5331	0.30922845
172	0xbcefa39a	-0.029252816
173	0xbe6bef09	-0.23040403
174	0xbd4d940a	-0.05019001
175	0x3e02809a	0.1274437
176	0xbe36d040	-0.17852879
177	0x3ec8efa3	0.39245328
178	0x3d486cc0	0.048931837
179	0xbb8cba61	-0.004294679
180	0xbe004814	-0.12527496
181	0xbcf52320	-0.029923975
182	0x3d3a00b3	0.045410823
183	0xbd8d9056	-0.069122955
184	0xbd149a28	-0.036279827
185	0xbd5e439d	-0.0542637
186	0xbd9261ef	-0.071475856
187	0x3d8f718a	0.07004078
188	0xbcf6264a	-0.030047555
189	0x3d07cb83	0.03315307
190	0x3d52f12f	0.05149954
191	0x3babe33f	0.0052455957
192	0x3ef6476f	0.48101375
193	0xbddfdd80	-0.1093092
194	0x3b3f4b70	0.0029189251
195	0x3c43d316	0.011952182
196	0x3c44fdeb	0.012023429
197	0xbde9b2d9	-0.114110656
198	0x3e862109	0.2619708
199	0x3ed695d9	0.419112
200	0xbd45bf60	-0.048278213
201	0x3dbd6d11	0.092493184
202	0xbddc82d2	-0.107671395
203	0x3c7db96b	0.015486102
204	0x3ceb4407	0.028718961
205	0x3e993eb2	0.29930645
206	0xbdf50be5	-0.11965159
207	0xbe0efdef	-0.13964055
208	0x3cf9cec3	0.0304941
209	0x3a84b40d	0.001012446
210	0x3e8002ef	0.25002238
211	0xbd529b93	-0.0514179
212	0xbbddba08	-0.0067665614
213	0xbcbd803b	-0.023132434
214	0xbdbd7b84	-0.09252074
215	0x3de01895	0.10942189
216	0xbd756ed6	-0.059920155
217	0x3c9ccf7e	0.019141909
218	0x3db72833	0.08943214
219	0xbda93350	-0.0826174
220	0xbbd90092	-0.0066223824
221	0xbd4f4ea8	-0.05061212
222	0xbb28f89d	-0.002578295
223	0x3c076749	0.008264371
224	0x3d8f70a7	0.070039086
225	0xbca76b4d	-0.020436907
226	0xbc6e951f	-0.01456192
227	0x3d5efaef	0.054438528
228	0x3b85c64f	0.004082478
229	0x3de59352	0.1120974
230	0x3d556039	0.05209372
231	0x3dc16d42	0.094446674
232	0x3b4b4871	0.003101852
233	0x3d70e043	0.058807623
234	0xbcb96e26	-0.02263553
235	0xbe71b9f8	-0.23606098
236	0x3cb844b4	0.022493698
237	0xbb2fdcf0	-0.002683457
238	0x3d073d05	0.033017177
239	0x3e43fd63	0.19139628
240	0x3bc89151	0.0061208387
241	0xbdadfc94	-0.08495441
242	0x3f089a63	0.53360575
243	0x3dc12c8a	0.09432323
244	0x3bf097f8	0.007342335
245	0xbca2f399	-0.019891547
246	0x3c212240	0.009834826
247	0x3d8014f9	0.06254
248	0xbce3b660	-0.027796924
249	0xbd726753	-0.05918057
250	0xbbd6ce53	-0.0065553575
251	0x3c9c0785	0.019046554
252	0x3ce45cb8	0.027876243
253	0xbe166a41	-0.1468897
254	0x3cbed953	0.023296988
255	0x3c72acf7	0.014811746

model.3.bias f4 [64]
0	0xbc833938	-0.016018495
1	0x3dcdd5cc	0.10050544
2	0xbd0e2498	-0.034702867
3	0xbc649599	-0.0139516825
4	0x3cd96725	0.026538441
5	0xbdb371e9	-0.08761961
6	0x3dc06cf0	0.09395778
7	0x3d01a416	0.031650625
8	0x3ccce11e	0.025009688
9	0x3d30f5e2	0.043203242
10	0x3da8b77e	0.08238123
11	0x3d47124f	0.048601445
12	0x3d998926	0.07496862
13	0xbcedaaef	-0.029012172
14	0x3dd1fb9d	0.102530695
15	0x3bb78655	0.0056007304
16	0x3daa12c9	0.08304364
17	0xbcc480cd	-0.023987198
18	0xbcb2c44c	-0.021822117
19	0x3bf48f93	0.0074634044
20	0x3db311f9	0.087436624
21	0x3d3dc3e6	0.0463294
22	0xbd8c1932	-0.06840743
23	0x3dc33129	0.09530861
24	0x3d01edc9	0.03172091
25	0x3db98f96	0.0906059
26	0x3d0ee7b8	0.034888953
27	0xbc8f14e8	-0.017466024
28	0x3dc000c6	0.093751475
29	0x3a1a02c9	0.0005875049
30	0x3e20b4ff	0.15694045
31	0xbc944d51	-0.018103274
32	0x3d303ab2	0.043024726
33	0xbcbe2dc5	-0.023215184
34	0xbc91b2dc	-0.017785482
35	0x3de86e39	0.11349148
36	0xbaa6d66f	-0.0012728701
37	0x3aee8146	0.0018196485
38	0x3db1fb6c	0.08690533
39	0x3defd0c6	0.11709742
40	0xbd88fa73	-0.066883944
41	0x3d44cf78	0.04804942
42	0x3d4b1178	0.049577206
43	0x3e5e600f	0.21716331
44	0x3b12edda	0.0022419603
45	0x3cbd0e9b	0.023078253
46	0x3b00b849	0.0019641093
47	0x3d7fe63c	0.062475428
48	0x3d701036	0.05860921
49	0x3cd7b345	0.0263306
50	0x3cb1c232	0.021699045
51	0xbcac3d6a	-0.021025378
52	0xbc03d3a0	-0.008046061
53	0xbd7b80ca	-0.06140212
54	0x3d83b867	0.06431656
55	0x3d87fea1	0.066403635
56	0x3ced1148	0.028938904
57	0xbd1f53ac	-0.038898155
58	0xbd15055b	-0.03638206
59	0x3d04a8e4	0.03238763
60	0x3df6df38	0.12054294
61	0x3d94ccc2	0.07265617
62	0x3a9afa51	0.0011823868
63	0x3d8d8db3	0.069117926

model.6.weight f4 [32, 64]
0	0xbdee865b	-0.1164672
1	0xbd8395a8	-0.06425029
2	0xbe186fbd	-0.14886375
3	0x3e7a41f3	0.2443922
4	0xbd92ad5f	-0.07161974
5	0xbe401e1b	-0.18761484
6	0x3e59e4cd	0.21278687
7	0x3deb63dc	0.11493656
8	0x3e8f24e3	0.2795783
9	0x3e910230	0.2832198
10	0x3d3fd839	0.046837065
11	0x3e9352e6	0.28774184
12	0xbd469474	-0.04848142
13	0x3e89b96a	0.26899272
14	0x3dc22687	0.09480005
15	0xbd98d05d	-0.07461617
16	0x3bcdd52a	0.0062815147
17	0x3e5366ed	0.20644732
18	0xbd8609c4	-0.065448314
19	0x3e15b00b	0.14617936
20	0x3e358312	0.1772578
21	0x3d29a2dc	0.04141508
22	0xbd9ee812	-0.07759108
23	0xbde72845	-0.11286978
24	0xbe098fa6	-0.13433704
25	0xbd1650e4	-0.036698237
26	0x3d7a6583	0.061131965
27	0x3da952b4	0.082677275
28	0xbe2431c6	-0.16034612
29	0x3e1a2a4d	0.15055199
30	0x3c1b34ca	0.009473035
31	0x3dac95ef	0.08427035
32	0x3d119b66	0.03554859
33	0x3e3fea42	0.18741706
34	0xbe10d5cf	-0.14144062
35	0x3da479ac	0.080310196
36	0xbd8e5ffd	-0.06951902
37	0xbddb1c7d	-0.10698793
38	0x3e5dfaed	0.21677752
39	0xbd65066e	-0.055914335
40	0x3e3eee98	0.18645704
41	0x3d5ddd2e	0.05416601
42	0x3d7c3b50	0.061580002
43	0x3db24c77	0.08705991
44	0xbe420c4f	-0.18950008
45	0xbdee6462	-0.1164024
46	0xbdf0ae03	-0.1175194
47	0x3e1bf285	0.15229233
48	0xbdeb61b7	-0.11493247
49	0x3e5313cd	0.20613022
50	0x3e49474a	0.19656101
51	0x3d93a27f	0.07208728
52	0xbd7f930b	-0.06239609
53	0xbe4827bd	-0.19546409
54	0x3d97c39d	0.07410357
55	0x3e83389e	0.25629133
56	0xbd63dda3	-0.05563129
57	0x3dd04567	0.101694874
58	0x3e8714c3	0.26383027
59	0x3e44d674	0.19222432
60	0x3e0af62b	0.13570468
61	0x3e3b9f4b	0.18322484
62	0x3e1fb42a	0.15596071
63	0xba4be5cc	-0.0007778078
64	0x3dfc6952	0.12324776
65	0x3ea94891	0.33063176
66	0x3e353b75	0.17698462
67	0xbe6cc79a	-0.23123017
68	0x3e96e16b	0.29468855
69	0x3de74ca1	0.11293913
70	0xbd3ce5f5	-0.04611774
71	0xbbb34fcf	-0.0054721604
72	0xbd54b521	-0.05193055
73	0xbd94626c	-0.07245335
74	0xbe1c302a	-0.15252748
75	0xbe3a939b	-0.1822037
76	0x3e654a46	0.22391614
77	0xbd94a7ce	-0.07258569
78	0x3af93f76	0.0019016105
79	0x3e3e2617	0.18569218
80	0x3e3f22bb	0.18665592
81	0xbe227897	-0.15866314
82	0x3e1fd863	0.15609889
83	0x3d1b2d6f	0.037885126
84	0xbda657e9	-0.08122236
85	0xbce095d7	-0.0274152
86	0x3d31fa02	0.043451317
87	0x3deec491	0.11658586
88	0x3e635473	0.22200184
89	0x3e4dbabf	0.20090769
90	0xbddbabc9	-0.10726125
91	0xbda0111a	-0.07815762
92	0x3e4af4d3	0.19819956
93	0x37869e74	1.604783e-05
94	0x3e0ab0b8	0.13543975
95	0xbe30ac5b	-0.17253248
96	0xbe100724	-0.14065224
97	0xbe20c48b	-0.15699975
98	0x3eb3c4ea	0.3511117
99	0xbe50c679	-0.20388211
100	0x3e823837	0.25433514
101	0x3df39bf5	0.11894981
102	0xbd540f0d	-0.051772166
103	0x3e9feaeb	0.31233916
104	0xbdf10f44	-0.1177049
105	0xbdf14981	-0.11781598
106	0xbd13bec1	-0.03607059
107	0x3d350798	0.044196695
108	0x3e7e13e5	0.24812277
109	0x3e79f83b	0.24411099
110	0x3e805f39	0.2507265
111	0xbd994b09	-0.07485015
112	0x3e11a447	0.14222823
113	0xbddda68d	-0.10822783
114	0xbd982233	-0.07428398
115	0x3d9ade95	0.075619854
116	0x3e32e495	0.1747001
117	0x3e8558ce	0.26044315
118	0xbdff7a1e	-0.12474464
119	0xbe0f210f	-0.13977455
120	0x3e82c3ca	0.2554
121	0xbe03dffa	-0.12878409
122	0xbe0c9323	-0.13728003
123	0xbb910965	-0.0044261687
124	0x3d8463da	0.06464358
125	0xbcad5a0f	-0.021161107
126	0x3b802de2	0.0039117197
127	0x3ca0f2de	0.019647058
128	0xbd1e6759	-0.03867278
129	0xbd86dda1	-0.06585241
130	0xbd81a4a1	-0.063302286
131	0x3e70d83c	0.23519987
132	0xbd852cb1	-0.06502665
133	0xbd92c758	-0.07166928
134	0x3e36a850	0.17837644
135	0x3e56f833	0.20993118
136	0x3e328f83	0.17437558
137	0x3d286994	0.041116312
138	0x3d6c1ed7	0.0576466
139	0x3dc1c3b8	0.094611585
140	0xbd4a53b6	-0.04939624
141	0x3e07f4e4	0.13277012
142	0x3b8ebdb1	0.004356109
143	0xbd898129	-0.067140885
144	0xbd907b1f	-0.070547335
145	0x3d985d24	0.0743964
146	0xbe26b3bc	-0.162795
147	0x3e16f95f	0.14743565
148	0x3e839c3f	0.25705144
149	0x3e328d67	0.17436753
150	0xbdae5661	-0.08512569
151	0x3b74fb22	0.0037381132
152	0x3c3dece0	0.01159212
153	0xbe0b95d9	-0.13631381
154	0x3e3bda1b	0.1834492
155	0x3e450d0e	0.19243261
156	0xbe410f3e	-0.1885347
157	0x3cc7ce99	0.024390506
158	0xbca4412d	-0.02005061
159	0x3e51a87e	0.20474431
160	0x3e44ae75	0.19207175
161	0x3c5b14e6	0.013371682
162	0xbe35250e	-0.17689916
163	0x3e3b0d6f	0.18266843
164	0x3d409bbc	0.04702352
165	0xbdbaecac	-0.09127173
166	0x3e1f90c0	0.15582561
167	0xbdb7ac42	-0.089684024
168	0x3da62eb8	0.0811438
169	0x3d0479ce	0.032342725
170	0x3d809730	0.06278837
171	0x3bdbfe65	0.006713676
172	0xbe413a3f	-0.18869875
173	0xbddf44b2	-0.109017745
174	0xbdbf45d6	-0.09339492
175	0x3d2cfe24	0.042234555
176	0xbdb5a351	-0.08869041
177	0x3e3bfa41	0.18357183
178	0x3d5aefd0	0.05345136
179	0x3d7fef7d	0.062484253
180	0xbe25fe2f	-0.16210245
181	0xbe5f4801	-0.21804811
182	0x3e071cf2	0.13194636
183	0x3ddf898b	0.10914906
184	0xbd44cd12	-0.048047133
185	0x3db4dd12	0.08831228
186	0x3e2f3672	0.17110613
187	0x3e0a5a2a	0.13510957
188	0x3e538359	0.20655574
189	0x3e58756f	0.21138547
190	0x3d1bf91b	0.038079362
191	0x3d1e1a3a	0.03859923
192	0x3e40e072	0.18835619
193	0x3e4c8132	0.19971159
194	0x3df0b95a	0.11754103
195	0xbe44a73c	-0.1920442
196	0x3e242cb3	0.16032676
197	0x3d4e5953	0.050378155
198	0xbe25cd62	-0.16191629
199	0xbe46e119	-0.19421805
200	0xbdcd5b4b	-0.100271784
201	0xbe5da257	-0.21643959
202	0xbe40eedb	-0.18841116
203	0xbe5f0d02	-0.21782306
204	0x3e8b6fa4	0.27233613
205	0xbe003f90	-0.12524247
206	0xbc9d6672	-0.019213889
207	0x3dc7fa4a	0.09764536
208	0x3e635293	0.22199468
209	0xbdf4601c	-0.11932394
210	0x3d5dc145	0.054139394
211	0x3d0df890	0.034660876
212	0xbe453906	-0.19260034
213	0xbe472f60	-0.19451666
214	0x3e40615f	0.18787144
215	0x3e25cdc9	0.16191782
216	0x3e21009e	0.15722892
217	0x3e9c3831	0.3051162
218	0xbe0436cd	-0.1291153
219	0xbe311df4	-0.17296582
220	0x3e7ee272	0.2489107
221	0xbdb7bfba	-0.08972116
222	0x3db64ab9	0.08900971
223	0xbe11662b	-0.1419913
224	0xbdd702c9	-0.10498578
225	0xbb6dac1c	-0.0036265915
226	0x3e58674f	0.21133159
227	0xbe02a011	-0.12756373
228	0x3e655731	0.22396542
229	0x3e73452a	0.23756853
230	0xbcf5a969	-0.029988008
231	0x3e86f7af	0.26360843
232	0xbdf286f5	-0.11842147
233	0xbd10b6cb	-0.035330575
234	0xbe033f36	-0.12817082
235	0x3bd1463b	0.006386546
236	0x3e7f886e	0.24954388
237	0x3d3594f8	0.04433152
238	0x3d61c6dd	0.05512129
239	0xbe0691b2	-0.13141516
240	0x3d991e7f	0.0747652
241	0xbdd5deca	-0.10442884
242	0xbdbb1f86	-0.09136872
243	0xbcbe8541	-0.0232569
244	0x3d82d8e1	0.063890226
245	0x3e11734e	0.14204141
246	0xbe4bc06e	-0.19897625
247	0xbe37610b	-0.17908113
248	0x3e24ff27	0.16112958
249	0xbdd6f34c	-0.10495624
250	0xbdc1c692	-0.094617024
251	0xbd010d33	-0.03150673
252	0xbd87f7a1	-0.06639028
253	0xbe0bfd1d	-0.13670774
254	0xbd5078d7	-0.05089649
255	0x3e1c7065	0.1527725

model.6.bias f4 [32]
0	0x3e15b5d8	0.14620149
1	0x3de847c9	0.11341817
2	0x3e1eb4f5	0.15498717
3	0x3e48a960	0.19595861
4	0x3e3c6039	0.18396081
5	0x3e0714f2	0.13191584
6	0x3dd2a817	0.10285967
7	0x3e662c0a	0.22477737
8	0x3d811cab	0.06304296
9	0x3e02c326	0.12769756
10	0x3e2bc4e3	0.16774325
11	0x3e4ff54c	0.20308417
12	0x3d45d7d6	0.04830154
13	0x3e4a40cd	0.19751282
14	0x3d2c5ecb	0.04208259
15	0x3d15e177	0.036591973
16	0x3e3237f1	0.17404152
17	0x3dc6d15b	0.097079
18	0x3e4b2ffb	0.19842522
19	0x3e63190e	0.22177526
20	0x3e79f561	0.24410011
21	0x3de2bf53	0.110716484
22	0x3e346429	0.17616333
23	0x3e69d93e	0.22836778
24	0x3e04dda5	0.12975176
25	0x3e41f66f	0.18941663
26	0x3d4df849	0.05028561
27	0x3de0157b	0.10941597
28	0x3e34f56e	0.17671749
29	0x3e7f4ece	0.24932405
30	0x3ddb9308	0.10721403
31	0x3e4d9537	0.20076452

model.8.weight f4 [1, 32]
0	0xbef8dc53	-0.48605594
1	0x3ea6e3d0	0.32595682
2	0xbeb8091c	-0.3594445
3	0x3ee20188	0.44141793
4	0x3eb50ed7	0.35362884
5	0xbeb2bc68	-0.34909368
6	0xbe9fd0d9	-0.31214026
7	0x3eccd2c4	0.4000455
8	0xbebf29b5	-0.37336507
9	0xbe9f7362	-0.31142718
10	0xbed1305f	-0.40857217
11	0x3f03faa6	0.51554334
12	0xbee0ee58	-0.43931842
13	0xbecab6a7	-0.39592478
14	0xbede3d9f	-0.43406388
15	0xbeb6a67b	-0.3567389
16	0xbec9311c	-0.3929528
17	0x3ebc1c2e	0.3674025
18	0x3f0366e0	0.5132885
19	0x3eba6d7b	0.36411652
20	0x3ecb29e5	0.396804
21	0x3ee14302	0.43996435
22	0xbef4fda5	-0.47849765
23	0x3e971348	0.29506898
24	0x3ed4ca89	0.41560772
25	0x3eb80c79	0.35947016
26	0xbea3bcc8	-0.31979966
27	0xbebb9e3a	-0.36644155
28	0xbec91e88	-0.39281106
29	0x3f0a3dde	0.5400065
30	0xbeb0b67c	-0.34514225
31	0xbe9c7eb6	-0.30565423
