Models/SavedModels/HeartDiseaseModel.pth (torch, 180216 bytes, 7 tensors)

model.0.weight f4 [252, 13]
0	0x3e7403cd	0.23829575
1	0x3e7b3089	0.24530233
2	0xbde0a2d8	-0.1096856
3	0x3e862f61	0.26208022
4	0xbd88e9ba	-0.06685205
5	0x3cef5373	0.029214596
6	0xbe3b5f3c	-0.18298048
7	0x3e1bda5d	0.15220018
8	0x3e5b28c6	0.21402273
9	0xbe678b5f	-0.2261176
10	0x3e5e1002	0.21685794
11	0x3d520118	0.051270574
12	0x3e42b153	0.19012956
13	0x3db75476	0.089516565
14	0x3e011aa0	0.12607813
15	0xbccd00e2	-0.025024835
16	0x3e70b8af	0.23507951
17	0x3d4db381	0.050220016
18	0xbdb1fee7	-0.08691197
19	0x3d7db736	0.0619423
20	0xbdb9f43d	-0.09079788
21	0xbca71365	-0.02039499
22	0xbdaef284	-0.0854235
23	0x3e6a7306	0.2289544
24	0xbe8dd5d0	-0.27702188
25	0xbdb9c3a6	-0.0907052
26	0xbd9cbe36	-0.07653467
27	0xbdebaa5b	-0.11507102
28	0x3ba782dc	0.005112035
29	0xbea6f538	-0.32608962
30	0x3e866b0d	0.26253548
31	0xbe7c7b73	-0.24656467
32	0x3e5ef8cf	0.217746
33	0x3c22b7cb	0.009931515
34	0xbd3e304a	-0.04643277
35	0x3e439af1	0.19102074
36	0x3cc7985d	0.024364645
37	0x3e823159	0.25428274
38	0x3d40d17e	0.047074787
39	0xbdca10f8	-0.09866518
40	0x3d3fad3b	0.046796065
41	0xbd4f30c9	-0.050583635
42	0x3e1693c3	0.14704804
43	0x3e984f16	0.29747838
44	0x3e85a9ea	0.26106197
45	0xbda92555	-0.08259074
46	0x3e3002d5	0.1718858
47	0xbc955c45	-0.018232474
48	0x3e164cbd	0.14677711
49	0xbe2ab573	-0.1667078
50	0xbeab8165	-0.33497158
51	0xbdfd3285	-0.123631515
52	0xbe8aa3ba	-0.27078038
53	0x3e4a2b1e	0.1974301
54	0x3d8a4174	0.067507654
55	0x3dcdf681	0.100567825
56	0x3d87b606	0.06626515
57	0xbd686417	-0.056736078
58	0x3e71d17f	0.23615073
59	0xbe585cd4	-0.21129161
60	0xbcc8b324	-0.024499483
61	0xbe7dee62	-0.24797967
62	0x3da6334a	0.08115251
63	0xbe1ff30d	-0.1562006
64	0x3d7831d0	0.06059438
65	0xbd4a6621	-0.049413804
66	0x3e89c8fb	0.26911148
67	0xbe110330	-0.14161372
68	0xbdc54c5a	-0.096337035
69	0xbdf59a53	-0.11992326
70	0x3ebf50a2	0.37366205
71	0x3d6f7e9c	0.058470353
72	0x3eb79192	0.3585325
73	0xbe51e3c9	-0.2049705
74	0xbe826760	-0.25469494
75	0xbe69f249	-0.2284633
76	0xbeb56be2	-0.3543387
77	0x3dc58295	0.09644047
78	0x3de4240e	0.111396894
79	0x3e8b122b	0.271623
80	0xbe126b41	-0.14298727
81	0xbe3c104b	-0.1836559
82	0x3e19b109	0.1500894
83	0xbdb2213a	-0.08697744
84	0x3e2efc47	0.17088424
85	0xbdaac8c7	-0.083390765
86	0x3e26d859	0.16293468
87	0xbe3e1a6c	-0.18564767
88	0xbe1dd1b6	-0.1541203
89	0x3ddb7c23	0.107170366
90	0x3da0db34	0.0785431
91	0xbd512c08	-0.051067382
92	0x3e10fc2e	0.14158699
93	0x3e46e83d	0.1942453
94	0xbe63e2a5	-0.22254427
95	0xbe60313b	-0.2189378
96	0x3e8a2990	0.26984835
97	0xbd8ceecd	-0.06881485
98	0xbdec8516	-0.11548822
99	0xbe895ad7	-0.26827118
100	0xbe51facd	-0.20505829
101	0x3d95d81f	0.073166125
102	0xbd0ed3e4	-0.034870043
103	0xbe4f594e	-0.20248911
104	0x3c5f8236	0.013641885
105	0xbe711b2e	-0.23545524
106	0xbe23eb5c	-0.16007751
107	0xbe417bef	-0.18894933
108	0xbe8367e5	-0.25665203
109	0xbe47fc88	-0.19529927
110	0x3e8aa692	0.27080208
111	0xbba67c32	-0.005080723
112	0x3de0f25e	0.10983728
113	0xbe825076	-0.25452012
114	0xbe51fef8	-0.20507419
115	0xbe23dbe1	-0.16001846
116	0x3ce46a6c	0.027882777
117	0xbe7bf1a4	-0.24603897
118	0xbd5c2622	-0.053747304
119	0xbe20f2f2	-0.15717676
120	0xbcefcf1c	-0.029273562
121	0xbe3bba10	-0.18332696
122	0xbd5367f0	-0.051612794
123	0xbe4db23d	-0.20087524
124	0xbe8d2d7f	-0.27573773
125	0xbe19e027	-0.15026914
126	0xbd2d0204	-0.04223825
127	0xbe5e9a3d	-0.21738525
128	0x3e6bc9f0	0.23026252
129	0xbd30c79c	-0.043159112
130	0x3e648378	0.22315776
131	0x3daea510	0.08527577
132	0xbea2ec1b	-0.3182076
133	0x3e5d1aab	0.21592204
134	0xbd891ce2	-0.06694962
135	0xbe204b40	-0.15653706
136	0xbe914870	-0.28375578
137	0xbe851545	-0.2599279
138	0x3d230bf1	0.03980631
139	0xbddaeb5d	-0.10689423
140	0x3dadf34a	0.08493669
141	0xbdcff7ba	-0.10154672
142	0x3e5e893a	0.21732035
143	0xbd8959a1	-0.067065485
144	0xbcc2f383	-0.023797756
145	0x3c0e2eb0	0.008678123
146	0x3e3b68bf	0.18301676
147	0x3e83d659	0.25749472
148	0x3ecaf1d3	0.39637622
149	0xbe866422	-0.2624827
150	0xbcb9edfd	-0.02269649
151	0x3d6ffb32	0.058589168
152	0x3d2fd2ad	0.042925525
153	0xbe36cf09	-0.17852415
154	0x3e8ba02e	0.27270645
155	0xbe6f44fe	-0.23366162
156	0x3e1c505f	0.15265034
157	0x3e044f8f	0.12920974
158	0x3dcb8afe	0.0993862
159	0xbe0f4d45	-0.1399432
160	0x3e8525c5	0.26005378
161	0x3d64d27d	0.0558648
162	0x3cbe1f89	0.023208397
163	0xbe6d4d81	-0.23174097
164	0x3e0c95db	0.1372904
165	0xbc7f8a89	-0.015596994
166	0xbe0e009c	-0.1386742
167	0x3e6eaca5	0.23308046
168	0x3d8f3334	0.06992188
169	0xbdec5fa6	-0.11541681
170	0xbde6f83e	-0.11277817
171	0xbc0a2099	-0.008430623
172	0x3e416ccd	0.1888916
173	0xbd5f249d	-0.054478277
174	0xbe758c45	-0.2397929
175	0xbd61ac39	-0.055095885
176	0xbe279a82	-0.16367534
177	0x3d9e5426	0.07730894
178	0x3e890576	0.2676198
179	0xbe948f2a	-0.29015476
180	0x3c90bba6	0.017667603
181	0x3e373ea3	0.17894988
182	0x3c64eded	0.013972742
183	0xbe226199	-0.15857543
184	0x3df307b4	0.11866704
185	0x3dab1ccf	0.08355104
186	0x3d85214a	0.0650049
187	0xbe02164d	-0.1270382
188	0x3c54b2f9	0.0129821235
189	0xbdac4b06	-0.08412747
190	0xbdc067be	-0.09394787
191	0x3d8ab952	0.06773628
192	0x3e2f6303	0.17127614
193	0x3e8bf5a1	0.27335837
194	0xbd7855bc	-0.060628638
195	0xbd7e5a48	-0.062097818
196	0x3b849e40	0.004047185
197	0xbc87a900	-0.016560078
198	0x3d888e88	0.06667811
199	0x3d9f2d24	0.07772282
200	0xbe80f9b5	-0.2519051
201	0xbdd19e44	-0.10235265
202	0x3e6f2b96	0.2335647
203	0x3ddd45b4	0.108043104
204	0xbc620340	-0.01379472
205	0xbe2b3aaa	-0.16721597
206	0xbe2dc1b2	-0.1696842
207	0xbe7e6753	-0.24844103
208	0xbe11fcad	-0.14256544
209	0x3d83cbde	0.06435369
210	0x3e03c5f9	0.1286849
211	0x3dd8210b	0.105531774
212	0xbe8c3a68	-0.2738831
213	0xbdc55bea	-0.09636672
214	0xbd49c4a7	-0.049259808
215	0x3e8f8d3d	0.28037444
216	0x3e02c9dc	0.12772316
217	0xbd6cc4f2	-0.05780501
218	0x3e2559b1	0.16147496
219	0xbe575624	-0.21028954
220	0xbe3a9ad3	-0.18223123
221	0x3e490df6	0.19634232
222	0xbe20c6ee	-0.15700886
223	0xbdc60413	-0.09668746
224	0xbe8a629d	-0.2702836
225	0x3e1aa1fc	0.15100855
226	0x3e6889f9	0.22708882
227	0x3de123a6	0.109931275
228	0xbe4f5559	-0.20247401
229	0xbe55b6c5	-0.20870502
230	0xbdfd2cb6	-0.123620436
231	0x3e3df414	0.1855014
232	0x3e341f2e	0.17590019
233	0x3e6a71ff	0.22895049
234	0x3dbf6903	0.09346201
235	0x3dabeb24	0.08394459
236	0x3b17d6c8	0.002316879
237	0xbe5ee7c5	-0.217681
238	0xbe93ca21	-0.2886515
239	0xbe917534	-0.2840973
240	0x3e0aeb03	0.13566212
241	0xbddf69f8	-0.10908884
242	0xbe0214fb	-0.12703316
243	0xbd8a355d	-0.067484595
244	0xbd746330	-0.059664905
245	0xbe75b610	-0.23995233
246	0xbe42fc0a	-0.19041458
247	0x3dd75dec	0.10515961
248	0xbd9976f3	-0.07493391
249	0x3e0b355b	0.13594572
250	0xbdd9bb82	-0.106314674
251	0xbe330cb1	-0.1748531
252	0xbdfbcfe8	-0.12295514
253	0xbe13e4fc	-0.1444282
254	0xbdefadd3	-0.11703076
255	0xbe8b9113	-0.2725912

model.0.bias f4 [252]
0	0xbe878eb5	-0.26476064
1	0x3e2f38d3	0.1711152
2	0xbdf525a5	-0.11970071
3	0x3e2616c2	0.16219619
4	0xbe392ec5	-0.18084247
5	0xbd5b5e92	-0.053556986
6	0x3cde3651	0.02712551
7	0x3e8031e7	0.25038072
8	0xbd86d32a	-0.06583245
9	0x3e380459	0.17970408
10	0x3d6fcbeb	0.05854408
11	0x3e30b872	0.1725786
12	0x3e31e4eb	0.17372482
13	0x3dba3dbe	0.09093808
14	0xbdf7d432	-0.1210102
15	0xbd9f6c16	-0.07784288
16	0x3e03c50d	0.12868138
17	0x3e1bb185	0.15204437
18	0xbbd04958	-0.0063563995
19	0x3e134731	0.14382626
20	0xbe2921d5	-0.16516812
21	0x3e3b6e55	0.18303807
22	0xbd58bf7e	-0.052916996
23	0xbe75a0d0	-0.23987126
24	0xbe0841b4	-0.13306314
25	0xbe412b51	-0.1886418
26	0x3d90519a	0.07046814
27	0xbe43a1f6	-0.19104752
28	0xbdb76863	-0.08955457
29	0xbc746580	-0.014916778
30	0xbe27d59c	-0.1639008
31	0xba0bcacd	-0.0005332649
32	0x3ca66fda	0.020317007
33	0x3d38161a	0.044942953
34	0x3e2808fb	0.16409676
35	0xbe2a19ab	-0.16611354
36	0x3e0c932b	0.13728015
37	0xbd22c2e5	-0.039736647
38	0xbe25a81f	-0.16177414
39	0xbdb1e949	-0.08687074
40	0x3dc30bef	0.095237605
41	0x3d52a63b	0.05142806
42	0xbcb5d798	-0.02219753
43	0xbe1fad1c	-0.1559338
44	0x3e0790d0	0.13238835
45	0x3d98d472	0.07462396
46	0xbe945278	-0.2896917
47	0x3d3c727f	0.04600763
48	0xbd31ce77	-0.04340979
49	0xbde0ea3a	-0.10982175
50	0xbe1c9be0	-0.15293837
51	0xbe75c054	-0.23999149
52	0x3e97b730	0.29631948
53	0xbe839d89	-0.25706127
54	0x3e864133	0.26221618
55	0xbe3e524b	-0.1858608
56	0xbd9575a4	-0.07297829
57	0xbdd8aef3	-0.10580244
58	0xbe31abe1	-0.17350723
59	0x3e06e904	0.13174826
60	0x3e1b5fda	0.15173283
61	0xbe32ee41	-0.17473699
62	0xbde593d5	-0.11209837
63	0x3e2cfffd	0.16894527
64	0x3b0002cb	0.0019532915
65	0x3d218865	0.039436717
66	0x3e1d2d07	0.15349208
67	0xbdfd011c	-0.12353727
68	0xbe23dde9	-0.16002621
69	0x3dd14b56	0.10219447
70	0xbdae5ed0	-0.08514178
71	0xbe2b8e3a	-0.16753474
72	0xbe185f18	-0.14880025
73	0xbde58da1	-0.11208654
74	0x3e6cc0f4	0.23120481
75	0x3d9eb43a	0.07749219
76	0x3e2427fd	0.1603088
77	0x3db345fa	0.08753581
78	0xbe52ca50	-0.20584989
79	0x3e714db9	0.23564805
80	0xbcda27b0	-0.026630253
81	0xbdc33a45	-0.095325984
82	0x3e5ed181	0.21759607
83	0xbdfcc53e	-0.123423085
84	0x3d333a13	0.043756556
85	0xbe7af368	-0.24506915
86	0x3e194dd0	0.1497109
87	0x3e154eae	0.14580795
88	0xbe792db2	-0.24333838
89	0x3e4b1fea	0.19836393
90	0xbc9e637d	-0.01933455
91	0xbdffbeb7	-0.12487548
92	0x3e81ef3a	0.25377828
93	0x3dd45b85	0.103690185
94	0x3d03694b	0.032082837
95	0xbdbbdfcc	-0.09173545
96	0xbe331f8e	-0.17492506
97	0xbdfa2d1c	-0.12215635
98	0x3dabd567	0.08390313
99	0x3d9c8575	0.076426424
100	0xbe4947ca	-0.19656292
101	0x3e9e4a9e	0.30916303
102	0x3e156a97	0.14591442
103	0xbce50e0b	-0.027960798
104	0x3de5be39	0.11217923
105	0xbddfcb02	-0.109273925
106	0x3df07742	0.117414966
107	0x3e80a340	0.2512455
108	0xbe4de463	-0.20106654
109	0xbe158765	-0.1460243
110	0xbd2955d9	-0.041341636
111	0x3e098d35	0.13432772
112	0xbe71720a	-0.23578659
113	0xbe2b2920	-0.16714907
114	0x3c83fc97	0.016111655
115	0x3c8a31af	0.016869394
116	0x3d2d7543	0.042348158
117	0x3d08a141	0.03335691
118	0x3d7b88b1	0.061409656
119	0x3c969f50	0.018386513
120	0x3d3b2841	0.045692686
121	0xbd772ce0	-0.06034553
122	0x3df92bc2	0.12166549
123	0x3e51c2b0	0.20484424
124	0xbe07d226	-0.13263759
125	0xbe0d556b	-0.13802116
126	0x3e1f3c4f	0.1555035
127	0xbe663c20	-0.22483873
128	0x3e43877d	0.19094653
129	0x3e0dd98e	0.13852522
130	0x3cdceb8b	0.026967784
131	0xbdcbce87	-0.09951501
132	0x3bbe289e	0.005803182
133	0xbe5cf68e	-0.21578428
134	0xbe83b209	-0.25721768
135	0x3e7b76d5	0.2455705
136	0xbe81506b	-0.25256667
137	0xbe7e5b31	-0.24839474
138	0xbdce2450	-0.1006552
139	0x3c749e6d	0.01493035
140	0x3d066553	0.032811474
141	0xbdfa48a1	-0.12220884
142	0xbcb4562a	-0.022013742
143	0xbdad4f48	-0.08462387
144	0x3e79f9b1	0.24411656
145	0x3e84b33d	0.25917998
146	0x3e1177ae	0.1420581
147	0xbc12daa8	-0.0089632645
148	0x3e43a604	0.19106299
149	0xbe7fff2b	-0.24999683
150	0x3dd698b4	0.104783446
151	0xbe0ef07f	-0.1395893
152	0x3e88739d	0.26650706
153	0xbe559538	-0.20857704
154	0x3df0a211	0.11749662
155	0xbe436329	-0.19080795
156	0x3e2879a0	0.16452646
157	0x3da77ef3	0.081785105
158	0x3e739718	0.23788106
159	0xbe5e78cb	-0.21725766
160	0x3e3ccb01	0.18436815
161	0xbe325b48	-0.17417634
162	0xbe1358dc	-0.14389366
163	0x3df3536c	0.11881146
164	0xbd969b9d	-0.073539
165	0xbe4714fb	-0.19441597
166	0xbe5007b1	-0.20315434
167	0x3c2f1db4	0.010688234
168	0x3e18e489	0.14930929
169	0x3e77688a	0.24160972
170	0x3e5e21cc	0.2169258
171	0x3cf33f68	0.02969332
172	0xbe3bc4e0	-0.1833682
173	0xbe4b711e	-0.1986737
174	0x3e867e1e	0.26268095
175	0xbdf120dd	-0.11773846
176	0xbc8e7e30	-0.017394155
177	0xbe3622c9	-0.17786707
178	0xbe31dc56	-0.17369208
179	0x3d8f2b82	0.0699072
180	0xbdae7efb	-0.08520313
181	0x3d03b476	0.032154523
182	0x3be0b86b	0.006857922
183	0x3d846f60	0.064665556
184	0xbcfe510e	-0.03104451
185	0xbcbb87ac	-0.022891842
186	0x3df56dbd	0.119838215
187	0x3e3eb819	0.18624915
188	0x3e8a8732	0.2705627
189	0xbe3c9906	-0.18417749
190	0xbe7d31ed	-0.24726076
191	0xbc6cc2f0	-0.014450774
192	0xbc20e204	-0.009819511
193	0x3e1a18a2	0.15048459
194	0x3e722116	0.23645434
195	0x3d5c0a6a	0.05372087
196	0xbe5d63db	-0.21620123
197	0xbd65797b	-0.056024056
198	0x3e6445dd	0.22292276
199	0x3da5f6e7	0.081037335
200	0xbe48ca59	-0.1960844
201	0x3cd5f55b	0.026117971
202	0xbe89a757	-0.26885483
203	0xbdce9c57	-0.10088413
204	0x3e79f22c	0.24408787
205	0xbdcdc434	-0.100471884
206	0x3e0ba0eb	0.13635604
207	0xbe85967e	-0.2609138
208	0x3e5ca37b	0.21546738
209	0x3e27126c	0.16315621
210	0x3e53c10b	0.20679109
211	0x3d93fe86	0.07226281
212	0x3ce63976	0.028103571
213	0xbde642c7	-0.112432055
214	0xbe12dd7d	-0.14342304
215	0xbe5aaa0e	-0.21353933
216	0x3e67896a	0.22611013
217	0xbddff813	-0.10935988
218	0xbc8b8e40	-0.017035604
219	0xbe8298ba	-0.25507146
220	0x3d8b354f	0.06797277
221	0xbdf00917	-0.11720484
222	0xbe754a77	-0.23954187
223	0x3d3cf922	0.04613603
224	0xbe525352	-0.20539597
225	0xbcaaaaa5	-0.020833323
226	0xbe6d9ca9	-0.23204292
227	0x3e294b62	0.16532663
228	0xbe56a58d	-0.2096159
229	0x3d7a589e	0.06111967
230	0x3e1365ef	0.14394353
231	0xbe37edf8	-0.17961872
232	0x3e388256	0.18018469
233	0x3e6331fe	0.2218704
234	0xbe2f941b	-0.17146342
235	0x3d8b6a8a	0.0680743
236	0x3da85c90	0.0822078
237	0x3e62cbee	0.22148106
238	0x3e5a1a5c	0.21299118
239	0xbe5efe7d	-0.21776767
240	0xbe70e154	-0.23523456
241	0xbe6736a1	-0.22579433
242	0xbe17cb61	-0.14823677
243	0xbd949a5f	-0.072560064
244	0xbd8a52a0	-0.06754041
245	0x3e14d150	0.14532971
246	0xbe6122a3	-0.21985869
247	0xbe6436e2	-0.22286561
248	0xbe53adb1	-0.20671727
249	0xbe430d5c	-0.19048065
250	0x3e858633	0.26078948
251	0x3d632ca2	0.055462487

model.2.weight f4 [128, 252]
0	0xbbd45144	-0.006479414
1	0x3ccc08e0	0.024906576
2	0xbd9130a5	-0.07089356
3	0x3dd1a8e3	0.10237291
4	0x3b3bdc41	0.0028665217
5	0x3db96439	0.09052319
6	0x3ca26279	0.019822346
7	0xbce61af3	-0.028089022
8	0xbd30e48f	-0.04318672
9	0xbdbec74a	-0.09315355
10	0x3d76857d	0.060185898
11	0xbe03dd4c	-0.12877387
12	0xbc5a75fc	-0.013333794
13	0xbd2a07f0	-0.041511476
14	0x3dda5632	0.10660972
15	0x3d1723ca	0.036899365
16	0x3d195a18	0.037439436
17	0xbd275891	-0.040855948
18	0x3d574547	0.052556302
19	0xbd34efa1	-0.04417384
20	0x3d1c8a3f	0.03821778
21	0x3de6a99c	0.11262819
22	0x3d23b23e	0.039964907
23	0xbd936957	-0.07197826
24	0xbd4891ae	-0.048967056
25	0xbdd46e9e	-0.10372661
26	0x3b962a7b	0.004582701
27	0x3de6fb1b	0.11278363
28	0x3acadc42	0.0015477019
29	0x3cb42350	0.021989495
30	0xbadadfd5	-0.0016698787
31	0xb93dd958	-0.00018105411
32	0x3de5c9bb	0.11220118
33	0x3ce128d4	0.027485289
34	0x3c7f31a5	0.015575801
35	0x3e6603e3	0.2246242
36	0xbd2fb7de	-0.04289996
37	0x3c2aaf60	0.010417789
38	0x3a7b2fc6	0.0009582009
39	0xbd057c8e	-0.032589488
40	0x3d6c1bb0	0.057643592
41	0x3ce96070	0.028488368
42	0xbd47863c	-0.048712
43	0x3d57055f	0.052495357
44	0x3d45b084	0.04826404
45	0xbe377889	-0.17917074
46	0xbd928212	-0.07153715
47	0x3e2e1ec1	0.17003919
48	0xbe133554	-0.14375812
49	0xbdf92fa0	-0.12167287
50	0x3e26102b	0.16217105
51	0x3d920816	0.071304485
52	0x3d4d0e85	0.050062675
53	0xbd613795	-0.054984648
54	0x3da36b39	0.079794355
55	0xbdf6625e	-0.12030481
56	0xbd5b2245	-0.05349948
57	0xbb498027	-0.003074655
58	0xbab13f1a	-0.0013522834
59	0xbc7506c1	-0.014955224
60	0x3c4d9eab	0.012550036
61	0xbd060839	-0.032722685
62	0x3cba469c	0.022738747
63	0xbd8a6f41	-0.06759501
64	0x3dfb6b2c	0.12276301
65	0x3c496556	0.012292227
66	0x3d257263	0.04039229
67	0xbaa2ff2e	-0.0012435669
68	0xbd714213	-0.058900904
69	0x3b3c97e6	0.0028777062
70	0xbbc00bea	-0.0058607953
71	0x3e4a6288	0.19764149
72	0x3d147c67	0.03625145
73	0x3d652986	0.055947803
74	0x3d823d4d	0.063593484
75	0xbc22071c	-0.00988939
76	0x3cc56443	0.02409566
77	0x3dda758f	0.10666954
78	0xbc1ca15a	-0.009559954
79	0xbc202d8d	-0.009776485
80	0x3da28623	0.07935741
81	0x3c14796c	0.009062152
82	0xbc77ed47	-0.015132255
83	0xbde6261b	-0.11237737
84	0xbcdb8b95	-0.026799956
85	0x3cc89fd9	0.024490284
86	0x3c9dafb4	0.01924882
87	0x3e144d99	0.14482726
88	0xbde0d157	-0.109774284
89	0x3d180d68	0.03712216
90	0x3d84c280	0.064824104
91	0xbd5a3e98	-0.05328235
92	0xbd4cf80f	-0.050041255
93	0x3ce8f988	0.028439298
94	0x3d09e64c	0.033666894
95	0x3dd1de39	0.10247464
96	0x3c3867de	0.011255233
97	0x3d9dbca1	0.07701994
98	0xbd4f6205	-0.050630588
99	0xbd33296a	-0.043740667
100	0xbdbf8983	-0.093524
101	0x3e142b90	0.14469743
102	0x3d0f61f3	0.03500552
103	0x3daaa1f7	0.083316736
104	0x3b77d828	0.0037818048
105	0xbc2cd16f	-0.01054798
106	0x3cdbbc54	0.0268232
107	0xbbde6438	-0.0067868493
108	0x3e0be462	0.1366134
109	0x3e00bcf3	0.12572078
110	0x3d4c18ca	0.04982833
111	0x3e52124d	0.20514794
112	0x3c9c85bc	0.019106738
113	0x3c0337cd	0.008008909
114	0x3e3ab01d	0.18231244
115	0x3da0ed81	0.078578
116	0x3c8ed5c1	0.01743591
117	0x3d832af1	0.06404675
118	0xbb38cf94	-0.0028199898
119	0x3cec7464	0.028864093
120	0x3ce5239f	0.027971087
121	0xbbef742f	-0.0073075513
122	0x3c169403	0.009190562
123	0x3cc01c8d	0.023451114
124	0x3ce3c652	0.027804527
125	0xbd9b5919	-0.075853534
126	0x3e024fa3	0.12725691
127	0xbe306506	-0.17226037
128	0x3b8504e8	0.0040594228
129	0xbce8c1a9	-0.028412657
130	0x3d427215	0.04747208
131	0xba92764b	-0.001117417
132	0x3deb663f	0.11494111
133	0xbce648d6	-0.028110903
134	0xbdb004b9	-0.08594651
135	0xbd52d227	-0.05146995
136	0xbd687266	-0.056749724
137	0xbdb730f3	-0.08944883
138	0x3da2bdad	0.07946334
139	0xbd0c84bb	-0.03430627
140	0xbc032be0	-0.008006066
141	0xbb2e2727	-0.002657363
142	0xbceee42c	-0.029161535
143	0xbd38193a	-0.044945933
144	0x3d3d78cd	0.046257783
145	0xb970df9e	-0.00022971487
146	0x3e31a1f5	0.17346938
147	0xbdfc52dc	-0.12320492
148	0x3c8d187d	0.017223591
149	0xbd9cf33c	-0.07663581
150	0xba5f9216	-0.00085285434
151	0x3d0dd245	0.034624357
152	0x3c313914	0.010816831
153	0xbdeec8e7	-0.11659413
154	0x3dc9bb6f	0.09850203
155	0x3e445c54	0.19175845
156	0x3b78e7b6	0.0037979907
157	0x3dc3ab8d	0.09554205
158	0x3d75794f	0.059930142
159	0x3ca2500e	0.019813564
160	0xbc4cacbe	-0.012492357
161	0xbe100883	-0.14065747
162	0xba93cd58	-0.0011276407
163	0x3d0f9def	0.035062727
164	0xbda0de63	-0.07854917
165	0xbd9010d5	-0.070344605
166	0x3be79e19	0.0070684073
167	0xbdefa7cc	-0.117019266
168	0x3ce1e622	0.027575556
169	0xbc824fa7	-0.015907122
170	0x3c8b4052	0.016998444
171	0x3bd136bf	0.0063847
172	0x3c342826	0.0109959
173	0x3e6285ec	0.221214
174	0x3d8b291c	0.0679495
175	0xbe534857	-0.20633064
176	0x3d02e971	0.03196091
177	0xbdd43578	-0.10361761
178	0x3df62195	0.12018124
179	0x3dd91cc0	0.10601187
180	0x3d6237dd	0.055229057
181	0xbd04f227	-0.032457497
182	0xbcc51211	-0.024056466
183	0x3d9c35e7	0.076274686
184	0xbd815cc6	-0.06316523
185	0x3c841c5e	0.016126808
186	0x3d7b198d	0.061303664
187	0x3dbbf175	0.09176914
188	0x3d283a23	0.04107107
189	0xbdb0a801	-0.08625794
190	0xbd67447f	-0.056461807
191	0x3d680b21	0.05665124
192	0x3d811f19	0.063047595
193	0xbd064b14	-0.032786444
194	0x3d7a3e95	0.06109484
195	0x3b9605ac	0.004578313
196	0xbdf7f6ff	-0.12107658
197	0x3d696a10	0.056985915
198	0x3d6f283b	0.058387976
199	0x3c5c6b51	0.013453321
200	0xbd0e3138	-0.034714907
201	0x3d9f4935	0.07777635
202	0x3cf671f0	0.030083627
203	0x3d90ba66	0.07066803
204	0x3d49bbdc	0.049251422
205	0x3d61b5d5	0.05510505
206	0xbc9ee3fa	-0.019395817
207	0x3d7dc885	0.06195881
208	0x3d071eec	0.032988474
209	0xbc79bb46	-0.015242403
210	0x3e002a37	0.12516104
211	0x3cb4a6a0	0.02205211
212	0x3cefd5ca	0.029276747
213	0x3df8c874	0.121476084
214	0x3d9b8272	0.0759324
215	0xbdb7b950	-0.089708924
216	0xbc38a6c5	-0.01127023
217	0x3cc45d3a	0.023970235
218	0xbcb49fce	-0.022048857
219	0x3d51cf3f	0.051223036
220	0x3c998baf	0.018743364
221	0x3ca62520	0.020281374
222	0xbc21aa8b	-0.009867321
223	0xbbbedb41	-0.005824477
224	0xbe598442	-0.21241859
225	0xbd1b03da	-0.03784547
226	0xbda9ccb0	-0.08290994
227	0xbc38f2c0	-0.011288345
228	0xbbccde43	-0.0062520816
229	0xbde68955	-0.11256663
230	0x3c4e4deb	0.012591819
231	0xbddf7d9d	-0.10912631
232	0xbd0b3add	-0.033991683
233	0xbd62b40c	-0.055347487
234	0x3b8f3153	0.0043698936
235	0x3c97a4a5	0.018511126
236	0x3da8a98c	0.082354635
237	0xbb2e5570	-0.0026601218
238	0x3d897de2	0.06713463
239	0xbe50e837	-0.20401083
240	0x3ccfebf4	0.025381066
241	0xbdf186d0	-0.117932916
242	0xbde93d72	-0.11388673
243	0x3ce767c1	0.028247716
244	0x3c88818f	0.01666334
245	0x3d7984e3	0.060917746
246	0xbd28963f	-0.04115891
247	0x3e13dd5e	0.14439914
248	0xbc840dac	-0.0161198
249	0xbbf9c56c	-0.0076224115
250	0x3d9ed59d	0.07755587
251	0xbe3f43a6	-0.1867815
252	0x3ca3df0e	0.020003822
253	0x3d14a1c9	0.036287103
254	0x3d7d2172	0.061799474
255	0x3d92cd5e	0.07168077

model.2.bias f4 [128]
0	0x3dafefc0	0.085906506
1	0x3ddd40ba	0.10803361
2	0xbcfe1755	-0.031016985
3	0xbd64321f	-0.05571186
4	0x3d555f3b	0.052092772
5	0x3d17ba2d	0.037042785
6	0xbd52e228	-0.05148521
7	0x3ce62dc6	0.028097998
8	0x3d99e2e9	0.07513983
9	0x3d74b82a	0.059745945
10	0xbc064820	-0.008195907
11	0xbd1d1f1c	-0.038359746
12	0xbbc8d180	-0.00612849
13	0x3d81d0fa	0.06338687
14	0x3b8a52c3	0.0042212917
15	0xbc1c237d	-0.009529945
16	0x3b738471	0.0037157799
17	0xbcc1c627	-0.023654057
18	0x3d1291b6	0.035783492
19	0xbc22e940	-0.009943306
20	0xbc9701c9	-0.018433468
21	0x3d4e5d00	0.05038166
22	0x3c3ba4f3	0.011452901
23	0x3d313a9e	0.043268792
24	0x3b5848ff	0.0033002493
25	0xbceec5ea	-0.029147107
26	0xbc049cdf	-0.008094042
27	0x3cfdbc62	0.030973617
28	0xbcb14fe5	-0.021644542
29	0x3d412c9c	0.047161683
30	0x3d284de2	0.0410899
31	0x3d02d1fd	0.03193854
32	0xbd650190	-0.055909693
33	0x3d18f4f3	0.037342977
34	0x3bf61003	0.007509233
35	0xbc0bd8c9	-0.008535572
36	0xbc72a019	-0.014808678
37	0x3b2403dc	0.0025026714
38	0x3d32617a	0.043549992
39	0x3d4a2e8c	0.049360797
40	0xbd5022bc	-0.050814375
41	0x3d8e9345	0.06961683
42	0x3d99be00	0.07506943
43	0xbd621a3d	-0.055200804
44	0xbc0c538e	-0.008564843
45	0x3cd4a950	0.02595964
46	0xbd7d282b	-0.061805885
47	0xbb3c07b2	-0.002869111
48	0x3d120611	0.035650317
49	0xbd737cf8	-0.05944535
50	0xbd1f9ca1	-0.038967732
51	0x3c0f589d	0.008749154
52	0x3d4e233a	0.050326563
53	0x3d6debce	0.05808621
54	0x3d691689	0.056906257
55	0xbc8cd071	-0.017189236
56	0xbd74f299	-0.05980167
57	0xbc1dd61d	-0.009633568
58	0x3d823269	0.06357271
59	0xbd8183f4	-0.06323996
60	0x3d02c511	0.03192622
61	0xbcaa3a3c	-0.020779721
62	0x3cf03c08	0.0293255
63	0xbb82e941	-0.003995091
64	0xbd3fb3c6	-0.046802305
65	0xbd320f68	-0.043471724
66	0xbbfc0639	-0.0076911715
67	0x3c9a5ac8	0.018842116
68	0x3cada8e6	0.021198701
69	0x3d8546fb	0.06507679
70	0x3ce3ef8d	0.027824188
71	0x3d5c90ad	0.05384891
72	0xbd2d462f	-0.04230326
73	0xbcff7094	-0.031181611
74	0x3ae519e8	0.0017479034
75	0xbd051ce3	-0.03249825
76	0xbc523a6e	-0.012831314
77	0x3d6dc16d	0.058045793
78	0xbc75b4a5	-0.014996682
79	0x3ce71f86	0.028213274
80	0x3d4d986f	0.0501942
81	0xbd1441d2	-0.036195584
82	0xbc5ad430	-0.0133562535
83	0x3c0d061e	0.0086074155
84	0xbc2cc505	-0.01054502
85	0x3d5ff268	0.054674536
86	0xbb810bff	-0.0039381976
87	0x3d356fc2	0.044296034
88	0xbd5326e8	-0.051550776
89	0x3c82de62	0.015975181
90	0xbd062538	-0.03275034
91	0x3cad51cf	0.021157173
92	0x3d3a4b7f	0.045482155
93	0x3ca0981b	0.01960378
94	0xbd788056	-0.060669266
95	0x3d06c969	0.032906923
96	0x3ddd113a	0.10794301
97	0x3bd839c9	0.0065986854
98	0xbd5c423d	-0.053774107
99	0x3d154dfe	0.036451332
100	0x3bbff57a	0.0058581205
101	0xbd15d731	-0.036582176
102	0xbd2c0c22	-0.04200376
103	0x3d840582	0.06446363
104	0x3d4ca22e	0.049959354
105	0x3d2e4745	0.042548437
106	0x3d0a7ec7	0.03381231
107	0x3cac47c4	0.021030314
108	0xbd4a68fe	-0.049416535
109	0xbd3c1ec6	-0.045927785
110	0x3d6dbfde	0.058044307
111	0x3d6f621d	0.058443177
112	0x399e7904	0.00030226272
113	0xbc927d7f	-0.017882107
114	0x3b7a9556	0.0038235984
115	0xbccb6729	-0.024829464
116	0x3d0339cb	0.032037538
117	0x3d2fbc79	0.04290435
118	0xbcfad469	-0.030618863
119	0xbd509674	-0.050924733
120	0xbce5f906	-0.028072845
121	0xbc3c02e0	-0.011475295
122	0xbd01de14	-0.03170593
123	0x3d3270c3	0.04356457
124	0x3cd83bd3	0.026395714
125	0xbd135919	-0.035973642
126	0xbc8d53a0	-0.01725179
127	0x3db33f5f	0.087523215

model.4.weight f4 [64, 128]
0	0xbcd98031	-0.026550384
1	0x3d018dd2	0.03162939
2	0xbb44d664	-0.0030035013
3	0xbb35d434	-0.002774489
4	0x3df3ca5b	0.119038306
5	0xbd4016e0	-0.046896815
6	0xbe07ecbd	-0.13273902
7	0x3d55a9c6	0.05216386
8	0x3c2abd7b	0.010421152
9	0xba1929cc	-0.0005842715
10	0xbdd314eb	-0.10306724
11	0x3df36b72	0.11885728
12	0xbe40b1ee	-0.18817875
13	0xba7012ab	-0.0009158055
14	0x3d7f0022	0.062255986
15	0x3d6b6a6d	0.057474542
16	0xbdc21c18	-0.09478015
17	0x3dbc5970	0.09196746
18	0x3d64c892	0.05585534
19	0x3e00a688	0.12563527
20	0xbd9b5175	-0.07583896
21	0xbc6c7cfc	-0.0144340955
22	0x3b2658e5	0.0025382575
23	0xbe550e6c	-0.20806283
24	0x3c08147d	0.008305666
25	0x3d0e4a42	0.034738787
26	0x3e3d1baa	0.18467584
27	0xbda5f652	-0.081036225
28	0xbda48de5	-0.08034877
29	0x3cbec082	0.023285154
30	0xbdcf94e5	-0.10135821
31	0xbc6ed355	-0.014576753
32	0xbc0449e9	-0.008074262
33	0xbc8195cc	-0.015818499
34	0x3e300968	0.17191088
35	0x3e36ae70	0.1783998
36	0xbdfbc3f1	-0.12293232
37	0xbd196481	-0.037449364
38	0xbc8754f0	-0.016519994
39	0xbe2ea954	-0.17056781
40	0xbb891f91	-0.004184671
41	0xbd0d08f1	-0.034432355
42	0x3d590ebc	0.052992567
43	0x3d9ab837	0.075546674
44	0xbdbc9f2d	-0.09210048
45	0xbdd148d1	-0.10218967
46	0x3e876bad	0.26449338
47	0x3c55109c	0.013004448
48	0x3d2fb92f	0.042901214
49	0x3dc6236c	0.09674725
50	0xbe0932ed	-0.13398333
51	0xbdf09186	-0.117465064
52	0x3d659d61	0.05605829
53	0xbd1cf320	-0.0383178
54	0x3dc54791	0.09632791
55	0x3d616df2	0.055036493
56	0xbe2ab080	-0.16668892
57	0xbdda09d6	-0.10646407
58	0x3e22393e	0.15842149
59	0x3c658910	0.014009729
60	0xbe59b020	-0.21258593
61	0x3c9092b8	0.017648086
62	0x3e7e7da2	0.24852613
63	0xbd72a91e	-0.059243314
64	0xbc8d30f0	-0.01723525
65	0x3d15c7d1	0.036567513
66	0xbd13433a	-0.035952784
67	0x3c1d2bd0	0.009592965
68	0x3de18560	0.110117674
69	0xbe26e8dd	-0.16299768
70	0x3e7cb916	0.2467998
71	0xbe1f870c	-0.1557886
72	0x3dced946	0.10100035
73	0x3d8cf958	0.06883496
74	0x3da0cec4	0.078519374
75	0x3e038450	0.12843442
76	0x3d7102ba	0.05884049
77	0x3d965dfb	0.07342144
78	0xbd578ed4	-0.052626446
79	0x3d482bd6	0.04886993
80	0x3d60f5c1	0.05492187
81	0xbca1a7cd	-0.019733334
82	0x3dda9b33	0.10674133
83	0x3d5c9b2d	0.053858925
84	0xbdb01af4	-0.08598891
85	0xbbb9eb1a	-0.0056737782
86	0x3cf56416	0.029954951
87	0x3cb00ec3	0.021491414
88	0x3d189c1e	0.03725826
89	0xbdd68b8b	-0.104758345
90	0xbd8dc0ed	-0.06921563
91	0x3c9cc7ae	0.019138183
92	0x3e604d57	0.21904503
93	0xbc22a4d3	-0.0099269925
94	0x3d912100	0.070863724
95	0x3e70fdac	0.23534268
96	0xbce0fc33	-0.027464008
97	0x3dfae325	0.12250356
98	0x3d08228a	0.033236064
99	0x3cd30366	0.025758456
100	0xbe399e11	-0.18126704
101	0x3e3b80c8	0.18310845
102	0x3d93e500	0.07221413
103	0xbb608007	-0.0034255998
104	0x3b890d53	0.0041824966
105	0x3d1c74c5	0.038197298
106	0xbd4956d0	-0.049155056
107	0xbc2a683f	-0.010400831
108	0x3daa5d35	0.08318559
109	0xbd954484	-0.07288459
110	0xbdd38392	-0.103278294
111	0xbd9d8556	-0.076914474
112	0x3e005c41	0.12535192
113	0x3a412869	0.00073683873
114	0x3e1abbc1	0.15110685
115	0xbe565259	-0.2092985
116	0xbd0fe8b8	-0.035134047
117	0x3d9af86d	0.07566915
118	0xbddb144c	-0.10697231
119	0xbbc906a6	-0.0061348258
120	0x3c44f0d0	0.012020305
121	0x3dc32000	0.09527588
122	0x3d07893e	0.03308987
123	0x3d1d99c9	0.03847674
124	0xbda0fc3e	-0.078606114
125	0x3d143508	0.036183387
126	0x3df22342	0.11823131
127	0xbe07d337	-0.13264166
128	0x3d5836b3	0.05278654
129	0x3b8c6420	0.004284397
130	0xbda46d78	-0.08028692
131	0xbc9f37e4	-0.01943583
132	0xbda8b6f6	-0.08238022
133	0x3d391877	0.045189347
134	0xbdc802b2	-0.09766139
135	0xbcdbbe3f	-0.026824115
136	0x3d5b4e5c	0.053541526
137	0x3caad9cf	0.020855812
138	0xbdb1960e	-0.08671199
139	0xbc463684	-0.0120979585
140	0x3da4916b	0.08035549
141	0x3d06c76c	0.032905027
142	0x3be7df90	0.0070762113
143	0xbda05754	-0.078291565
144	0x3d486950	0.04892856
145	0x3d9f77b2	0.07786502
146	0x3d92ca9f	0.07167553
147	0x3d906dd7	0.070522
148	0x3d92ea5e	0.07173608
149	0x3aded209	0.0016999851
150	0xbd800aab	-0.06252035
151	0x3d508394	0.050906733
152	0xbcc42332	-0.023942564
153	0x3bcccb5e	0.006249829
154	0x3d692eeb	0.05692951
155	0x3cf09fce	0.029373076
156	0xbd5fa8b0	-0.054604232
157	0xbd335afd	-0.043787945
158	0xbd587f63	-0.05285586
159	0x3bacbd8a	0.0052716183
160	0xbda186fb	-0.078870736
161	0xbd95dd80	-0.073176384
162	0xbcbed5af	-0.023295252
163	0xbda69141	-0.08133174
164	0x3c85eff7	0.016349776
165	0xbd040883	-0.03223468
166	0xbb974c89	-0.004617278
167	0x3c9b902d	0.018989647
168	0xbd9080bd	-0.07055805
169	0xbd275b13	-0.04085834
170	0x3ca8c0cc	0.020599745
171	0x3d764f26	0.060134076
172	0x3d7e1696	0.06203326
173	0x3d584f6a	0.05281011
174	0x3cf6efaa	0.030143578
175	0xbce64fd0	-0.02811423
176	0xbd5d7bd0	-0.054073155
177	0xbbafa96b	-0.0053607724
178	0xbbf934ad	-0.0076051564
179	0x3ccf081d	0.025272423
180	0xbc94055a	-0.018068958
181	0xbd4d727e	-0.050158016
182	0xbc9e158d	-0.019297386
183	0x3db1b740	0.0867753
184	0x3d6621e5	0.056184668
185	0x3d872327	0.06598502
186	0xbd739705	-0.059470195
187	0xbd182824	-0.037147656
188	0x3d482c74	0.04887052
189	0x3cb60cc6	0.022222888
190	0xbd42ba8d	-0.04754119
191	0x3dbaa553	0.09113564
192	0x3d2f0b06	0.042735122
193	0xbd67f9b6	-0.056634627
194	0xbcd3b995	-0.025845328
195	0x3d6a63e3	0.057224166
196	0x3c69447a	0.0142375175
197	0x3d006daf	0.031354602
198	0x3d68faa2	0.056879647
199	0xbdb57207	-0.088596396
200	0x3c24f3d9	0.010067903
201	0x3cf62088	0.030044809
202	0x3d9c0c60	0.07619548
203	0x3cada7a0	0.021198094
204	0x3d88d539	0.06681294
205	0xbd4af90c	-0.049553916
206	0xbce2e528	-0.02769716
207	0xbd696a3f	-0.05698609
208	0xbdbe51ce	-0.09292947
209	0x3c9f1734	0.019420244
210	0xbcdf46fd	-0.02725553
211	0xbc47833b	-0.012177284
212	0xbc499f9a	-0.012306118
213	0xbd081e8e	-0.033232264
214	0xbabf5ba1	-0.0014599451
215	0x3d3a5c33	0.045498084
216	0x3d5acc76	0.053417645
217	0xbd767ed5	-0.06017955
218	0xbd0d270e	-0.034461074
219	0x3cd83602	0.02639294
220	0x3d831065	0.063996114
221	0xbd577ee3	-0.052611243
222	0x3d784b0e	0.060618453
223	0xbd38209b	-0.04495297
224	0xbd344ef9	-0.044020627
225	0xbca3b90e	-0.019985702
226	0x3d17a592	0.037023135
227	0xbc8da865	-0.01729221
228	0x3c9cf833	0.01916132
229	0x3d37809c	0.044800386
230	0xbd4f640a	-0.050632514
231	0x3cb6ea8c	0.022328638
232	0xbcba587b	-0.022747269
233	0xbcd54711	-0.026034864
234	0xbca91b4b	-0.020642897
235	0x3b770b5d	0.0037695982
236	0xbcdd62a2	-0.02702457
237	0x3d983149	0.074312754
238	0x3bd1ad8a	0.0063988613
239	0x3d73b5bd	0.05949949
240	0xbb5c3c42	-0.0033605252
241	0xbcb551a2	-0.022133652
242	0xbcc2b8cc	-0.023769759
243	0xbd74ddd3	-0.05978186
244	0x399b6ff8	0.00029647327
245	0x3d8f42df	0.069951765
246	0xbc1daaca	-0.009623239
247	0x3d6bb70d	0.057547618
248	0xbdba2fda	-0.09091158
249	0xbc288a4c	-0.010286879
250	0x3d358b3e	0.044322245
251	0x3d21abc1	0.039470438
252	0xbc36d586	-0.011159306
253	0xbd5ecf65	-0.054397006
254	0xbcbab62c	-0.022791944
255	0xbd2a6b7b	-0.041606408

model.4.bias f4 [64]
0	0x3da48f12	0.08035101
1	0xbd9b2bef	-0.07576739
2	0xbc016df5	-0.007899751
3	0x3d4d8126	0.050171994
4	0x3db35af2	0.08757581
5	0xbd98b6a8	-0.07456714
6	0x3d488369	0.048953447
7	0xbc3d416f	-0.011551245
8	0x3d97d084	0.07412818
9	0x3b0b057c	0.0021212986
10	0x3cca9a65	0.024731824
11	0x3d9c5399	0.076331325
12	0xbd0e67a1	-0.034766797
13	0xbc14e1f5	-0.0090870755
14	0xbcb0e213	-0.021592176
15	0x3d9da151	0.07696784
16	0x3d745135	0.059647758
17	0xbd9c706f	-0.076386325
18	0x3dce6766	0.100783154
19	0x3db8db21	0.090261705
20	0xbce21d4d	-0.027601862
21	0x3c8ba413	0.01704601
22	0x3d7990c7	0.060929086
23	0x3e051abe	0.12998483
24	0x3d8c11f9	0.068393655
25	0x3d0ce96e	0.034402303
26	0xbc0984f9	-0.00839352
27	0x3d911374	0.070837885
28	0x3dbbc825	0.09169034
29	0x3dd6b95b	0.104845725
30	0x3d56bab4	0.052424148
31	0x3c4d1fd5	0.012519796
32	0x3d8df321	0.06931139
33	0x3d1ec96b	0.038766306
34	0xbc9391ab	-0.018013796
35	0x3de4a9d5	0.111652054
36	0x3db2e999	0.087359615
37	0x3db1f50c	0.08689317
38	0xbc0395eb	-0.008031349
39	0xbcddde25	-0.027083466
40	0x3d809b75	0.06279651
41	0x3d7e0a96	0.062021814
42	0x3d8bd553	0.06827798
43	0xbce7f81d	-0.028316552
44	0x3da5fc5d	0.08104775
45	0x3df97ec7	0.12182384
46	0x3d484f58	0.048903793
47	0x3d936114	0.071962506
48	0xbd88f336	-0.06687014
49	0x3dc99dbd	0.09844539
50	0xbd4bdd9f	-0.0497719
51	0x3d7df677	0.062002625
52	0xbd7ed5f2	-0.062215753
53	0xbd93ba51	-0.072132714
54	0x3b0693f5	0.0020534967
55	0x3da42f8d	0.08016882
56	0xbcc9e628	-0.02464588
57	0xbd5af7a7	-0.053458836
58	0x3d91f653	0.07127061
59	0x3b9c14b0	0.0047632083
60	0x3d9793c6	0.074012324
61	0x3ce2d6d1	0.027690323
62	0x3cc06821	0.023487153
63	0x3d53be46	0.05169513

model.6.weight f4 [1, 64]
0	0xbe249326	-0.16071758
1	0x3987d1f8	0.00025905645
2	0x3d73c314	0.059512213
3	0xbe8c3a62	-0.27388293
4	0xbe01bd7b	-0.12669937
5	0x3d4b69b7	0.049661364
6	0xbe351c07	-0.17686473
7	0xbe3ac86b	-0.18240516
8	0x3e3c9be9	0.1841885
9	0xbe14e3c3	-0.14540009
10	0xbe67a8c1	-0.22622968
11	0x3e3ce9b0	0.1844852
12	0x3d2218d4	0.03957446
13	0x3e3bec84	0.18351942
14	0xbec10d9e	-0.37705702
15	0xbda4075e	-0.08009218
16	0x3e09b724	0.13448769
17	0x3ab2aa80	0.0013631135
18	0x3e541377	0.2071055
19	0x3e449a0b	0.19199388
20	0x3e09430f	0.13404487
21	0x3e4114fe	0.18855664
22	0x3e27c922	0.1638532
23	0x3e48d15a	0.19611111
24	0xbdb57158	-0.08859509
25	0xbe37bedf	-0.17943905
26	0xbe13bb3c	-0.14426893
27	0x39a9ff08	0.00032424205
28	0xbe4e8f31	-0.2017181
29	0x3e49fd0a	0.19725433
30	0xbe331760	-0.17489386
31	0xbe16bbc9	-0.14720072
32	0x3e176e25	0.1478811
33	0xbe4d9c4b	-0.20079152
34	0xbe169d9b	-0.14708559
35	0x3e3cb5f6	0.18428788
36	0x3e58daf9	0.21177281
37	0x3e39c90c	0.181431
38	0x3e54f654	0.20797092
39	0xbde974d2	-0.11399235
40	0xbe56cc4a	-0.20976368
41	0x3e293cc4	0.16527086
42	0xbe401a08	-0.1875993
43	0x3de70f67	0.11282235
44	0xbe4adcd3	-0.198108
45	0x3e66e33e	0.22547624
46	0x3e52bcf4	0.20579892
47	0xbd8a5e59	-0.06756277
48	0xbe1f77d7	-0.15573059
49	0x3e463d13	0.19359235
50	0x3db9cdc9	0.090724535
51	0xbeb550b8	-0.35413146
52	0xbe25e78d	-0.16201611
53	0x3da8757d	0.08225534
54	0xbe3bf671	-0.18355729
55	0x3e2bf228	0.16791594
56	0xbd55dda7	-0.052213337
57	0x3e09edf0	0.13469672
58	0xbc4e0bdb	-0.012576069
59	0x3e7fd27f	0.24982642
60	0xbcc9780c	-0.024593376
61	0xbdddd146	-0.10830931
62	0xbeba9f12	-0.36449486
63	0xbe2908b7	-0.1650723
