Models/SavedModels/HeartDiseaseModel.pth (torch, 17592 bytes, 7 tensors)

model.0.weight f4 [64, 13]
0.13205735 0.13542616 -0.18981789 0.0057975715 0.11350661 -0.0593536 -0.5263636 0.22358195
0.062317777 0.011676946 -0.009913002 0.0872879 0.2313373 0.15684745 -0.07045321 0.08865036
-0.07068465 0.029920181 -0.039315138 0.106360376 -0.040444396 -0.14787365 -0.14100999 0.39130968
-0.54574805 -0.20058088 -0.13414994 -0.12022046 -0.052494567 -0.21414532 0.39009923 -0.064419374
0.3496322 0.07812226 -0.47704402 0.17681605 -0.048641507 0.029118082 -0.054073863 -0.17443354
0.04657224 0.016460424 0.16310045 0.3280192 0.2547823 -0.1626838 0.4239784 -0.5297799
0.17296472 -0.2477567 -0.612649 -0.21620831 -0.1401961 0.08362122 0.041491013 0.14496377
0.09900964 -0.3228985 0.27354515 -0.24294892 -0.41151646 -0.17445731 -0.058232136 -0.025645455
0.04032008 0.16909765 0.27124223 -0.1403401 -0.11637373 -0.10829217 0.5539635 0.12672387
0.19730699 -0.16125679 -0.13114747 -0.0989693 -0.6126373 -0.060996756 0.06359947 0.24638979
-0.01526931 0.13085212 -0.06505713 0.09003713 0.012005675 0.01720054 0.13824418 0.045529444
-0.2951877 0.16586377 0.077150024 -0.42997187 -0.15692338 0.30229226 0.08669732 -0.2742964
0.453691 -0.14719775 0.17661116 -0.3739742 -0.16857627 -0.08220042 -0.0829346 -0.22480069
0.08148167 -0.17644332 0.0701973 -0.20093015 -0.21541317 -0.41102433 0.056050736 0.21152292
0.099850334 -0.30197936 -0.10635158 -0.69815505 -0.09124119 -0.24063994 0.02307999 -0.1836067
0.22731946 -0.23736902 0.6375862 -0.10449118 -0.5039996 0.28270265 0.260206 -0.25552613
0.32103458 -0.20888133 -0.17274207 0.20996559 -0.16297704 0.20496745 0.009757991 -0.19780463
-0.25150037 -0.29843324 -0.12879634 -0.08047377 -0.06948025 0.11476241 0.23157091 -0.114505515
0.26203185 -0.28422606 0.16613285 0.23182352 0.3409433 -0.6163439 -0.17132685 0.3768578
0.113223866 -0.28050524 0.347796 -0.039593108 0.014179817 0.3600096 0.07849036 0.13958815
0.14302836 -0.099184 0.041111957 -0.15011525 -0.030009659 0.05866222 -0.23858725 0.024228886
0.028362107 -0.24160717 -0.056081418 -0.03413029 0.12417646 0.098481074 -0.19700013 0.08060601
-0.043710213 0.049055006 0.066440836 -0.25214645 0.011504661 0.2702661 -0.06305683 -0.42337066
-0.044592213 0.089496434 -0.09319259 -0.24746436 0.25543743 -0.076566905 -0.37709096 0.031422947
0.29600096 -0.026097478 -0.24015687 -0.062097818 0.004047185 -0.016560078 0.06667811 0.07772282
-0.2519051 -0.10235265 0.2335647 0.108043104 -0.01379472 -0.16721597 -0.1696842 -0.24844103
0.091433756 -0.13567111 0.10678287 0.047052376 -0.265054 -0.16127984 -0.11428697 0.3249131
0.09640833 -0.064535886 0.22924098 -0.4487557 -0.2924264 0.33441558 -0.29347238 -0.017801924
-0.05483883 -0.03255651 -0.08401838 0.26470178 -0.20482221 -0.47884387 -0.22576554 -0.11336744
0.15563068 -0.005500396 0.09330631 0.033367045 -0.018328847 -0.14922072 -0.16850182 -0.5489682
-0.16059062 0.057678428 0.14135572 -0.15486582 0.10333271 -0.84477836 -0.17978203 0.0783459
0.096959814 -0.00515792 -0.0059749573 -0.0037356794 0.07995674 -0.009923786 -0.14439523 -0.119435266
00000000: 0b3a 073e 28ad 0a3e 9f5f 42be 8ef9 bd3b
00000010: 2776 e83d c31c 73bd c4bf 06bf abf2 643e
00000020: ed40 7f3d a950 3f3c 256a 22bc 00c4 b23d
00000030: afe3 6c3e 9e9c 203e c649 90bd 528e b53d
00000040: 1dc3 90bd 2b1b f53c e908 21bd 78d3 d93d
00000050: 06a9 25bd 316c 17be ec64 10be be59 c83e
00000060: 25b6 0bbf 1365 4dbe 9a5e 09be 2536 f6bd
00000070: 8b04 57bd e948 5bbe 16bb c73e 4eee 83bd
00000080: fe02 b33e 90fe 9f3d 1d3f f4be 440f 353e
00000090: 513c 47bd 0b89 ee3c 8e7c 5dbd b59e 32be
000000a0: 88c2 3e3d 03d8 863c ce03 273e 22f2 a73e
000000b0: d372 823e 9596 26be b213 d93e a89f 07bf
000000c0: aa1d 313e efb3 7dbe 91d6 1cbf b665 5dbe
000000d0: 918f 0fbe 9a41 ab3d 7bf2 293d 6271 143e
000000e0: 91c5 ca3d f452 a5be 1c0e 8c3e 9ac7 78be
000000f0: 49b2 d2be f0a4 32be d284 6ebd 6b16 d2bc
00000100: ab26 253d ef27 2d3e 43e0 8a3e 51b5 0fbe
00000110: 5a55 eebd 49c8 ddbd 8dd0 0d3f e7c3 013e
00000120: d80a 4a3e 8020 25be 864b 06be 6bb0 cabd
00000130: ccd5 1cbf bcd7 79bd 7040 823d 9b4d 7c3e
00000140: 212c 7abc 19fe 053e ac3c 85bd 6365 b83d
00000150: 73b3 443c 26e8 8c3c e28f 0d3e 157d 3a3d
00000160: d822 97be 31d8 293e d500 9e3d 4625 dcbe
00000170: 86b0 20be 0dc6 9a3e 5d8e b13d 9470 8cbe
00000180: 304a e83e 02bb 16be 8ed9 343e 8c79 bfbe
00000190: 429f 2cbe b258 a8bd 9ed9 a9bd 2732 66be
000001a0: dddf a63d 8fad 34be 9ac3 8f3d a2c0 4dbe
000001b0: 4595 5cbe c871 d2be 7595 653d 7799 583e
000001c0: 557e cc3d 0a9d 9abe dbce d9bd 4aba 32bf
000001d0: a9dc babd 516a 76be 3f12 bd3c 6503 3cbe
000001e0: 6fc6 683e dd10 73be d938 233f 79ff d5bd
000001f0: 1e06 01bf 67be 903e b939 853e 52d4 82be
00000200: a55e a43e fde4 55be 4ce3 30be 3801 573e
00000210: 74e3 26be fde2 513e fbdf 1f3c 4c8d 4abe
00000220: a8c4 80be 3ecc 98be 30e3 03be 6fcf a4bd
00000230: a94b 8ebd 8e08 eb3d ed20 6d3e de81 eabd
00000240: 0a29 863e 1486 91be bb1e 2a3e 2563 6d3e
00000250: 1f90 ae3e b7c8 1dbf 4e70 2fbe 81f3 c03e
00000260: eae1 e73d 629e 8fbe 5112 b23e 622c 22bd
00000270: 7752 683c 2e53 b83e 8ebf a03d 32f0 0e3e
00000280: 0776 123e fb20 cbbd 0365 283d d0b7 19be
00000290: d1d6 f5bc cc47 703d 3750 74be a87b c63c
000002a0: a657 e83c df67 77be a1b5 65bd 34cc 0bbd
000002b0: 3a50 fe3d 72b0 c93d 67ba 49be c414 a53d
000002c0: 7b09 33bd e7ed 483d 2212 883d 5719 81be
000002d0: 0c7e 3c3c 5160 8a3e f023 81bd 0ac4 d8be
000002e0: 53a6 36bd e849 b73d c2db bebd 4c67 7dbe
000002f0: b2c8 823e 1ccf 9cbd 1112 c1be 59b5 003d
00000300: 708d 973e 61ca d5bc afeb 75be 485a 7ebd
00000310: 409e 843b 00a9 87bc 888e 883d 242d 9f3d
00000320: b5f9 80be 449e d1bd 962b 6f3e b445 dd3d
00000330: 4003 62bc aa3a 2bbe b2c1 2dbe 5367 7ebe
00000340: 9f41 bb3d 5eed 0abe fab0 da3d feb9 403d
00000350: 28b5 87be 8b26 25be 490f eabd 035b a63e
00000360: bb71 c53d 642b 84bd 26be 6a3e 4fc3 e5be
00000370: eab8 95be 8538 ab3e 0342 96be 57d5 91bc
00000380: ae9e 60bd fa59 05bd d411 acbd fe86 873e
00000390: eabc 51be 062b f5be 152f 67be 302d e8bd
000003a0: a65d 1f3e aa3c b4bb 6117 bf3d e2ab 083d
000003b0: 6126 96bc 51cd 18be be8b 2cbe 2e89 0cbf
000003c0: de71 24be 3740 6c3d 8ebf 103e 2595 1ebe
000003d0: 1aa0 d33d 6543 58bf c818 38be d173 a03d
000003e0: de92 c63d c503 a9bb 93c9 c3bb 4dd2 74bb
000003f0: 5cc0 a33d 6097 22bc 58dc 13be 7a9a f4bd

model.0.bias f4 [64]
-0.4153608 -0.037159234 -0.3501973 0.1958614 -0.43553635 0.03202938 -0.08851909 -0.16711996
0.2556162 -0.2301724 -0.5669463 -0.20007351 -0.2600566 -0.45263678 0.0930595 -0.05128604
0.13217537 -0.07161412 0.3021421 -0.299955 -0.1639801 0.11933047 -0.4244221 -0.10524318
0.16667612 0.068857424 0.06414762 0.38457087 0.08222111 -0.31486535 0.41403642 -0.16725913
-0.08531067 0.054279994 0.015324874 0.2997305 -0.14876728 -0.27612644 -0.06785447 0.08036302
0.12594827 -0.16332287 -0.15118212 0.028607277 0.013542351 0.059095312 -0.09821427 0.08644823
0.018170305 -0.12043354 0.15957603 -0.11188386 0.15411247 0.19095032 0.20210193 -0.08158413
-0.3076933 -0.1190491 -0.034892395 -0.046755347 -0.31465563 -0.01536768 0.098355114 -0.09316654
00000000: 2caa d4be 4834 18bd 0f4d b3be e48f 483e
00000010: 9ffe debe 3d31 033d 7f49 b5bd 7f21 2bbe
00000020: 20e0 823e 50b2 6bbe 6523 11bf 12e0 4cbe
00000030: 2426 85be 02c0 e7be fb95 be3d 5011 52bd
00000040: fb58 073e 6caa 92bd 5fb2 9a3e b493 99be
00000050: 66ea 27be 8963 f43d da4d d9be bd89 d7bd
00000060: 25ad 2a3e 1f05 8d3d d45f 833d 79e6 c43e
00000070: 8b63 a83d 0836 a1be 95fc d33e fa45 2bbe
00000080: 5cb7 aebd b354 5e3d 2e15 7b3c 4776 993e
00000090: 7356 18be 7260 8dbe 49f7 8abd 5e95 a43d
000000a0: 95f8 003e 1c3e 27be 7ccf 1abe cf59 ea3c
000000b0: bde0 5d3c ed0d 723d 9024 c9bd c50b b13d
000000c0: e4d9 943c dca5 f6bd e667 233e 5d23 e5bd
000000d0: a9cf 1d3e 7b88 433e cff3 4e3e 9515 a7bd
000000e0: fa89 9dbe 04d0 f3bd 54eb 0ebd 8982 3fbd
000000f0: 8b1a a1be b9c8 7bbc 686e c93d 19ce bebd

model.3.weight f4 [32, 64]
-0.049100008 -0.055373788 0.102490574 0.50235647 -0.22979665 0.11174498 0.026820071 0.332874
-0.024890697 -0.36042273 -0.06440542 -0.053738717 -0.0451412 -0.26410156 0.44084948 0.1106593
0.24669825 0.079099976 0.043789588 -0.27850056 -0.056251258 0.8514577 -0.18886834 0.08801202
0.4668376 0.06092937 -0.1265085 -0.052343298 0.056177367 -0.21409997 0.3413205 -0.0007225765
0.7682243 0.020062316 0.19609593 0.075792335 0.03868054 0.12778579 -0.23938893 0.0037707943
0.23832162 0.07337814 -0.034682155 0.7628161 -0.011884835 -0.40838265 -0.02739962 0.11476412
-0.42801023 -0.20350003 0.4614911 -0.15733363 -0.10212915 -0.06802718 0.23351075 -0.11192656
0.01889251 -0.1460562 -0.0857981 -0.040207013 -0.27491227 0.003167702 -0.06490828 -0.15694757
-0.15740186 -0.011559621 -0.008756132 0.23615497 -0.10337759 0.14667955 -0.10223313 0.4446643
-0.023416009 -0.36304557 -0.27832654 -0.17317799 -0.15015972 -0.19208564 0.39120355 -0.018046245
0.09293051 0.08891531 0.014130662 -0.13317122 0.024601184 0.5268673 -0.054498293 -0.14905842
0.22959143 0.0681158 -0.013180648 0.044959795 -0.009157862 -0.20428236 0.28780362 0.10081571
0.56853217 -0.018711375 0.03781505 0.072421074 0.03036336 0.10074875 0.07138289 -0.051816866
0.33030552 -0.18906568 0.10249723 0.6700654 -0.11701331 -0.3991393 -0.10077578 0.048500877
-0.26318 -0.08569795 0.5257264 0.017421896 -0.075660035 -0.011535775 0.3377119 -0.07561498
-9.206504e-05 -0.11012115 -0.04751081 0.011581545 -0.2781913 0.10822701 0.02480618 -0.12902616
0.11364897 -0.28612646 -0.18009214 -0.21980351 0.14777283 -0.1139306 -0.019248025 -0.28183946
-0.36192605 0.6205513 0.029081268 0.41162452 -0.05295488 0.084498234 -0.1286769 -0.013706058
-0.2909748 0.05153118 -0.4503909 0.03614283 -0.40906936 -0.35322055 0.041663673 0.0029534136
-0.13911274 -0.037231933 0.018882422 -0.27243555 -0.29131535 0.26774588 -0.00015505351 0.010634067
-0.23187152 -0.20614691 -0.06914342 -0.37489316 -0.35253492 0.14290538 0.044644035 -0.012968644
-0.30495927 0.006057712 0.051905237 -0.2045727 -0.09098113 0.38634306 0.009835539 -0.32934263
0.9092448 0.33175316 -0.12913145 0.07994513 -0.023520892 -0.17823924 -0.27778727 -0.0060107065
-0.02279797 0.012857812 0.38506624 -0.12936345 0.0022905383 0.15167284 -0.10847311 0.15211473
0.104747884 -0.4946618 -0.09801695 -0.3078362 0.23635307 -0.09713458 -0.017070634 -0.26623097
-0.5449649 0.9424799 -0.04697966 0.39566344 -0.039543517 0.07471205 -0.31021014 0.12368679
0.012839602 -0.09730123 -0.50428164 -0.063221976 -0.30544445 -0.22025521 0.13652922 -0.025468823
-0.22372402 -0.005398703 -0.04729842 -0.24169488 -0.1571062 0.4388718 -0.059060473 0.03404668
-0.32345837 -0.4230944 -0.23778267 0.015086603 0.00768132 0.11137352 -0.0021241356 -0.026719958
-0.3141466 -0.038795408 -0.003189703 -0.34195167 -0.14407332 0.16312636 0.005584605 -0.32420063
0.823316 0.30507898 -0.31662643 0.06683837 0.021864418 -0.28700337 -0.20056854 -0.05284688
-0.05952749 0.11288052 0.39449218 -0.029015921 -0.0805197 0.047507044 -0.1932304 0.26320145
00000000: 171d 49bd a0cf 62bd 94e6 d13d 6f9a 003f
00000010: d04f 6bbe 8dda e43d c4b5 db3c 766e aa3e
00000020: 93e7 cbbc 5489 b8be fde6 83bd 211d 5cbd
00000030: fbe5 38bd 5238 87be 06b7 e13e 58a1 e23d
00000040: 779e 7c3e 2bff a13d b65c 333d a097 8ebe
00000050: b867 66bd 22f9 593f b466 41be a53f b43d
00000060: 5705 ef3e 1391 793d 728b 01be ed65 56bd
00000070: 3d1a 663d 063d 5bbe 90c1 ae3e 4a6b 3dba
00000080: 59aa 443f ba59 a43c 5fcd 483e 0339 9b3d
00000090: 7c6f 1e3d 47da 023e 5f22 75be 6e1f 773b
000000a0: 950a 743e 4747 963d e00e 0ebd ea47 433f
000000b0: 9cb8 42bc 8817 d1be 2b75 e0bc 7309 eb3d
000000c0: 2824 dbbe 5062 50be 9048 ec3e 111c 21be
000000d0: 1629 d1bd d651 8bbd 711d 6f3e c139 e5bd
000000e0: 77c4 9a3c c28f 15be eab6 afbd 1cb0 24bd
000000f0: 4dc1 8cbe 3899 4f3b a2ee 84bd ddb6 20be
00000100: f42d 21be 9164 3dbc e175 0fbc 9cd2 713e
00000110: a1b7 d3bd 2a33 163e 9a5f d1bd 0aab e33e
00000120: eed2 bfbc 1ce1 b9be d180 8ebe 9255 31be
00000130: 78c3 19be 19b2 44be d54b c83e b8d5 93bc
00000140: 5a52 be3d 3b19 b63d 4b84 673c 095e 08be
00000150: 6c88 c93c c6e0 063f 9a39 5fbd c5a2 18be
00000160: 041a 6b3e 4c80 8b3d a5f3 57bc c327 383d
00000170: db0a 16bc 652f 51be ff5a 933e 7878 ce3d
00000180: 538b 113f 9948 99bc f4e3 1a3d 8051 943d
00000190: 95bc f83c 5c55 ce3d 3131 923d ec3d 54bd
000001a0: ce1d a93e 6f9a 41be 11ea d13d 6889 2b3f
000001b0: ada4 efbd fd5b ccbe 8863 cebd dba8 463d
000001c0: 87bf 86be 6882 afbd 0196 063f 5db8 8e3c
000001d0: a6f3 9abd 8c00 3dbc 93e8 ac3e 07dc 9abd
000001e0: 0b13 c1b8 3387 e1bd b29a 42bd 85c0 3d3c
000001f0: 176f 8ebe 1fa6 dd3d 5436 cb3c 6f1f 04be
00000200: cbc0 e83d 2b7f 92be 136a 38be 2c14 61be
00000210: c351 173e 7254 e9bd 09ae 9dbc 434d 90be
00000220: 5f4e b9be 73dc 1e3f d73b ee3c 73c0 d23e
00000230: 37e7 58bd 690d ad3d e1c3 03be 608f 60bc
00000240: a6fa 94be 5c12 533d a399 e6be 810a 143d
00000250: 8a71 d1be 53d9 b4be 87a7 2a3d 0f8e 413b
00000260: 9273 0ebe 8380 18bd 4faf 9a3c ac7c 8bbe
00000270: 4927 95be fd15 893e dc95 22b9 823a 2e3c
00000280: ba6f 6dbe 2d18 53be 119b 8dbd fff1 bfbe
00000290: 757f b4be ca55 123e aadc 363d 6f7a 54bc
000002a0: 9f23 9cbe c57f c63b 969a 543d 827b 51be
000002b0: 5154 babd c2ce c53e 3e25 213c 999f a8be
000002c0: 44c4 683f 8ddb a93e 093b 04be 46ba a33d
000002d0: e3ae c0bc 5984 36be 223a 8ebe 76f5 c4bb
000002e0: cfc2 babc 93a9 523c 6727 c53e da77 04be
000002f0: db1c 163b 2050 1b3e 2627 debd f7c3 1b3e
00000300: 0f86 d63d 5044 fdbe 1cbd c8bd b59c 9dbe
00000310: 8a06 723e 7fee c6bd b7d7 8bbc 6d4f 88be
00000320: d282 0bbf 5d46 713f be6d 40bd 6694 ca3e
00000330: 62f8 21bd a202 993d ddd3 9ebe 804f fd3d
00000340: 325d 523c de45 c7bd 9a18 01bf 867a 81bd
00000350: 3763 9cbe 958a 61be 51ce 0b3e fea3 d0bc
00000360: e917 65be 9ae7 b0bb fdbb 41bd dd7e 77be
00000370: 73e0 20be ceb3 e03e 65e9 71bd 8874 0b3d
00000380: 569c a5be d49f d8be 4d7d 73be cd2d 773c
00000390: 95b3 fb3b cd17 e43d 1535 0bbb d0e3 dabc
000003a0: d3d7 a0be efe7 1ebd 560a 51bb 4a14 afbe
000003b0: f587 13be 990a 273e 10ff b63b a0fd a5be
000003c0: d6c4 523f 5033 9c3e dc1c a2be 8ee2 883d
000003d0: 021d b33c 1bf2 92be d761 4dbe f875 58bd
000003e0: 19d3 73bd e72d e73d e1fa c93e ccb2 edbc
000003f0: 83e7 a4bd bf96 423d 31de 45be 57c2 863e

model.3.bias f4 [32]
0.049194153 0.048098218 0.048962407 0.09674088 0.054938637 0.10192569 0.090198606 0.04514103
0.058494 0.058924105 0.07722093 0.07185572 0.03530813 -0.08687589 0.07893824 0.059762027
0.094858274 0.066727586 0.05280555 0.07847526 0.09938033 0.051915534 0.041173283 0.050039917
-0.052536897 0.07048334 0.07631079 0.06606083 0.06468835 0.08237712 0.044561572 0.055228494
00000000: cf7f 493d a302 453d ce8c 483d 1520 c63d
00000010: 5607 613d 6bbe d03d 0cba b83d cde5 383d
00000020: 6897 6f3d 675a 713d 0226 9e3d 1729 933d
00000030: 429f 103d fdeb b1bd 5faa a13d 07c9 743d
00000040: 0e45 c23d 79a8 883d a24a 583d a3b7 a03d
00000050: ea87 cb3d 62a5 543d 51a5 283d a8f6 4c3d
00000060: ee30 57bd 9259 903d d548 9c3d e74a 873d
00000070: 537b 843d 56b5 a83d 3286 363d 4637 623d

model.6.weight f4 [16, 32]
-0.21692236 -0.29479122 0.3006428 0.3354377 0.3511332 0.43929607 0.22654739 0.32931525
0.07532382 -0.23707592 0.34832817 -0.24047004 0.23211178 -0.3624602 -0.028411536 -0.28741068
0.49589002 0.32232958 -0.27072376 -0.42182383 -0.41953343 -0.32880527 -0.38074717 -0.26980683
-0.27030653 -0.26293352 -0.23612802 -0.44522864 0.19936623 -0.34856656 0.111431494 -0.28046003
0.25520125 0.25792447 -0.42034718 -0.24574932 -0.30147383 -0.16375557 -0.33830103 -0.45447308
-0.35330927 0.5320938 -0.34038648 0.19681928 -0.4975122 0.2184294 -0.27489266 0.30093932
-0.1978549 -0.3978826 0.3468961 0.4047006 0.30108112 0.3646264 0.48237857 0.42175078
0.41678897 0.16522902 0.68817127 0.29699224 -0.35458776 0.3985209 -0.3431433 0.30237713
0.27800465 0.37717253 -0.3686839 -0.20819403 -0.38039267 -0.15344827 -0.21679936 -0.25011337
-0.3200131 0.18066329 -0.30412084 0.30542487 -0.13099372 0.33840016 -0.26632053 0.5863427
-0.17918459 -0.39763394 0.09510162 0.4486838 0.5244414 0.5896043 0.22814587 0.45960262
0.20622042 0.2152034 0.5933097 0.15488955 -0.16900754 0.45822212 -0.3464746 0.4638181
-0.13589042 -0.16515318 0.25103554 0.215149 0.26373145 0.46653894 0.30280268 0.27651706
0.36069754 -0.15625818 0.17358662 -0.2476423 0.12614831 -0.19165751 0.44893512 -0.18744731
0.33919382 0.5511602 -0.08316152 -0.27201366 -0.3724201 -0.2962776 -0.14425474 -0.19748694
-0.26251292 -0.1966933 -0.20694117 -0.1695853 0.2088348 -0.18490665 0.1925997 -0.2637386
0.34638596 0.4760345 -0.3850759 -0.19148955 -0.34223664 -0.34280205 -0.37388235 -0.31900138
-0.38285843 0.40480843 -0.42057502 0.11169734 -0.46416456 0.45478353 -0.3468481 0.23558432
-0.26373726 -0.39575186 0.3177698 0.31273532 0.5321463 0.35443437 0.24889077 0.31064993
0.3057397 0.38942498 0.4558971 0.47062147 -0.1732895 0.24223988 -0.30492723 0.27645144
0.3503198 0.31177244 -0.24156506 -0.20082955 -0.28640655 -0.22768575 -0.39789382 -0.30884475
-0.24513698 0.3463749 -0.22057143 0.008056686 -0.29303595 0.1397154 -0.28538197 0.44413963
-0.30933672 -0.2378316 0.21133432 0.48026314 0.40404907 0.5131888 0.45935443 0.29836184
0.23569013 0.34291887 0.33332452 0.43490818 -0.30963117 0.4937454 -0.2802116 0.28203973
-0.05487526 -0.30690756 0.3264482 0.40510044 0.40449494 0.23507969 0.21248075 0.15930857
0.26537648 -0.32198486 0.34009996 -0.13223964 0.15747236 -0.3660459 0.27239078 -0.2902524
0.57028943 0.39505687 -0.23536812 -0.29419953 -0.2903458 -0.39538068 -0.3251231 -0.18346706
-0.41116658 -0.21332371 -0.35996273 -0.25392312 0.35007015 -0.2750051 0.3192919 -0.26112998
-0.21655756 -0.1836599 0.2843588 0.44762105 0.064358875 0.62419707 0.38726693 0.45790258
0.32967553 -0.30110693 0.46084097 -0.023320649 0.18937571 -0.29657677 0.38250145 -0.1872179
0.6873626 0.547291 -0.32924956 -0.33068368 -0.3609896 -0.36904117 -0.24905564 -0.30504206
-0.370273 -0.4421857 -0.4139267 -0.22408412 0.13632941 -0.20241965 0.13669568 -0.27447852
00000000: e520 5ebe e0ee 96be daed 993e 7dbe ab3e
00000010: bbc7 b33e 6aeb e03e 0afc 673e 029c a83e
00000020: 6043 9a3d 08c4 72be 1258 b23e c73d 76be
00000030: b6ae 6d3e 6294 b9be 4fbf e8bc 7e27 93be
00000040: 4ce5 fd3e 6208 a53e 4e9c 8abe 4bf9 d7be
00000050: 16cd d6be 2a59 a8be 4bf1 c2be 1f24 8abe
00000060: 9e65 8abe 399f 86be 8bcb 71be 02f5 e3be
00000070: a926 4c3e 5177 b2be 3236 e43d 7598 8fbe
00000080: bda9 823e ad0e 843e bf37 d7be b6a5 7bbe
00000090: c75a 9abe 8aaf 27be cb35 adbe b2b0 e8be
000000a0: f4e4 b4be 4d37 083f 2347 aebe fe8a 493e
000000b0: ebb9 febe f5ab 5f3e bbbe 8cbe b814 9a3e
000000c0: 7a9a 4abe 45b7 cbbe 5e9c b13e eb34 cf3e
000000d0: 4e27 9a3e 50b0 ba3e 53fa f63e b8ef d73e
000000e0: 5d65 d53e cc31 293e fe2b 303f 5e0f 983e
000000f0: 878c b5be ee0a cc3e 7bb0 afbe 2dd1 9a3e
00000100: a056 8e3e c21c c13e 23c4 bcbe d130 55be
00000110: d4c2 c2be 8b21 1dbe a700 5ebe dc0e 80be
00000120: c2d8 a3be ccff 383e bab5 9bbe a660 9c3e
00000130: 3823 06be c942 ad3e 2a5b 88be 8e1a 163f
00000140: 2a7c 37be ad96 cbbe a3c4 c23d e2b9 e53e
00000150: cb41 063f 4ff0 163f 129f 693e 0951 eb3e
00000160: 722b 533e 485e 5c3e 25e3 173f 5e9b 1e3e
00000170: 5010 2dbe 179c ea3e 1e65 b1be 9179 ed3e
00000180: dc26 0bbe ea1d 29be bb87 803e 0550 5c3e
00000190: cf07 873e 31de ee3e f408 9b3e a593 8d3e
000001a0: 59ad b83e 2502 20be b1c0 313e f195 7dbe
000001b0: 062d 013e de41 44be d3da e53e 30f2 3fbe
000001c0: d0aa ad3e d618 0d3f 9650 aabd 6045 8bbe
000001d0: d9ad bebe b3b1 97be 84b7 13be 043a 4abe
000001e0: 1868 86be f869 49be 63e8 53be c5a7 2dbe
000001f0: cad8 553e 2b58 3dbe db38 453e bf08 87be
00000200: 8059 b13e cbba f33e ab28 c5be d615 44be
00000210: a439 afbe c083 afbe 826d bfbe 2654 a3be
00000220: 0506 c4be 0d43 cf3e 9c55 d7be 93c1 e43d
00000230: faa6 edbe 63d9 e83e 1396 b1be 043d 713e
00000240: 9208 87be fd9f cabe b9b2 a23e d81e a03e
00000250: bd3a 083f 6c78 b53e 39dd 7e3e 820d 9f3e
00000260: ea89 9c3e b662 c73e 586b e93e 4cf5 f03e
00000270: cd72 31be bb0d 783e 6c1f 9cbe 0b8b 8d3e
00000280: 1e5d b33e a3a0 9f3e d55c 77be 43a6 4dbe
00000290: e1a3 92be 7426 69be bdb8 cbbe e620 9ebe
000002a0: 3005 7bbe 0d58 b13e 7add 61be 3100 043c
000002b0: cf08 96be 8e11 0f3e 961d 92be 4566 e33e
000002c0: 6261 9ebe 208a 73be 0668 583e 0de5 f53e
000002d0: 85df ce3e 5760 033f 8130 eb3e e2c2 983e
000002e0: c158 713e 1093 af3e 83a9 aa3e 49ac de3e
000002f0: fa87 9ebe 32cc fc3e e577 8fbe 8367 903e
00000300: e1c4 60bd fd22 9dbe 3824 a73e 5369 cf3e
00000310: f619 cf3e bbb8 703e 8e94 593e c921 233e
00000320: 6ddf 873e 33db a4be 9521 ae3e d469 07be
00000330: 6f40 213e 5e6a bbbe ce76 8b3e f69b 94be
00000340: 7dfe 113f e544 ca3e 5704 71be 52a1 96be
00000350: 34a8 94be 566f cabe 8976 a6be cade 3bbe
00000360: 6d84 d2be 8871 5abe 094d b8be 3602 82be
00000370: 653c b33e 78cd 8cbe 3a7a a33e d4b2 85be
00000380: 44c1 5dbe 5711 3cbe 7a97 913e 962e e53e
00000390: 96ce 833d 61cb 1f3f da47 c63e 3572 ea3e
000003a0: 3bcb a83e b02a 9abe 59f3 eb3e f20a bfbc
000003b0: b5eb 413e e9d8 97be 3bd7 c33e 0db6 3fbe
000003c0: fff6 2f3f 431b 0c3f 6693 a8be 5f4f a9be
000003d0: a1d3 b8be f7f2 bcbe 7108 7fbe 792e 9cbe
000003e0: 6c94 bdbe 2a66 e2be 33ee d3be 4f76 65be
000003f0: f099 0b3e 1947 4fbe f4f9 0b3e 7388 8cbe

model.6.bias f4 [16]
0.3782821 0.24987118 0.23323639 0.241279 0.3662108 0.2524944 0.35434115 0.33910966
0.29629228 0.25582406 0.22599289 0.38982934 0.2853024 0.3318952 0.31944206 0.41703126
00000000: 31ae c13e 3bde 7f3e 85d5 6e3e d811 773e
00000010: fb7f bb3e f246 813e 346c b53e c89f ad3e
00000020: 9fb3 973e 5ffb 823e ae6a 673e b697 c73e
00000030: 2813 923e 2bee a93e e98d a33e 1f85 d53e

model.8.weight f4 [1, 16]
-0.769101 0.6377125 0.72549343 -0.76424754 0.72807825 0.7602294 -0.652758 -0.5480987
0.7104069 0.77692294 0.9067734 -0.7736738 -0.7593724 -0.70148313 -0.6690294 -0.53237647
00000000: cee3 44bf 2041 233f f0b9 393f baa5 43bf
00000010: 5663 3a3f 659e 423f 261b 27bf 3250 0cbf
00000020: 3add 353f 6ce4 463f 4d22 683f 7c0f 46bf
00000030: 3b66 42bf 6694 33bf 8345 2bbf d349 08bf
