Models/SavedModels/improved_lung_cancer_model.pth (torch, 184740 bytes, 7 tensors)

fc1.weight f4 [256, 15]
00000000: 34e1 84be 4545 6b3d 7da9 2fbb 8487 b13c
00000010: facc 3d3e ecec 0a3d 4c68 b73d c6be d3bd
00000020: 02f7 953d 0df8 903d 0792 fd3d 332c 7bbe
00000030: 88bf f6bd e8da dd3c ba54 f4bc 29c6 d3bd
00000040: 10e3 12bd beb4 623e 5955 273e d49e 663e
00000050: 9ff6 91bd 605e 7c3d 524c 14be 24e4 48be
00000060: 6837 483e 1b66 12be 56b5 1cbe e011 b2bd
00000070: 3d51 c53d 2f62 eabc f259 61be aa73 0cbe
00000080: 1b4e ffbb 6dc5 1cbe 571d d33d 4ec7 e6bd
00000090: 709d 8c3e fb92 2ebe b9e7 2cbd d447 583e
000000a0: 5d41 883e 7b07 2bbe f4a0 e1bd 02bb fabd
000000b0: 498f 0e3e b504 b73c 5a90 d53d 2b61 943d
000000c0: f1dc 3a3e a281 19be e133 68be e561 c6bb
000000d0: 1eda 103d 38ee 733e c3b0 7fbe 3a87 813e
000000e0: a5cf 773e 99cc 04bd 8214 4abd 35f4 583e
000000f0: 86e8 90be 3641 3d3e 4a5f fc3d 34a9 24be
00000100: 0e83 293e 2695 a23e 81b8 d53c 39e0 b4bd
00000110: e0d9 1e3e 337d 813d 945e 633e 166d 2ebc
00000120: 023b d23d 1b2a 2f3c 09af b0bc 219a 76bd
00000130: e369 453e c98d 943d 483a 56be f926 c13d
00000140: 82b8 2bbe d305 933e ec08 333e 68fb e13d
00000150: b084 743b 9711 8a3d e0ba fbbd d459 4ebe
00000160: c39b 913d 6283 f93d 37e4 4dbe ddbd 163e
00000170: d582 a5bd c675 b6bc 7ea7 51be 1274 10be
00000180: 0c11 863e ea3c 773e 337f 2e3e ab58 563e
00000190: f426 63be 13af 593e b1b4 da3d 0c5f 603e
000001a0: b2a6 56be 562d 05be b819 673e 7858 ffbd
000001b0: 99b4 1c3e 66a5 17be 184e 16be 5cd0 02bd
000001c0: f079 32be d1a3 5d3e 75d9 0dbd c3b2 36be
000001d0: d2e6 55bd dcc3 a43d e8d7 4a3e 0861 54be
000001e0: fc64 babd 2d80 37be 1873 003e eb5e 5dbe
000001f0: 686d 6dbd f537 42be 0107 4f3e 2e90 eebd
00000200: d769 cb3d d208 0b3d 840c 8a3d 86d1 213d
00000210: 9e19 7a3d b363 483d 05e0 ae3d 7734 f0bd
00000220: 16ff 593e 2f74 40bd c947 5bbc 5b5e 0b3e
00000230: 7d2d 08be 83eb 493e ef57 39be 9190 833e
00000240: 6569 2f3c c973 003e 2ea7 6abd cf52 723e
00000250: ab14 d3bd a282 13bd 2d47 9b3c e0c8 643e
00000260: 40c9 73be fba4 233e 9d3f ba3c 0ff9 e13d
00000270: 4d9c 65be 3316 b3bc ef2b 71be a701 82bd
00000280: 5c52 773d 02e1 7fbe 0a7b e63d 0ad4 31be
00000290: d275 c3bd 8a3f fd3d 60c1 0bbe 81c4 40be
000002a0: a793 2fbe 4b40 a03d 5a55 423d afd4 7a3e
000002b0: 975c 90bb fe94 573e beae 6c3e 3ac9 793e
000002c0: 3a89 893e 26d8 c43c db83 9e3e 3cf2 12bc
000002d0: 501b ff3b c764 813b 1138 323d 36f1 e9bc
000002e0: ef25 45be 1bb7 2dbe fe69 28be 9065 77bb
000002f0: c832 693e 5107 95bd c0f2 fe3c 5b82 7e3d
00000300: af75 1c3e 0451 283e 02d4 953d 2c82 363e
00000310: 0051 47be 6444 4338 fd5d 5abe e6ab 843d
00000320: deed 713d 1da7 a33d 2a42 8d3e df2b 503e
00000330: 58f7 fd3c 42f1 5f3d 0cc8 c1bd 8456 a2bd
00000340: 6595 453d ec26 43bd 0b13 babd f725 9fbd
00000350: 106a 653e 0382 4f3d 9b06 153e b45b a43e
00000360: e324 3dbe 48ab 0fbe 6759 c43d f59c e6bd
00000370: 4132 3cbb e887 543e 0b2f 413d 3aa7 c13d
00000380: 48bd 0cbe b9fd 17be 7e3a 4fbe 3986 43bd
00000390: ba8a 42be b2db 5cbe fc3e 76be c5b3 53be
000003a0: 38e6 25be 631f febd 1643 ffbd 180c bf3c
000003b0: dab9 f6bd 0975 303e f049 583d 87f8 bbbd
000003c0: 8dfe 093e 7003 0d3e 1ac4 28be c35f 52be
000003d0: 0d9d 7c3e 0fe0 47be 7854 1a3e d41e 2f3e
000003e0: 5f21 583e 7a9c e53d 091f 8f3d cc01 f63d
000003f0: 169d f2bc e95f acbd 7d5a 17be e5d4 103e
-0.25953066 0.057439107 -0.0026803904 0.021671064 0.18535224 0.033917353 0.0895544 -0.103391215
0.073225036 0.07078562 0.12381368 -0.2452858 -0.120482504 0.027081922 -0.029825557 -0.103405304
-0.035861075 0.2213926 0.16341151 0.22521526 -0.07127117 0.06161344 -0.14482239 -0.19618279
0.19552386 -0.14296763 -0.15303549 -0.08694816 0.096346356 -0.02861127 -0.22006968 -0.13715997
-0.0077912933 -0.15309687 0.103083305 -0.11268483 0.27463865 -0.17048256 -0.042213175 0.2112115
0.26612368 -0.16702072 -0.110170275 -0.122427 0.13921846 0.022341112 0.104279235 0.07245096
0.18248345 -0.14990857 -0.2267604 -0.0060541504 0.035364263 0.23821342 -0.24969773 0.25298482
0.24200304 -0.032421682 -0.049335964 0.21186908 -0.283024 0.18481907 0.123228624 -0.16080171
0.165539 0.31754416 0.026088955 -0.088318296 0.155128 0.06322708 0.22204047 -0.010646125
0.10265161 0.010691191 -0.021567838 -0.060205583 0.19278674 0.07253606 -0.2092067 0.094312616
-0.16769603 0.2871538 0.17483872 0.1103428 0.0037310533 0.06741636 -0.12291503 -0.20151454
0.07109787 0.121832624 -0.20106588 0.14720865 -0.08081595 -0.022272956 -0.2047405 -0.14106777
0.2618488 0.2414433 0.1704071 0.20932262 -0.22182828 0.21258192 0.106789954 0.21911258
-0.20962027 -0.13005576 0.22568405 -0.12468046 0.15303268 -0.14809188 -0.14678228 -0.03193699
-0.17429328 0.21644522 -0.03463121 -0.1784163 -0.05222208 0.0804517 0.19808924 -0.2074014
-0.091012925 -0.17919989 0.12543905 -0.2161824 -0.057965666 -0.18966658 0.20217516 -0.11648594
0.09932297 0.03394396 0.067406684 0.039506458 0.061059587 0.048923206 0.08538822 -0.11728757
0.21288714 -0.0469858 -0.013383814 0.13610213 -0.13298602 0.19718747 -0.1809995 0.25696233
0.01070628 0.12544169 -0.05728834 0.23664401 -0.103066765 -0.036013253 0.018954838 0.22342253
-0.2380724 0.15980904 0.022735411 0.11033832 -0.22422905 -0.021861171 -0.23551916 -0.063479714
0.06038128 -0.24988177 0.112539366 -0.17366043 -0.09543957 0.12365635 -0.13647985 -0.1882496
-0.17146169 0.07824763 0.04744468 0.24495195 -0.004405569 0.2105293 0.23113534 0.24393168
0.26862508 0.024028849 0.30959973 -0.008968886 0.0077852383 0.003948781 0.0435105 -0.028557401
-0.19252752 -0.1696438 -0.16446683 -0.0037749745 0.22773278 -0.07276786 0.031121612 0.062136035
0.15279268 0.16437155 0.07315828 0.17823094 -0.19464493 4.6555317e-05 -0.21324916 0.064780995
0.05906474 0.07990859 0.27589542 0.20329235 0.031001732 0.05467344 -0.09461984 -0.07926658
0.048238177 -0.04764454 -0.090856634 -0.07770913 0.22403741 0.0506611 0.14553301 0.32101214
-0.18471102 -0.14030182 0.09587365 -0.11260406 -0.0028716477 0.20754969 0.047164004 0.09455724
-0.1374408 -0.14842881 -0.20237157 -0.047735427 -0.18998232 -0.21568182 -0.24047464 -0.20674045
-0.16201103 -0.1240833 -0.124639675 0.023321196 -0.12047167 0.17232145 0.052804887 -0.09178262
0.1347601 0.13770843 -0.16481057 -0.20544343 0.24669285 -0.19519065 0.15071285 0.17101604
0.2110648 0.11211486 0.06988341 0.120120615 -0.02961592 -0.08416731 -0.14780612 0.14143713

fc1.bias f4 [256]
00000000: e131 67be a93d 703e 9533 143b 6f1a 19be
00000010: 9827 dd3b 1dac 87bd 5caf 1abe 211d 06be
00000020: 725d 3b3e 5b65 52be 92a9 6cbd 262e 533e
00000030: 314a f73d b89d 053e b737 ee3d 6bdd 8e3b
00000040: d782 4d3e 6b77 1cbd b86a b03b f0a9 883d
00000050: b723 103e 3b49 753e 6a68 ac3d 5c04 99bd
00000060: c5ca 0fbe 9d4b ff3d 8db3 0cbe 2948 17be
00000070: 00ea 39bd 198d 8bbd e56d 05be f55e 01bd
00000080: e2cf 453e e44b 4c3e 8608 d93d a921 9a3d
00000090: f7ee 96bd 4b5f 063e 1126 eebd e084 d4bd
000000a0: 65ba 4b3d 88ea c63d f906 ce3d d0b7 8c3d
000000b0: 6868 253e 856f d0bd 8285 19bc fcc1 febb
000000c0: 185b 46be f9cc 633d 9610 1e3b 2b74 693e
000000d0: f5a8 babd ca61 cdbd 0e93 91bd 2306 6e3c
000000e0: 30b1 12be 3a16 b4bc 6053 a2bd ba06 62be
000000f0: 4aff 18be 8189 f53d 8fad d9bd 5e43 40be
00000100: a1a1 d1bd a01b 85bd 1bba 91bd 020c 5dbd
00000110: ef91 cabd 9973 2fbe 315e 0dbe bbf3 4e3e
00000120: 94d1 ddbd b986 5b3e dc70 76be f560 bbbd
00000130: 8375 d33c 2f2d 793e 1224 8f3d c044 bb3d
00000140: 6416 773d 630e 5dbe 9e06 3dbe 6e7e a5bb
00000150: d80f cdbd ac2e 583d cbe9 1b3c d358 90bc
00000160: f3ae 543e 980b 52be 732b 803e b394 463e
00000170: 224a 5cbe 8998 76be a7ca 91bc c413 053e
00000180: 02ec 47be 612b 20bd a736 753e 4d1c 373e
00000190: 9dcc 753e bdd9 25be 7ce2 703e 677d ce3d
000001a0: 1c08 823d e630 43be 34fb 99bd 7c97 a6bd
000001b0: 4f3d afbd dbdf 8d3c 8d70 9e3e 731c 303e
000001c0: cb09 4c3e c0a5 c4bd 13ee 493e 1ec0 a3bd
000001d0: 6353 6c3e 0e9d dfbd 865e 0d3e ecfe 163e
000001e0: a9e7 31be 5599 763e 2c83 8bbb ba5f bfbd
000001f0: 3419 423e e8bb 803e ff24 2e3b 2913 7bbe
00000200: 3283 58be 2c33 0abe 6338 6d3e 1c2a ebbd
00000210: b869 84bd fcf3 913e bc55 5ebd 4931 b2bd
00000220: 1197 50be 879f acbd c411 4d3e 5fef 4e3c
00000230: 205c fb3c fe0d 43be 3533 3b3e a30f ea3d
00000240: f2c7 a83e c8e7 07be a14f 6abe 24b2 fbbd
00000250: 7e48 a1bd fabe 8f3c 9725 6a3d 7ff9 da3d
00000260: ccb3 573e 2656 7d3e aefd 533a 396e 1cbe
00000270: 143c e8bd 6e53 88bd 43a3 1a3e 65b0 46bd
00000280: 2b1d 58be e9d9 133e 3173 82bd 359b 19be
00000290: ec3b 87bc 1686 b33c 47d7 993d 4cdf 0f3e
000002a0: 6287 d8bc 7c48 0c3e ecc7 1cbe ba3b 1ebe
000002b0: 443d f53c 633d 103d d939 0fbe ff1a 95bd
000002c0: f87b aabd 3077 ee3d e5d5 683e 6b53 4abe
000002d0: 5c9d e0bd 439e 46bd 780d 403e 8dc5 ecbd
000002e0: 7de1 2b3d d6f4 1dbe 70bc 4b3e e41c 823d
000002f0: 4f75 9abd 2312 c13d 0766 5cbe c99e 89bd
00000300: 4fff 9cbd 28de 523e d01f 7fbe 34c7 03be
00000310: 74ee 0f3d e174 9cbc 83a7 a8ba f94f 803d
00000320: 7bde 0f3e 9610 dfbd bcc5 cd3c dff6 35bb
00000330: d5eb b63b acec 623e 00da 17bc b202 003d
00000340: 8151 86bd 5f3a f33d 592b 5dbe 36f6 4b3d
00000350: 483a c93c c48c b33a 5c2a 113e be5d 5cbe
00000360: be1a 39be 3b93 443d 839b 7c3d 1051 b5bd
00000370: f5c1 123e ca5d c2bb 6858 53be 3e93 a7bd
00000380: 6a42 863e d75c 4e3d af22 00bd 74d0 83be
00000390: 41d0 d43d a6be 1f3e e7a3 47bd b4f1 503e
000003a0: 25e5 abbc 8544 4cbe de62 713d 21a3 0f3e
000003b0: 6563 98bd cbff 51be 1ad3 873d 91d5 ea3d
000003c0: 055e 11bd e29e 123e c13d 993d 8827 173e
000003d0: 4956 49bd be4a 9cbc ccdf e93c 429f cdbc
000003e0: 6382 99bd c312 3b3e ee78 6bbc ec23 18be
000003f0: e890 1c3e 5f7b 05be 2f42 30bd 74ba 5c3e
-0.22577621 0.23461021 0.0022613753 -0.1495149 0.0067491047 -0.06624625 -0.15105957 -0.1309705
0.18297365 -0.20546477 -0.057778902 0.20623073 0.12074698 0.13048446 0.116317205 0.004359891
0.20069443 -0.038199823 0.0053838156 0.06673038 0.14076124 0.23953716 0.08418353 -0.074715346
-0.14042194 0.12465594 -0.13740368 -0.1477362 -0.045389175 -0.068140216 -0.13030203 -0.0315847
0.19317582 0.19950825 0.10597329 0.075259514 -0.07369798 0.13122289 -0.11628354 -0.103769064
0.049738307 0.09712702 0.10059924 0.06870997 0.16153109 -0.10177521 -0.00937021 -0.0077745896
-0.19370687 0.0556154 0.0024118773 0.22798221 -0.09114257 -0.100284174 -0.071081266 0.01452783
-0.14325404 -0.021983255 -0.07926059 -0.22072878 -0.14941135 0.119891174 -0.10628807 -0.18775699
-0.102359064 -0.0649941 -0.07115575 -0.05396653 -0.09891116 -0.17133941 -0.13805462 0.20210163
-0.108309895 0.21438111 -0.2406649 -0.091493525 0.02581287 0.24333642 0.06989302 0.091439724
0.060324088 -0.2158752 -0.18459556 -0.005050472 -0.100127876 0.052778885 0.00951619 -0.01762048
0.20769863 -0.20512235 0.2503315 0.19392662 -0.21512654 -0.24081625 -0.017796827 0.12995821
-0.19523624 -0.03910387 0.2394663 0.1788189 0.24003835 -0.16196342 0.23523897 0.10082512
0.06349203 -0.19061622 -0.07518616 -0.08134362 -0.085566156 0.017318657 0.30945244 0.17198353
0.1992561 -0.09601927 0.19719724 -0.07995628 0.23078685 -0.10918628 0.13805589 0.14745682
-0.17373528 0.24081929 -0.0042575803 -0.0934443 0.18954927 0.2514336 0.0026572344 -0.24519028
-0.21143797 -0.13496083 0.23166041 -0.11482641 -0.06465477 0.28506458 -0.05428098 -0.08700807
-0.20370127 -0.08428865 0.20026308 0.012630313 0.030683577 -0.19048306 0.18281253 0.11428764
0.32965046 -0.13272011 -0.22881939 -0.12289837 -0.07875155 0.01754712 0.057164755 0.10692119
0.21064681 0.24739894 0.00080868124 -0.15276422 -0.11339584 -0.06656538 0.15101342 -0.048508067
-0.21104877 0.14438595 -0.06369627 -0.15000613 -0.016508065 0.021914523 0.07511764 0.14050025
-0.026431743 0.13699526 -0.15310639 -0.15452471 0.02993644 0.035214793 -0.13986911 -0.0728054
-0.083244264 0.11643827 0.22737844 -0.19758384 -0.10967514 -0.048490774 0.18755138 -0.11561117
0.04196309 -0.15425429 0.19896102 0.06353167 -0.07541906 0.094272874 -0.21523295 -0.06719739
-0.07665884 0.20592558 -0.2491448 -0.12868959 0.035139516 -0.019098701 -0.0012867305 0.062652536
0.14049713 -0.108918354 0.025118701 -0.0027765555 0.0055823126 0.22160596 -0.009268284 0.03125257
-0.065585144 0.11876368 -0.21598567 0.049795352 0.024563923 0.0013698568 0.14176315 -0.21520135
-0.18076608 0.047991972 0.061671745 -0.08853352 0.14331801 -0.0059315907 -0.20639193 -0.08182381
0.26222545 0.050381508 -0.031283077 -0.25744975 0.10391284 0.1560007 -0.048740294 0.20404702
-0.020983288 -0.19948013 0.058932178 0.14027072 -0.07440833 -0.20507734 0.06632061 0.11466516
-0.035490055 0.14318421 0.07482482 0.14761174 -0.049154554 -0.019078609 0.028549097 -0.025100354
-0.074955724 0.18268876 -0.014372094 -0.14857453 0.15289652 -0.13035344 -0.043031868 0.21555501

fc2.weight f4 [128, 256]
00000000: d8d3 6d3d e124 a4bc c431 673d f906 2dbd
00000010: 7b0d 333d 53e7 20bd 6bb4 f2bb d07b 313d
00000020: 32a0 593a 0efb 503d 6543 70bd 272f 9f3d
00000030: 2161 0d3d 6884 a33c c889 ae3d 16bb c83c
00000040: 0dc9 4e3d 566d 67bd acf3 2e3c da79 19bc
00000050: a247 063b f9f3 ff3c a98c 84bd 0732 88bb
00000060: 8dcf 873b 6000 f83c cd4b 3e3c 3014 873c
00000070: a232 e8bc 1696 bc3d 2328 a53c b5e9 c83a
00000080: 350d 123d 9bf8 013d ca62 48bb 6638 1e3c
00000090: e376 a83b 3b9e 333d a333 3e3d 7ff0 8c3d
000000a0: f772 7bbc 21a5 fb3c 0218 6ebd 2851 f6bc
000000b0: ef36 c0bc 1cc1 8f3c 10a3 a939 2ec6 88bd
000000c0: 7e3d bf3b 3e3b 2f3c aa42 693c 01f9 763c
000000d0: eaf4 3b3d 0003 94bc 8fc5 93bb d14e 15bc
000000e0: edf5 10bd 2881 773c 37fd 113d 23e5 6e3d
000000f0: 4c03 91bd bb99 143d ceff 143d 5740 b83d
00000100: fd7b 8b3d 8e3e 2ebd 4957 4cbd a384 f43a
00000110: 03a1 bc3d 36f4 9f3d aeba c0bb dfda 853c
00000120: a251 803d 0328 303d 6b5a 903c 28d6 8dbd
00000130: d987 e03c 2b3c 593d 4c35 93bc d02a 97bb
00000140: 3859 9d3d 869b 7e3c 2275 a3bd bede 68bc
00000150: 5527 fabc d22c 8e3d ec68 293d 7f01 1b3d
00000160: c4d4 9abb 0de2 c63c 8294 2d3d 74c7 bfbc
00000170: 76e9 abbc f9f3 38bd b1fe ddbb 59c4 a83c
00000180: 3a5f 263d 31a4 4e3d 49ef 163d 125a 7f3b
00000190: 17c2 dc3c b9f7 b03d c428 35bc 49ff 533d
000001a0: 8e54 ddbc cec8 e9bc 396b 933c fec8 f6bc
000001b0: 64e6 4ebd 48bc a4bd b288 103c 6b20 81bd
000001c0: 1c13 16bb 910f 17bd a117 433d 0a3b 0bbd
000001d0: 5d5b 5ebc 7a82 003d 8fda 0e3d 5390 3ebc
000001e0: 0bcb 77bd a687 143d 68b2 573d c6a6 1c3d
000001f0: 828d 43bd 8329 303d 6a7b c83c 4099 0ebd
00000200: 4ce9 13bc 8736 84bd 9712 d9bc c119 b4bb
00000210: 40c8 94bc 4a82 773d 8c69 ce3b ebf1 cfbc
00000220: 5ad4 e3bc d402 093d d44b a23c e758 173d
00000230: 5202 5c3d caaf 53bc 0d8a f53c 2c77 2f3d
00000240: f1ea af3d c28e 403d 2df8 20bd e21f 6c3c
00000250: b8cb bd3c 475e ca3b d055 293c cc2c eabc
00000260: 8c42 3dbd 8969 cb3d ea1b 27bc eecb 36bc
00000270: 667c 813c 70f9 8abc 589d 1c38 58e8 b6bc
00000280: 0657 bbbb c54e b0bc 112f 633d 4318 ae3d
00000290: 3532 d93c 6829 cc3c 68fb 50bd e0f7 9c3d
000002a0: d2a8 67bc 0006 2cbc fa40 4abc 6c91 fc3c
000002b0: 847e 19bb efac 193d fb17 8b3c 5257 18bd
000002c0: 9856 953d 6e78 fe3c e971 99bc f175 d2bb
000002d0: 65cd 963c 119c 34bd fb9e 1e3d 909e 583d
000002e0: e49b e53a a897 6c3d ad18 0cbc fa52 09bd
000002f0: 4362 a8bc d49f 5dbd 37e0 963d aa8f 083d
00000300: 6887 ab3d b069 45bd 2e5b aebc d176 033d
00000310: afa0 7bbc 4fac 393c 5257 493b 7007 89bd
00000320: 28dc 17bd 9b71 863c 2df5 7b3d 77f7 09bc
00000330: 2be9 dbbc 361c 8bbd 7703 2e3c b581 033b
00000340: 05da 89bc 44fe 50bd a80b 2f3c a426 e83c
00000350: a8c1 bd3c b4de 833c 7e69 7a3d 6da8 95bb
00000360: 593c 47bd fb2c 7f3d 6fd4 76bd b4bd 0fbd
00000370: 009a e63c 1aab 8f3d 7be2 513d 9fb9 8e3d
00000380: d24c a6bb c15a f4bc 995f 683d 7ddf 1e3d
00000390: f9e7 2bbc 511a 35bd 0098 ae3c 7733 13bc
000003a0: 2095 68bc e597 8c3c d865 87bc 4c24 713d
000003b0: ce88 68bd ac35 37bd 6d48 8d3c 7387 813d
000003c0: 6610 113d 6945 e33c fa29 8a3d d9d0 ad3d
000003d0: 69de 573d 112d 363d 290d 183d 808c 55bd
000003e0: 5c27 d5bb d901 9dbc 78fd 823c 5311 27bd
000003f0: 4067 f4bc 8bd1 bd3c dc31 983d eb08 19bc
0.058063358 -0.020037116 0.056443945 -0.042242978 0.043714028 -0.039283108 -0.0074067614 0.043330967
0.0008301764 0.051020674 -0.058658022 0.077726655 0.034516457 0.019960597 0.085223734 0.024503272
0.050484706 -0.056500755 0.010678213 -0.009367431 0.0020489474 0.031244265 -0.06472141 -0.0041563543
0.004144615 0.030273616 0.011614752 0.016489118 -0.028344456 0.09208314 0.02016074 0.0015328439
0.035657126 0.03173123 -0.003057646 0.009657001 0.0051411255 0.043852072 0.046435963 0.068818085
-0.015347234 0.030718388 -0.058128364 -0.030067995 -0.023463694 0.017548136 0.00032355683 -0.06678425
0.005836188 0.010695277 0.014237085 0.015074016 0.045887865 -0.018067837 -0.004509635 -0.00911303
-0.035390783 0.015106477 0.035641875 0.05832399 -0.07080707 0.03627942 0.036376767 0.08996647
0.06810758 -0.042540126 -0.04988793 0.0018655251 0.09210398 0.078102514 -0.005881629 0.016339717
0.0626557 0.04300691 0.01762124 -0.06925613 0.027408527 0.053035896 -0.01796975 -0.004613258
0.07683033 0.015540009 -0.07981326 -0.014213262 -0.030536333 0.069421425 0.041359827 0.037843224
-0.0047250707 0.024277711 0.042377956 -0.023410536 -0.020985346 -0.045154545 -0.0067747463 0.020601438
0.04061816 0.050449554 0.036849294 0.0038963598 0.026948018 0.08640999 -0.011057083 0.05175713
-0.027017858 -0.028538134 0.017995464 -0.030125137 -0.050512686 -0.08043724 0.008821653 -0.06305011
-0.0022899574 -0.03688008 0.047629956 -0.03399185 -0.013571587 0.031374432 0.034876402 -0.011631089
-0.06049637 0.036262177 0.052660376 0.038244985 -0.047742374 0.04300834 0.02447291 -0.03481412
-0.00902779 -0.06455713 -0.026498122 -0.005496234 -0.018161893 0.060426988 0.0062992033 -0.02538391
-0.027811218 0.033449963 0.019811548 0.03695002 0.05371315 -0.012920329 0.029973054 0.04283826
0.085897334 0.047011144 -0.03929918 0.014411898 0.02316843 0.0061757895 0.010335401 -0.028585814
-0.046206042 0.099322386 -0.010199526 -0.011157019 0.015806388 -0.016964644 3.7339836e-05 -0.022327587
-0.005717161 -0.021521935 0.055464808 0.08500721 0.026513198 0.024922088 -0.05102101 0.07664466
-0.014139371 -0.010499477 -0.012344593 0.030831061 -0.0023421356 0.037518438 0.016979208 -0.03719265
0.07291907 0.031063285 -0.018731074 -0.006422751 0.018408487 -0.04409415 0.038725834 0.052885592
0.0017517773 0.05776182 -0.008550805 -0.0335264 -0.020554667 -0.054107502 0.07366984 0.033340134
0.08375436 -0.048196495 -0.021283712 0.032095734 -0.015358134 0.0113325855 0.0030722213 -0.06690872
-0.03707519 0.016411593 0.061513115 -0.008420817 -0.026844582 -0.0679249 0.010620943 0.0020066325
-0.016827593 -0.051023737 0.010683931 0.028338738 0.023163632 0.016097404 0.06113576 -0.004567197
-0.048641536 0.062298756 -0.060261186 -0.035093024 0.028149605 0.07015057 0.05124138 0.06968998
-0.0050750757 -0.029828431 0.056731794 0.038787354 -0.010492318 -0.04421455 0.021312714 -0.008984438
-0.01419571 0.017162273 -0.016528055 0.058872506 -0.056771092 -0.04472892 0.01724645 0.06324663
0.03541603 0.027743058 0.06746288 0.084871 0.05270234 0.044476572 0.037121926 -0.052135944
-0.006504936 -0.01916592 0.015990004 -0.040788006 -0.02983439 0.023171207 0.07431385 -0.009340505

fc2.bias f4 [128]
00000000: 61f1 35bd d1d0 143d bc12 f33c d401 76bd
00000010: 660c 8bbc 923d ff3c dd3f c33c e6cf 483d
00000020: d378 eb3c 4858 833c 7f26 4c3d 8b37 babc
00000030: 75fe 52bd d856 d53c 0ab1 5b3d 9078 d3bc
00000040: 438c b1bc fc9f b5bc c79a 8d3c 6aba 543d
00000050: d81c ee3b 56d6 4bbd 8813 323d 40cb 94bc
00000060: 923f d6bb f3e7 a53b a381 88bc 3750 ad3b
00000070: 8f77 92bc ca7b cb3c 20c2 3cbd 1573 f03c
00000080: a030 d03c 096b cebc 3746 37bd a92e 563d
00000090: 3fee be3b 58d5 a13c 1e67 0ebd 6754 ff3a
000000a0: f8fd 56bd dbec dfbc 5cf2 71bd b51a 3e3d
000000b0: 5c20 05bd 7540 543d f56d f7bc 6055 5b3d
000000c0: ebb4 4abd e107 5d3d 1be5 693d 7b70 833d
000000d0: d2ff 9cba e863 a93d 6af8 a13b f2c1 3ebd
000000e0: 8c81 45bc 064b e3bc 573a dfbc e3bd 553d
000000f0: 522e 8f3d 14ca c73d 0c0d 743d 35b2 c5bc
00000100: 499e 09bd 8913 eabc 6bc4 033d cb73 813c
00000110: 2e4b c73c 145f e13c b373 82bc 6390 ffbc
00000120: 62e4 10bd 993a d13c b73c 5dbd bd62 8a3d
00000130: d5e3 48bd 935d f0bb 14b6 17bc de44 993a
00000140: fd08 f7ba 0404 2f3d 0ff8 8139 efe9 9a3c
00000150: c160 383b 998a 293d ba85 9f3a dc37 563d
00000160: 77c7 a43c 23f5 ea3b 1a0e 19bc 4f50 023d
00000170: f883 d73b c0e7 043c 117c b2ba d928 2cbd
00000180: f562 68bd 2a29 01bc 91d1 3bbd 38a9 853d
00000190: 503b 603c b5a4 27bd e163 bd3b 65c8 913d
000001a0: 8aa5 1a3d aaca 133d 3e4f 373d 408e bf3c
000001b0: 909b 06bd b279 603c 5b63 d0bc b886 ed3c
000001c0: 9d70 b3bc fc9c 67bd 0f2b 673c 979f f63b
000001d0: 9214 f2bc c8a7 a53c e29d 24bd 7280 50bd
000001e0: 92e3 16bd 8c31 ea3b 228a 58bd 1124 98bc
000001f0: ffc8 89bd 3ce1 863d 4fa4 103d bd11 783d
-0.04441965 0.036331955 0.02967202 -0.060060337 -0.016973685 0.031157289 0.023834163 0.049026392
0.028744137 0.016033307 0.0498414 -0.022731563 -0.0515122 0.026042387 0.053635634 -0.025814325
-0.021673327 -0.022171013 0.017285718 0.05193559 0.007266622 -0.049764954 0.043475658 -0.018163323
-0.00653834 0.005063051 -0.016663378 0.0052891034 -0.017879276 0.0248393 -0.04608357 0.02935175
0.025413811 -0.025197523 -0.044744696 0.052290592 0.005826741 0.01975505 -0.03476631 0.001948011
-0.052488297 -0.027334621 -0.059069023 0.04641219 -0.032501563 0.051819284 -0.030203799 0.053548217
-0.049488943 0.053962592 0.057103258 0.06417938 -0.0011978096 0.08271009 0.0049429433 -0.04657168
-0.012054812 -0.027745735 -0.027249498 0.052183043 0.06991257 0.0975534 0.059582755 -0.024132827
-0.033598218 -0.028573768 0.03216974 0.015802285 0.02432784 0.027511157 -0.01592431 -0.031196779
-0.035374053 0.025540637 -0.05401298 0.06757114 -0.049045403 -0.0073353737 -0.009259719 0.0011693498
-0.0018847283 0.04272844 0.00024789615 0.018910376 0.0028133842 0.041391943 0.0012170591 0.052299365
0.020114643 0.007170336 -0.009341741 0.03181487 0.006577011 0.008111894 -0.0013617297 -0.042031143
-0.056734998 -0.007883349 -0.045854155 0.065264165 0.013686016 -0.04092856 0.0057797288 0.071183
0.037755527 0.036081947 0.044753306 0.02338326 -0.0328632 0.013700889 -0.025438001 0.028994903
-0.021904284 -0.056546196 0.014109387 0.007526349 -0.029550824 0.020221606 -0.04018963 -0.050903745
-0.03683812 0.0071470197 -0.05286611 -0.018571885 -0.0672779 0.06585929 0.035312947 0.06056379

fc3.weight f4 [64, 128]
00000000: bd10 913d 69c5 3bbd 7136 13bd e5cb 97bd
00000010: cee6 393d 8979 883d f6a3 fd3c 6df7 e13c
00000020: 58e7 abbd d766 b5bd 3a9e 803d d227 383d
00000030: 0d8a a9bc a038 91bd e1d8 59bd 79f4 ae3d
00000040: 7bf9 e2bc eb8f 28bd d813 27bc d787 633d
00000050: 1369 9dbd cce2 3d3d 4d10 253c b0cb cf3c
00000060: 7e4f 15ba 6d53 823d 6a9e 043e 074e 4cbd
00000070: dbc6 9a3c dd2f 45bd 5621 bbbd 9d61 a83c
00000080: f880 5fbc b8af a73c f0d7 093d bb46 86bd
00000090: d606 803d f998 f3bc 0016 71bc 70ab bebd
000000a0: 9f00 95bd 75ff a33d 4cbb 803d 20e1 71bb
000000b0: ef23 a6bc 4a2c 583d 2052 dcbc a47b 9a3d
000000c0: 3569 18bd 3ed8 403c 646d 1cbd bda3 1f3d
000000d0: 6c43 2a3d b336 8e3d 6f08 abbd ffa5 cdbb
000000e0: 4ec0 fe3c 2cf3 87bd 079b 0cbd f4e3 3fbc
000000f0: 82df 6b3c a946 983c 1491 da3d 3845 d1bd
00000100: 0e00 9f3d a0ee 42bd bea5 813b c338 8a3d
00000110: a8f8 9ebd a73c 033d 81b3 153d 824e 5d3d
00000120: 184d ac3c 7801 a539 d80e 933d 2f88 c3bd
00000130: 9974 513d 822e 373c 3da0 91bd 02be dabc
00000140: e8a8 84bd 7fdd 5b3c a594 a1bc e4c9 5b3d
00000150: c782 97ba d95a 43bd d3f0 273d de5f c3bd
00000160: 50bb a9bd c62b c73c 2c56 6ebd 70d9 82bd
00000170: 84c9 01bb 021c 99bd 156c 743d 2209 b6bd
00000180: dbe0 b03c 444a 3f3d d0b1 c7bd fc33 863d
00000190: c755 bebd 6bcd babb 47b1 a83d 3fe8 173d
000001a0: 1d2f 723d aefb 0fbd 21ca 643d 95d1 08bd
000001b0: 9469 1bbd 01cb 933d 589a c1bd 52dd a9bd
000001c0: 9ec4 b2bd d0a8 37bd ab42 41bc d80c 383c
000001d0: f016 36bc 4dcf 563c 9b07 00bd 0886 aabd
000001e0: 6953 82bc 11ec 31bd e61f 5f3d 1c19 db3c
000001f0: ebe5 82bc 3d2e 3ebd b8a0 c1bd c70e 86bd
00000200: e6d0 b5bc 80d9 893b dd5c 9dbd 9510 adbd
00000210: 59a7 6fbc 14c2 31bd fe85 9a3d bbbb 263c
00000220: 74d3 403d b9cf 83bc 2478 623d cbd7 4e3c
00000230: e6c3 2d3b bd68 b8bd 74d3 073c c0f3 9b3c
00000240: 28a3 b9bd 86e7 053d 644d 163c 15a5 0dbd
00000250: 2aa2 d2bd e3c8 373b f292 1e3d 4991 99bd
00000260: c6bf 04bd 5224 963c bfd2 f93d 093a 50bd
00000270: 0da1 863d c564 7c3d 9bf5 5ebc dd62 873c
00000280: a622 c3bd 8e8e 813d f369 0f3d 1a9d 3fbd
00000290: 3799 e9bc c2fe a6bd 5418 abbd fa96 7a3c
000002a0: 8e86 3b3d 942b 663d 4ea9 4a3d 6387 41bd
000002b0: d2b9 713d 3ffa 813c 89ee 353d 61ed c83c
000002c0: 00fd bdbd cc0e e63c b044 7ebd 00e6 c1bd
000002d0: 56d8 8c3d 5f7e a63d ff1d c2bd fce4 533d
000002e0: 3953 f7bc f62a 3bbd 8f0f ae3d b067 673c
000002f0: d1a8 9c3d 1694 353c 0667 d53d 0ffc 793c
00000300: 5cd2 82bc 82f3 323d a043 e3bc e6f3 103d
00000310: dd84 c6bd 7141 0f3c f29c 56b9 d368 6d3d
00000320: 593b 153d 564e 023d 1065 a7bd e533 cbbd
00000330: b938 3ebd 8bd5 413c 49d4 c1bd 49df 843d
00000340: a4ae 6c3d d34a 863d 5228 5d3d 5260 8bbd
00000350: 74b2 b63c 5862 4a3d 290c 233d efa8 853c
00000360: 5c75 80bd 5389 b9bd 15c7 1abd 5cde 873d
00000370: 02ef d3bd 4f03 d6bc a15b b4bd 1ea3 853d
00000380: 12fa d1bc 6f91 0dbd 5b3a 9dbd 36eb ce3c
00000390: c2a7 58bd 0e3d 6bbd 8e8c 693d dd25 00bd
000003a0: d802 7a3d 373a d1bc c897 753b 8195 18bd
000003b0: cb49 803c 9f3d bbbd 7306 b5bb 4215 183b
000003c0: 72c1 e9bc 1864 c1bd 21ac a2bd 2c81 32bd
000003d0: a419 95bc 2560 b63d c1ee 78bd bc43 533d
000003e0: 238a b7bc 202d a63c a040 123d 5b7a 2cbd
000003f0: 205c 3d3d e16d 6ebd 9edc de3c 7d4f 3bbc
0.07083271 -0.045842562 -0.03594059 -0.07411937 0.045386128 0.06663806 0.030961972 0.027583802
-0.08393735 -0.08857506 0.06280179 0.04495985 -0.02069571 -0.070908785 -0.053185347 0.08542723
-0.027706852 -0.041152876 -0.010197602 0.05554947 -0.07686057 0.04635887 0.010074687 0.02536568
-0.0005695744 0.063635685 0.12951055 -0.0498791 0.01889365 -0.04814135 -0.09137218 0.020554358
-0.013641588 0.020469531 0.0336532 -0.065564595 0.06251304 -0.029736029 -0.014714718 -0.09310043
-0.07275509 0.08007709 0.06285724 -0.0036907867 -0.020280806 0.052776612 -0.026894629 0.07543114
-0.03720971 0.011770306 -0.03819026 0.038974512 0.041568205 0.06944027 -0.08351218 -0.006275892
0.031097557 -0.06638178 -0.034327533 -0.011712063 0.01439655 0.01858838 0.10672203 -0.102182806
0.07763682 -0.04759085 0.0039565256 0.06749108 -0.07762271 0.032040264 0.03654814 0.05402995
0.021032855 0.00031472347 0.071805656 -0.09547459 0.051136587 0.011180522 -0.07110641 -0.02670193
-0.06477529 0.013419508 -0.0197242 0.053659335 -0.001155936 -0.04769406 0.041001152 -0.095397696
-0.0828768 0.024312865 -0.05818765 -0.06389129 -0.001980395 -0.07476045 0.059673388 -0.08888461
0.021591594 0.046701685 -0.09750712 0.06552884 -0.092937045 -0.0057007573 0.08236938 0.03708672
0.059126962 -0.03515213 0.055856828 -0.033402998 -0.037942484 0.07216454 -0.09453267 -0.082941666
-0.08728908 -0.044838727 -0.01179568 0.011233531 -0.011113867 0.013110948 -0.031257253 -0.08326346
-0.015908914 -0.04343802 0.05447378 0.026745372 -0.015978774 -0.046430815 -0.09454483 -0.06545787
-0.022194337 0.004206836 -0.07683728 -0.084504284 -0.014627301 -0.043397978 0.07545088 0.010176594
0.047076657 -0.01609026 0.055290356 0.012624691 0.002651447 -0.09004352 0.00829016 0.019037127
-0.09064323 0.0326915 0.009173725 -0.034581263 -0.102848366 0.0028043322 0.038714357 -0.07498414
-0.032409452 0.018327866 0.121984 -0.050836597 0.06573687 0.06161954 -0.013608362 0.016526634
-0.09528093 0.06326018 0.03501315 -0.046780683 -0.028515441 -0.0815406 -0.083542496 0.015294785
0.04578262 0.056193903 0.049477868 -0.047248255 0.059015103 0.015866397 0.044416938 0.024527254
-0.092767715 0.028083228 -0.062077224 -0.09467697 0.068772 0.08129572 -0.094783776 0.05173205
-0.03019105 -0.045695268 0.08499061 0.014123842 0.07649387 0.01108267 0.10420041 0.015257849
-0.015969448 0.04368926 -0.027742207 0.03538885 -0.096933104 0.00874363 -0.00020467097 0.057961296
0.03643355 0.03181299 -0.08173573 -0.099220075 -0.046440814 0.011830698 -0.09464318 0.06487901
0.057783738 0.0655724 0.05399353 -0.06805481 0.02230189 0.049410194 0.03980652 0.016315905
-0.062723845 -0.09059396 -0.037787516 0.066342086 -0.103483215 -0.026124625 -0.08806539 0.06525253
-0.025631938 -0.034562524 -0.07677146 0.025258642 -0.05289436 -0.057431273 0.05701881 -0.03128611
0.06103787 -0.025540454 0.0037474502 -0.037251953 0.015660187 -0.09142613 -0.0055244504 0.002320603
-0.028534625 -0.094429195 -0.07942987 -0.04358022 -0.018200703 0.08905057 -0.06077457 0.05157827
-0.022404736 0.02028519 0.035706162 -0.042108875 0.046230435 -0.058210257 0.027204808 -0.011432526

fc3.bias f4 [64]
00000000: 9ce2 433d 3963 643d 76b2 4fbc 44b5 9f3c
00000010: ef0f 603d 7f69 aebd 7a7f ae3d fc23 383c
00000020: 74ad a3bc 2f31 a83c 033e b6bd d0a7 f4bc
00000030: 589e 073d 3cee 66bd e79d 883d 8e92 b5bd
00000040: 4a24 a23d d3c3 833d 7fd5 d93c 6e59 15bd
00000050: 04e5 8dbd c7d8 9abd 44d0 fb3c cb12 22bd
00000060: 8f09 403d b11d bc3b 38cd 943d 3b78 383d
00000070: 892b f6bb 542f 14bb 5757 133c 22df 4dbd
00000080: a918 6e3d b3de 903b 4942 8ebd f0fd 6c3d
00000090: c78a eebb 4437 2abd 2668 c23a 10fa ab3d
000000a0: 7420 183d 7101 36bd 0334 4e3c 63ed 5cbc
000000b0: e248 8ebd ecaf 94bd c35c 63bc 0e1e 3f3d
000000c0: 1d78 0a3d 5695 efbc f24d 7f39 224e ab3d
000000d0: 2a65 c53d 53c1 bf3d 42f7 b03d 3338 b03c
000000e0: 5a23 5abd 34d7 e1bb e8a6 cebc 50b6 9e3c
000000f0: df1d c63c fde7 18bc 71fb 823d c733 103d
0.047823533 0.05575869 -0.012676826 0.019495614 0.054702695 -0.085162155 0.08520408 0.011239048
-0.01998017 0.020531265 -0.088985465 -0.029865175 0.033109993 -0.05637954 0.066707425 -0.08865844
0.07917078 0.06433835 0.02659106 -0.03646224 -0.06928447 -0.07560878 0.030738957 -0.039568704
0.046884116 0.005740844 0.07265705 0.045036536 -0.007512514 -0.0022611218 0.008992991 -0.050261624
0.058128987 0.004421079 -0.06946237 0.05785936 -0.007279727 -0.04155661 0.0014832064 0.08397305
0.037140325 -0.04443497 0.012585643 -0.013484332 -0.06947495 -0.07260117 -0.013877097 0.04665952
0.033805955 -0.029246014 0.00024347732 0.08364512 0.09638436 0.093630455 0.08640911 0.021511173
-0.05325637 -0.0068921093 -0.025226071 0.019374043 0.024184166 -0.009332654 0.06395615 0.03520563

fc4.weight f4 [1, 64]
00000000: f206 dabd 7f16 bebd 42e0 073e 796a f03d
00000010: a001 853d e03d 99bd bd6a 803d ed35 013e
00000020: 4ff8 9bbd 71e5 313d 498b c5bd b3a4 b73d
00000030: c821 0fbe 3227 da3d b4fe 063e 2675 383b
00000040: b977 733d 5407 cc3d 2399 0e3e e6ae a63d
00000050: 249a 383d ea98 103e ce8f fb3d 906d 1e3e
00000060: 3f8d d73c 6145 acbd 59cb 2d3d 2d3b 00be
00000070: 50ff e23d ca44 4d3d 19ff 183d b4cf 82bd
00000080: 66e4 c83c 0fc7 19be 1d5b d0bd 6bfc 9b3d
00000090: 7d30 b9bc a784 33bd 8d58 0a3e a026 ee3d
000000a0: d36e 03bc 801a 003e 8f6a 943d 50fe 813d
000000b0: 2005 32ba 0fab 4abd d835 e43d 26bc 093e
000000c0: 4b1c 8e3d 47d7 57bd 96fc e5bc bc1b f13c
000000d0: dd62 12be 81a2 0bbe 43b7 993d 937d a6bd
000000e0: 1a7d f23d dbf0 af3d 163f b2bd 32e5 bf3c
000000f0: 6222 94bd 95f5 3c3e c44d eabd 767c 2bbe
-0.10645856 -0.092816345 0.13269141 0.11739058 0.064944506 -0.07482505 0.06270359 0.12618227
-0.076157205 0.043431703 -0.09645707 0.08966961 -0.1397773 0.10652007 0.13183099 0.0028145998
0.05944035 0.09962335 0.13925605 0.08138828 0.045068875 0.14120832 0.12283288 0.15471482
0.026312469 -0.084116705 0.042430256 -0.12522574 0.11083853 0.05011443 0.037352655 -0.063872725
0.024522971 -0.15017341 -0.101736285 0.07616504 -0.022606129 -0.04382768 0.13510342 0.11628461
-0.008022028 0.12510109 0.07246887 0.063473344 -0.0006790925 -0.04947954 0.111430824 0.13450679
0.0693899 -0.05269554 -0.028074544 0.02943217 -0.14295526 -0.13636209 0.075056575 -0.0812942
0.118402675 0.085908614 -0.08703439 0.023424719 -0.072331205 0.18453057 -0.11440614 -0.16746697
