Models/SavedModels/lung_cancer_model.pth (torch, 184568 bytes, 7 tensors)

fc1.weight f4 [256, 15]
00000000: f6d3 1d3e c2c0 613e abeb 85bd 98d6 8d3e
00000010: 2f99 7dbc 8f62 a33d 6b19 debd 30b6 173e
00000020: c6ad 813e 13ec 4dbe df17 7e3e 12ba a63d
00000030: a9a1 2b3e d5c0 a13d 6bec f93d 114f 54bd
00000040: 9e0a 3c3e c8a3 5e3d 429f 0cbe 2e28 123e
00000050: 5a6a 16be b6d2 c8bd 2fd8 e0bd 7afb 0b3e
00000060: c7e3 78be 2971 21be 7211 e8bd 0293 1ebe
00000070: 1c6a 4c3c b5d5 8ebe d5a8 6f3e f5cf 4abe
00000080: a903 733e fa0f 233d 2acb 89bd c694 373e
00000090: 13cf 803d 4258 5f3e a6d2 cabb 7827 f4bd
000000a0: 4cf1 993d 02b6 69bd 94c5 f43d 2397 6c3e
000000b0: 6829 0e3e 6b03 c8bd 491f 513e c471 2d3d
000000c0: ff72 eb3d 15f1 19be 0dff 4dbe 5c13 88bd
000000d0: b283 1fbe 552a 843e 5c75 af3d 1a3b 093e
000000e0: e462 ef3d d5ec 1d3d 0c40 553e ce6d 54be
000000f0: db29 fcbc bdb8 ecbd 92d2 db3c fb3d ddbb
00000100: b800 273d 0fa1 b0bd b0a6 623e 2751 35be
00000110: 3ca4 2ebe cf6f 5ebe 2c2b 463e baa4 123d
00000120: 3bdd 883e ca74 77be 1c60 a5be 543a 5ebe
00000130: cd12 04be d734 cf3d 0a55 193e 9197 3b3e
00000140: b09e c0bd f9c6 48be 3124 0b3e 4586 cbbb
00000150: 6c43 603e 43fb 62bd 117e 193e 574d 4ebe
00000160: 4e29 eabd 581c 073e 608a 32bc 0d55 15be
00000170: 9613 553e 2e8c 833e 3ecb 92be a12d 47bd
00000180: 0c99 813e 38c9 17be 784e 8dba 8fcf 95be
00000190: b890 4bbe bc47 913b ab98 debd 9de1 69be
000001a0: 8444 9f3d 929a 34be 643d 5ebe 27a3 07be
000001b0: e90d 7fbe b900 40be 601b 7d3e 77c7 463d
000001c0: 9114 523d 86ec 81be eda5 2dbe 8f7a 01be
000001d0: 474a 04b9 3669 85be a2a1 18be 0e49 1ebe
000001e0: 16cd 413d 0a03 febd 81d0 883c e233 30be
000001f0: d037 29be 2ce8 98bd e6b0 8dbd 850c 36be
00000200: fc71 853e 4835 5abd 5fcb 913e 2e48 1e3e
00000210: 89b8 2dbe a9a6 4b3e ff83 8bbd 91db dfbd
00000220: ac68 83be 1562 62be 5449 483d d11e 08bd
00000230: ce27 153e b7cb 73be ebad 253e 3d36 10be
00000240: 3553 1abd 828c 6d3d e92c fc3d 907a 2a3e
00000250: 5a06 913e 348c 31be 4a54 8c3d a1c6 97bd
00000260: 472e 6abd b53d 7fbe fb2a 5c3e 6961 7abe
00000270: ec11 ab3d 9cc6 b73d 26be b93d bcaf 00be
00000280: 35e0 723e d16f bc3c f20a 033d 603f 67be
00000290: db02 033e 4507 0ebd d912 67bd 67c8 6b3e
000002a0: 7c46 0b3e b2a7 45be 600b 4ebe b5c4 75bd
000002b0: 2d4b 033e dd56 97bd 4139 32be fa1d 1abe
000002c0: 275c 80be 45c1 103e 6bfd 383e 8e0b 8dbe
000002d0: 5a5e d03d ad1d 3e3e 103f 713d b130 91bd
000002e0: 32b3 103e 0f53 1d3e c788 2a3e 9e0a ca3a
000002f0: d90c e9bd f000 adbc 7510 3bbd c5a4 9dbd
00000300: ef1f 5b3e 2cea 623e c585 75bc 6834 96bd
00000310: 47a6 ac3c 8870 833c a6c2 973d b082 813d
00000320: c6d7 91be 42b7 e4bd d8ab 543e 860d 073e
00000330: de48 7bbd 9e97 1dbe 400d 50be f9fb 30be
00000340: a289 1cbd 66d5 cf3d 51d0 713e 50c9 043e
00000350: c49e 6ebe 84a3 63be 090f 503d bebf 8e3e
00000360: b8ec 463d 0d14 3abb 52fb aa3c df0f 1fbe
00000370: a593 f2bd 9113 4d3e 9097 88bd ce1c cdbd
00000380: df9d 55be 1295 263e c28e 583e c1f3 c63d
00000390: 9674 edbd 8422 73be 1021 24be 8dda 3e3e
000003a0: edb6 293e 882f 893e 4501 163e 36a3 b73d
000003b0: fdde 3b3c 673f 1cbe 6136 76be bcdb 71be
000003c0: 9a22 133e df41 e5bd 9820 18bc b353 2bbe
000003d0: 73e3 dbbd 6ee5 6ebe 941a 7dbe 2af3 043e
000003e0: 6956 20be 51d8 e03d d06b a8bd 0e0e 42be
000003f0: 4a59 e5bd 452a 00be 7844 18be 42dd 8fbe
0.15412888 0.22046188 -0.06539091 0.27702785 -0.015478416 0.07977783 -0.10844692 0.14815593
0.2532789 -0.20109586 0.24813794 0.08140959 0.16760887 0.07898108 0.12203296 -0.051833216
0.18363425 0.054355413 -0.13732627 0.1427314 -0.14689007 -0.09805815 -0.10978734 0.1367015
-0.2430564 -0.15765823 -0.113314524 -0.15485767 0.01247647 -0.2789742 0.23404248 -0.19805892
0.23731865 0.03981016 -0.067282036 0.17927846 0.06289496 0.21811011 -0.006189662 -0.119215906
0.07516727 -0.05705834 0.119517475 0.23104529 0.13882983 -0.09766277 0.2042209 0.042344823
0.11496543 -0.15033372 -0.20116825 -0.066443175 -0.15577582 0.25813547 0.085673064 0.13401452
0.11688784 0.03855594 0.20825213 -0.20745012 -0.030781677 -0.115586735 0.026833806 -0.0067517734
0.04077217 -0.086244695 0.22133899 -0.17706738 -0.17054838 -0.21722339 0.19352406 0.035801627
0.26731285 -0.24165645 -0.32299888 -0.21701938 -0.12897797 0.101175 0.14973846 0.18319537
-0.09405267 -0.19607152 0.13588025 -0.0062110745 0.2190072 -0.055415403 0.14989497 -0.2014669
-0.114336595 0.13194406 -0.010897249 -0.14583226 0.20808253 0.25692886 -0.28670686 -0.0486275
0.25312078 -0.14822853 -0.0010780832 -0.29259917 -0.19879425 0.0044336 -0.10868963 -0.22839971
0.0777674 -0.17637089 -0.21703106 -0.13245831 -0.2490765 -0.18750276 0.24717474 0.04853007
0.051289145 -0.25375766 -0.16957827 -0.12644409 -0.00012616171 -0.26056832 -0.14905408 -0.15457556
0.047314726 -0.124029234 0.016700985 -0.17207292 -0.16525197 -0.07466158 -0.06918506 -0.17778213
0.26063526 -0.05327347 0.28475472 0.15457222 -0.16964926 0.19887795 -0.06812286 -0.10930551
-0.25665796 -0.22107728 0.048898056 -0.033232514 0.14565966 -0.2380818 0.16179626 -0.1408319
-0.03767701 0.057995327 0.123132534 0.16648316 0.28325158 -0.1733864 0.06852014 -0.07410932
-0.05717304 -0.24925883 0.21500771 -0.24451222 0.08353028 0.089734286 0.09069471 -0.12567037
0.2371834 0.023002537 0.03199286 -0.2258277 0.12794058 -0.0346749 -0.05641446 0.23025666
0.13601106 -0.19302252 -0.20121527 -0.060002048 0.12821646 -0.07389615 -0.17404653 -0.15050498
-0.25070307 0.14136226 0.18065421 -0.27547878 0.10174246 0.18566008 0.05889803 -0.07089365
0.14130858 0.15363716 0.16653739 0.0015414541 -0.113794036 -0.021118611 -0.04566999 -0.07697443
0.213989 0.22159642 -0.014985506 -0.073342144 0.021075381 0.01604487 0.07410173 0.06323755
-0.28484935 -0.11167766 0.20768678 0.13188753 -0.06134879 -0.15389869 -0.20317554 -0.1728362
-0.038217194 0.101481244 0.23614623 0.1296742 -0.23302752 -0.22230345 0.05079559 0.27880663
0.048565596 -0.00283933 0.020871792 -0.15533398 -0.11844567 0.20026995 -0.06669533 -0.1001526
-0.20861004 0.16267803 0.21148208 0.09714461 -0.11594503 -0.23743635 -0.16028237 0.18638058
0.16573687 0.26794076 0.14648922 0.08966677 0.011466739 -0.15258561 -0.24044181 -0.23618978
0.14368668 -0.111942045 -0.009285115 -0.16731147 -0.10736742 -0.23329708 -0.2471717 0.12983385
-0.15657963 0.10978759 -0.082236886 -0.18950674 -0.11198671 -0.12516125 -0.14869869 -0.28098494

fc1.bias f4 [256]
00000000: 5835 97be a5af 413d dba1 403e e4d4 10bd
00000010: 7185 803d 7e46 113e 7265 5fbe 65f9 2ebd
00000020: 2f0f 57bd dd1d 50be 2420 233e 7ed6 8c3e
00000030: 6a55 953d 0ce0 2a3e 35a0 34be 5992 963d
00000040: 8ed5 303c 0725 35be 6fd5 f73d 5866 f73d
00000050: 6405 b0bc a364 183e 3e67 0b3e 3c48 963e
00000060: 82ba d13c 2e4a f03c 3e9f 263d 626c 783d
00000070: 0229 ecbd e4c4 abbc b8c3 2fbe ab98 32be
00000080: f343 7fbe 5da1 343e 30a0 82bd 461a 8fbd
00000090: deef 1ebc cd7c 7e3e 4b05 2c3e d44b 02be
000000a0: 81fe 7f3e 996e 7abe 70e0 9f3d 874a 873e
000000b0: 7fdc 7a3e 019a 9bbd 9f0f 02be fe5c 193e
000000c0: e1cd 783e 83ee 2ebe 7dfb 2dbc 6b59 2abe
000000d0: f37d 103e d265 433d aa52 d93d 0270 f4bc
000000e0: ac23 40be fc17 27be 46e6 45be fbde 57bd
000000f0: 7049 933d d953 55be c6bd 403c 64c5 4ebe
00000100: f05c 15be 45fb 48be 5177 03bd 5782 08be
00000110: b138 1d3d 37d8 423e 1d1f 413e a52a f33d
00000120: e965 623d d17a f0bd 5156 3b3e e182 e6bd
00000130: 454c 653e f772 5cbe c006 42be c6c2 c83d
00000140: 9cef eabd 1491 c63d 063b 603e 0747 2f3e
00000150: b7b3 773e d4a7 bfbd d208 87bd 50a0 743c
00000160: 0bc5 64bc cc6f 01be ce81 863b 06ea 893e
00000170: 3337 00be 515c 2b3e 8523 053e 37a1 3d3e
00000180: c9b9 a43d 747f e7bd 3a61 043e 74ef 3abd
00000190: f29c 5fbe 7534 583e 3df2 5b3e 2365 dabd
000001a0: 4825 623e 05bf 4e3d f511 d13d 526a 943e
000001b0: 6de5 7cbd b41f 9bbc d60b 1d3e 249d 4ebd
000001c0: c476 46bd ed04 ebbd 5e5e 783e 8361 233e
000001d0: 3377 85bd 87de 493d d0fd 893d d1b8 2bbe
000001e0: 3b2c 9c3d 9b98 45be f121 4d3c 3894 96bd
000001f0: 0df4 02be c6d0 893e c180 ba3d ba18 3a3e
00000200: 226d 13be fa3d 823d b7a6 c43d d542 223e
00000210: 8c65 89bd 48c6 d5bb 2c75 59be cbfc 163e
00000220: a67d 3b3e 7dc1 d93d 8bc3 c33d 0d39 223e
00000230: db8f 5a3e bc08 833d 5548 cc3d a909 133e
00000240: b86e 26be 2a0a 843d 9393 3c3d 1eaf 2abe
00000250: 213f 3dbd 69be f9bd a37b cebd 3b0e 5d3e
00000260: fb55 663e 9ba5 e4bc 6d9c ce3d c856 83bd
00000270: 07e3 af3d 32a2 b3bd de8a 09be 2e6a fcbc
00000280: 4bdc 8e3e fb96 353d d73e eebd 219f b53c
00000290: 0798 4cbe aca2 373d 4b61 4a3e f648 833d
000002a0: 7bea 913c d2ca 40be c461 5ebd ceff 2f3e
000002b0: 50f0 44be a4cd 15be 92df 553e cd31 903d
000002c0: 8ad0 193e b08d 76be 5841 443e a4ae 523c
000002d0: bb87 923d 4302 593e b4c0 8fbe adb1 9a3d
000002e0: b3ac 4ebe 1344 523e 4c50 de3d 93d6 be3d
000002f0: 3422 e7bd 26c6 d63d 9420 fabd cc8a bb3d
00000300: 7cd2 703e e967 51be f703 17be 6af4 c43d
00000310: 9968 96bc 55e8 e3bb d585 733e feb1 e1bc
00000320: f06d be3d 4d44 1e3e c96f 7abd d227 493e
00000330: e842 243e 35b6 123e 8139 d7bc dced 893e
00000340: 5e7f 04be b3ee b63d 5963 243d a872 4b3e
00000350: bfbe 72be b4c1 623d 3b98 ffbd d73d e83d
00000360: 563a cb3d bd95 2abe 8394 103d 1445 fd3d
00000370: 98c6 fe3d d3ba 883e 12c2 2a3e 919f 263d
00000380: a98a 293e 4a23 82be 7763 413e a8d7 19bd
00000390: bb63 0f3e 95c1 bc3d 559d cb3c f570 523e
000003a0: 5fff 22be a1c4 b53d 7839 263e f0f7 91bd
000003b0: 8970 073e 6ff5 41be e213 69bd c133 1f3e
000003c0: 0f9b 3c3e a96f 56be ef97 f53d 4f9a ca3c
000003d0: 920a 853e 9bdc 5abe 0575 d4bc a787 02be
000003e0: 31c3 2bbe a66b 333d 3b22 35be 6432 643e
000003f0: 843b 8ebd 7174 5f3d 407e 0fbe 3abb 98bc
-0.29532886 0.04728665 0.18811743 -0.03535928 0.06275452 0.14187047 -0.21816042 -0.04271831
-0.052504715 -0.20323892 0.1593023 0.27507395 0.07291682 0.1668703 -0.17639239 0.07352132
0.010793103 -0.17689906 0.12101256 0.120800674 -0.021486945 0.1488214 0.13613603 0.29351985
0.02560163 0.029332247 0.04067921 0.060650237 -0.11531259 -0.020967908 -0.17164505 -0.1744105
-0.24928264 0.1763968 -0.063782096 -0.06987433 -0.0097007435 0.24852295 0.16798894 -0.12724239
0.2499943 -0.24456252 0.0780648 0.26424047 0.24498175 -0.07597733 -0.12701271 0.1497688
0.24297287 -0.17083173 -0.0106190415 -0.16635673 0.14110546 0.047704525 0.1061147 -0.029838566
-0.18763608 -0.16317743 -0.19326124 -0.052702885 0.071917415 -0.20832767 0.0117639955 -0.20192486
-0.14586234 -0.19627102 -0.03209621 -0.1333097 0.038384143 0.19027792 0.18859525 0.11873368
0.05527297 -0.11742175 0.18294646 -0.11255432 0.22392376 -0.2152823 -0.18947887 0.09802775
-0.11471483 0.0969564 0.21897516 0.17116939 0.2418965 -0.093581825 -0.06593479 0.0149308
-0.013962994 -0.12640303 0.0041048294 0.26936358 -0.12521057 0.16734435 0.13001831 0.1851853
0.08043248 -0.11303607 0.12927714 -0.045638517 -0.21837214 0.21113761 0.21479125 -0.106638215
0.22084534 0.05047514 0.10208503 0.28987366 -0.061742235 -0.018936016 0.15336546 -0.05044283
-0.048453107 -0.11475549 0.24254748 0.15955167 -0.06516876 0.049284484 0.06737864 -0.1676972
0.07625624 -0.19296496 0.012520299 -0.07352489 -0.1278841 0.26917094 0.09106589 0.18173495
-0.143971 0.06359477 0.09602111 0.15845807 -0.06708822 -0.006523881 -0.21236104 0.1474487
0.1830965 0.10632608 0.09558781 0.15842076 0.21343939 0.0639815 0.09974734 0.14359154
-0.16253173 0.06447251 0.046039175 -0.16668364 -0.046202783 -0.12194521 -0.100821756 0.2158746
0.22493736 -0.027910998 0.100884296 -0.064130366 0.08588224 -0.08771171 -0.1343188 -0.03081235
0.27902445 0.04433344 -0.116330795 0.022170605 -0.19979869 0.04483287 0.19763677 0.064104006
0.017812004 -0.1882737 -0.054292455 0.17187425 -0.19232297 -0.14629227 0.20886067 0.07040749
0.15020958 -0.24077487 0.19165552 0.01285902 0.07154795 0.21192269 -0.28076708 0.0755342
-0.20183067 0.20533781 0.10855159 0.093182705 -0.112858206 0.104870126 -0.12213245 0.09157333
0.23517793 -0.20449795 -0.14747606 0.09616931 -0.018360423 -0.0069551864 0.23781522 -0.027550694
0.09298313 0.15455742 -0.061141763 0.19644096 0.16041148 0.14327319 -0.026272537 0.26939285
-0.12939212 0.08932247 0.040133808 0.19867957 -0.23705576 0.05536051 -0.124802075 0.1133992
0.09923236 -0.16658683 0.03529788 0.12366691 0.124402225 0.26705036 0.16675594 0.040679518
0.16556801 -0.25417548 0.18885599 -0.03755918 0.14002888 0.0921661 0.024855295 0.20550902
-0.15917729 0.088753946 0.1623286 -0.071273685 0.13226523 -0.18941282 -0.056903727 0.15547086
0.18418525 -0.20941032 0.1199187 0.024731783 0.25984627 -0.21373217 -0.025934706 -0.1274706
-0.16773678 0.043803833 -0.17688839 0.22284847 -0.069449455 0.054554407 -0.14013004 -0.018643964

fc2.weight f4 [128, 256]
00000000: b0fa c8bd b9d4 ce3d a4dc 3d3d bc3c f93c
00000010: b709 8c3b 82a1 963d 13aa 873d 1174 363c
00000020: fe83 2dbd e301 18bd 127f 30bd ca3a 2abc
00000030: efaa ccbc 4c6d 693b 5b09 4f3d 0263 403d
00000040: d844 dcbd 19af 42bd be8e 373b 97ef b03d
00000050: 4830 5a3d 501d ac3d 2ef6 b03d fec5 f73b
00000060: 4845 e13d 38f6 8d3c 980e fabc eee9 ba3d
00000070: ec09 2a3d 173a 7ebd ee5e d6bb bd05 8dbd
00000080: ea67 1a3c 2b7c 3f3c bbca 94bd cc59 36bc
00000090: 8259 44bc 2af8 713d e8a5 1ebd 429e 673a
000000a0: 2949 15bc e06c 1bbb 5c42 893d 04e6 d73b
000000b0: 8a63 643c 82a0 83bc d979 433d 56d4 1b3d
000000c0: d48b 983d 99bf b9bd 393d d23d e6f5 fc3d
000000d0: 5ccc aebb 6f63 8e3c 2083 033d 9566 b13d
000000e0: 985d a7bd 96c5 4ebd e17f 21bd 6cab 4e3d
000000f0: 818c a2bb a168 8dbd 0940 f5bc 65a9 1d3e
00000100: a051 0fbd 90bf b8bb e500 e73d 4240 13be
00000110: 8f46 e93d fbfe 713d eef8 d63d 338e 61bd
00000120: 2b51 1fbd 72bb 9abd d031 663d 5c1b 713d
00000130: 44c8 f3bc 3a4d abbb c1f3 85bd ebc9 f3bc
00000140: a6d5 523c 99ef 733d 0a7b 443d 6e48 bb3c
00000150: 3e29 6f3d c444 b93d 419b b33d d961 23bd
00000160: ef0a c53c 78cd 2fbd ab23 693d 607e bfbd
00000170: 7f16 07bd 720b a53b 5fa5 d13d 1aff 933d
00000180: 8e1f a73d e673 adbc ce59 8f3c 2009 0d3e
00000190: 6ba0 28bd 6787 823d dcc7 4a3b 437d b3bd
000001a0: 5cbb 17bc 859a 403d 3e9b 993d 7d02 ddbc
000001b0: 4f96 493b bdb5 ce3c 719f a9b9 d065 cf3d
000001c0: 1e9c acbc d97e 19bd 9cf7 ccbc 0899 47bd
000001d0: cf93 96bc 9a7c ff3c 8287 d23d 6804 b83c
000001e0: cf40 033e 0878 ebbc 9b03 e53d 495d 9c3d
000001f0: 911e 01bd ba0a 623b 5747 ac3d 6d1e 99bc
00000200: bcca 0bbe 1fcf 04be 5ccf 28bd 782f 233c
00000210: 5ee2 8c3d 000f 81bb 736c 99bc 9391 79bd
00000220: a7d8 3a3d c5ab 9dbc d044 de3b dc87 aa3d
00000230: b02c 1dbb 868d 5b3c 5021 d23d 97e7 2e3c
00000240: 16b4 ac3d 0000 f83c 60be d33c 73de 023e
00000250: 5363 b93c 43fb 273d e21a 293e f5d5 47bd
00000260: 6b73 e03d 3ce7 0c3d 8a17 b73d cfb0 633d
00000270: d276 aa3d 6991 793d 40bf feba ee83 4e3d
00000280: 59f7 843d c9e2 163d 36bf 993c 16b4 a43d
00000290: 4a11 dc3d df9f 3b3c 3516 d33b ea59 de3c
000002a0: 8cff 373d 8cb1 0a3e 32d5 d2bd 5087 213d
000002b0: f64e 353d 6c44 183d 621a 903c b534 4e3d
000002c0: db5a 823d 0628 70bd 2f2f efbd d307 bfbd
000002d0: 6d5e d83d 3e45 a1bd 1c42 d93b 84ab 173d
000002e0: 2f9c c83d dbcc 1dbd 8d4a 483c 1cfb 3d3c
000002f0: efcd 9b3d ed0d 013d e91e bd3d 5b24 2e3d
00000300: d2a8 9d3d 02f5 513d dec7 6bbd e160 bf3c
00000310: 9901 ec3c 7c8d aebd 9a83 473d 727d e3bc
00000320: 355f 903c 32b3 e83d 2344 43bb f770 a3bc
00000330: f65e 313d a1ff 383d 90f8 503d 4df0 063c
00000340: 477f 9abc 73bd 9d3d 8f70 95bd f762 7fbd
00000350: d9fa 75bd 52a0 03bd 6d47 a1bd 296e 87bc
00000360: 3919 83bd e08c cc3d a580 0b3d 5e61 e53c
00000370: c41e aabd 3dca 043e a2bf 0b3d 9f8d f1bd
00000380: 6a88 c33d 7f72 9f3d 74fe 063e 24e2 aa3d
00000390: 970d 253d 264f c03d 1c71 533d 18a5 afbb
000003a0: 3bf2 9f3c ea1b f83a a6da 553d 8869 17be
000003b0: 7e2c c43c c162 3c3d 9016 12bd 4d07 213d
000003c0: 63d9 a4bd 670b 12bd 660a 49bd 757a 063d
000003d0: ad22 c43d 4f16 013e da3f e63d 9f00 aabd
000003e0: ec5b 8abc 5e7d e33d f45a 4c3c 9590 0f3d
000003f0: c65d 2f3c 2585 37bd fc80 f03c 00af 8b3c
-0.0981344 0.100991674 0.046352997 0.030424468 0.004273619 0.07355024 0.06624236 0.011136071
-0.042362206 -0.037111174 -0.043089934 -0.010389993 -0.024983851 0.0035618125 0.05054603 0.04696942
-0.107553184 -0.047530267 0.0028008665 0.08639448 0.0532687 0.084040284 0.08640705 0.0075614443
0.109995425 0.01732932 -0.030524537 0.0912665 0.04151337 -0.062067118 -0.006542078 -0.0688586
0.009424189 0.011687319 -0.0726523 -0.011129808 -0.011984231 0.05907456 -0.03873244 0.0008835533
-0.009111681 -0.0023716018 0.0670211 0.0065886993 0.013939748 -0.016067747 0.047723625 0.038044296
0.07448545 -0.090697475 0.102655835 0.12351589 -0.00533442 0.017381398 0.032107472 0.08662144
-0.081721485 -0.0504814 -0.039428595 0.05045645 -0.004960597 -0.06904722 -0.02993776 0.1539665
-0.034989953 -0.0056380704 0.112794675 -0.14379981 0.11390411 0.05908106 0.10496698 -0.055067252
-0.038895767 -0.075552836 0.05619985 0.058863983 -0.02975858 -0.005227712 -0.06540633 -0.029759368
0.012868321 0.05955467 0.0479689 0.022861686 0.05838894 0.09046319 0.08769847 -0.039888237
0.024053065 -0.04292056 0.05691878 -0.09350276 -0.03298044 0.005036765 0.1023662 0.07226391
0.081603155 -0.021173429 0.017498877 0.13773012 -0.04116861 0.06373482 0.003094188 -0.08764126
-0.009260979 0.04702236 0.07500313 -0.026978726 0.0030759757 0.025233144 -0.00032352985 0.10126841
-0.021070536 -0.037474487 -0.025020413 -0.048729926 -0.018381028 0.031187344 0.10279752 0.022463039
0.12817691 -0.028743759 0.11182328 0.0763498 -0.03152329 0.0034491257 0.084120445 -0.018691266
-0.13651556 -0.12969635 -0.04121338 0.009960048 0.068791136 -0.0039385557 -0.01872847 -0.060929846
0.045616772 -0.019246945 0.0067831054 0.08326694 -0.0023982935 0.013400441 0.1026026 0.0106753325
0.08432786 0.030273438 0.025847614 0.1278017 0.02263037 0.041011106 0.16514161 -0.04878803
0.10959514 0.03440021 0.089400366 0.05558854 0.083234444 0.06092969 -0.0019435659 0.050418787
0.0649249 0.036837373 0.018767934 0.08042161 0.10745485 0.01145169 0.0064418563 0.027142484
0.044921443 0.13544291 -0.1029457 0.039435685 0.044264756 0.037174627 0.017590705 0.050343234
0.063649856 -0.05863192 -0.116789214 -0.09327664 0.10564885 -0.07874535 0.0066301953 0.037028804
0.09795415 -0.038525444 0.012224806 0.011595514 0.07607638 0.03150742 0.09234411 0.04251514
0.076982155 0.05125905 -0.057563655 0.023361625 0.028809356 -0.0852308 0.04870949 -0.027769778
0.017623523 0.11362304 -0.0029795251 -0.019951327 0.043303452 0.04516566 0.051018298 0.008236003
-0.018859519 0.0770215 -0.072968595 -0.06235024 -0.06005368 -0.032135315 -0.078749515 -0.01653202
-0.06401295 0.09987807 0.03405823 0.02800053 -0.08306649 0.12967773 0.034118302 -0.1179459
0.09547503 0.0778551 0.13183004 0.08343914 0.040296163 0.09390096 0.05162154 -0.005360257
0.019524684 0.0018929217 0.052210473 -0.1478635 0.023946997 0.045992617 -0.03566605 0.039313603
-0.08049276 -0.035655405 -0.049082182 0.032831628 0.095769264 0.12606166 0.112426475 -0.083009
-0.016889535 0.11107896 0.012472857 0.035049994 0.01070351 -0.04480471 0.02935838 0.01705122

fc2.bias f4 [128]
00000000: a093 f8b7 68de 61bd 9727 cc3d 6b1c acbd
00000010: f911 be3c 2bc1 823d 8ee2 dbbc 1974 96bd
00000020: a793 c63b b04e d7bb d69d 793c 7975 c43d
00000030: c546 b13d b5b6 163d 8d80 50bd ab7b 39bd
00000040: d97c b73d 63d1 003d 3a33 953c 9782 0a3d
00000050: 9749 de3c 389c 66bc 3d2d bd3d 299e 8dbb
00000060: 752d b53c 25e1 383d 980b b63c c124 1fbc
00000070: cd22 49bd 6ecd bf3c 9f8b e1bb 3050 64bd
00000080: 409c 3bbd d21a c9bb 789c e1bb f1c8 71bd
00000090: 6c4e fdbc f93d 4ebd 623a bbbc 70dd 3ebb
000000a0: 2bef 113d 074c bb3d 0487 873d ff62 973c
000000b0: a12d eebc 31de d5bc 3ef9 86bc 695e f43a
000000c0: 90c6 103b 7015 b73d 6c67 42bd 5024 393d
000000d0: 9646 71bd 97cf 0abd b5bf b23b ec50 db3c
000000e0: f446 9b3d 43b3 4ebd fa4b 1fbd b687 f13c
000000f0: 2460 ee3c 60eb 0ebd 3ac9 44bc 03af 693d
00000100: a055 7c3d a1f9 c73c ed03 003d 1b16 363d
00000110: 0557 593c e0b4 c73b fdbe 933d 9add 03bd
00000120: 0978 e33c 7f3c c33d 3282 12bd bdf1 5b3b
00000130: 4aae d6bb 2279 c73d e9c5 af3d 2b57 823d
00000140: 5519 683d 00c2 91bc 89f4 453d 5133 0fbd
00000150: 09dd 843d 069e 55bd 0a35 ccbc b126 37bd
00000160: f886 933d 5ecd 89bd 91b2 f5bc fb75 9c3d
00000170: 125c 383d eeb1 9a3d 3886 6cbc 2ad2 f23c
00000180: 5f9e 3e3d ac71 b63c 8451 493d 7bb7 523d
00000190: 5aee 8b3d 9423 733d 5ce6 123d cd60 64bd
000001a0: 5c3f 333d 77a1 2bbd 96d6 d73b 5a9b 8dbb
000001b0: 703e 80bd 72d5 8a3d a609 f23b f62b acbc
000001c0: ce09 e4bc 52c8 88bd c607 47bd 366a 98bd
000001d0: a92a 9c3d 5a19 b33c da58 893d a8a6 013d
000001e0: 1b58 5ebd 5929 ddbb c36c bdbc 281b adbc
000001f0: 7f8a 4e3b 07d7 593d 9884 ff3c ebfb 3b3d
-2.9632647e-05 -0.055143744 0.09968489 -0.08403858 0.02320193 0.063845 -0.026841428 -0.073463626
0.006060082 -0.0065706596 0.015235385 0.09592719 0.08656076 0.036795337 -0.050903846 -0.045283955
0.0895936 0.031449687 0.018212903 0.033815946 0.0271347 -0.014075331 0.09237144 -0.0043218327
0.022116402 0.04513659 0.022222325 -0.009713353 -0.049105454 0.023413386 -0.006883099 -0.055740535
-0.04580331 -0.0061372304 -0.0068851076 -0.059029523 -0.030921184 -0.05035207 -0.022854988 -0.0029123686
0.03562848 0.091453604 0.06617549 0.018479822 -0.029074492 -0.026106926 -0.01647627 0.0018643859
0.0022091009 0.08939636 -0.047461912 0.045200646 -0.058905207 -0.03388938 0.005454982 0.026771985
0.075818926 -0.050463926 -0.038890816 0.029483657 0.029098578 -0.03489244 -0.012010867 0.05705167
0.061605096 0.024411025 0.031253744 0.044454675 0.013265376 0.00609456 0.072141625 -0.032193758
0.027767198 0.09533023 -0.035768695 0.0033560835 -0.0065515386 0.09739901 0.0858267 0.06364282
0.056664784 -0.017792702 0.04832891 -0.03496105 0.064874716 -0.052152656 -0.024927635 -0.044714633
0.072034776 -0.06728624 -0.029992374 0.076396905 0.04500968 0.07553469 -0.014436297 0.02964123
0.046537753 0.022271 0.049150005 0.05144451 0.06832571 0.0593601 0.03586422 -0.05575638
0.043761596 -0.04190203 0.00658686 -0.004321498 -0.06261909 0.06778993 0.007386404 -0.021017056
-0.027836706 -0.06678833 -0.048591398 -0.07442133 0.07625324 0.021862675 0.067064 0.031653076
-0.054283243 -0.006749314 -0.02312315 -0.021131113 0.0031515656 0.05318358 0.031191155 0.045894545

fc3.weight f4 [64, 128]
00000000: c7d5 b3bd bbbe 993b dd80 633c 963e 703d
00000010: 761d 36bd 6669 b63d aa9d cc3c fac0 0a3e
00000020: cc06 f53c efba e93b 4e1b 81bd 5085 abbd
00000030: a9a6 2bbc 8185 663d 56d8 c9bc c0cd 97bd
00000040: dfe6 0f3d 47e6 113e 475c dabd 3532 9f3d
00000050: d57a cf3c 8b33 08bd 2c38 07be 1258 433d
00000060: 3897 b03c 97c3 043e b8e4 20bb cc53 373d
00000070: 640e d23d 5e43 52bd 945c abbd 1b22 a83d
00000080: 8798 c43c 410d 94bd 4d55 03be 08ce 0fb8
00000090: de47 b2bc 5bc0 95bb f898 04be 08a7 f33d
000000a0: 2139 be3d ab1c 05bd c0eb 29b8 f251 3bbd
000000b0: 8441 f6bc d05c 953d 61a1 b43c 8170 d8bd
000000c0: 8c91 c9bb fb30 f6bd d18a 123e ec4e e43d
000000d0: f5f2 0a3e 744a 183d d8ab 843d d09f 9a3c
000000e0: e3d1 97bd 9a8f 0fbd 9c8c 9ebd 339c 8d3c
000000f0: 3ac7 843d 7f0e 14bd fe23 0b3e 6c01 ed3c
00000100: e6a8 033d 1571 50bd 31da ddbd cd66 573d
00000110: 05a5 8ebd 321b b13d e810 8ebc 3f34 25bd
00000120: 282f c13b b6e2 333d d6d8 1a3e e899 a6bc
00000130: 2b09 773d 83b4 653d 1270 f13c 734f e6bd
00000140: 4e0e 09be c470 3dbc 900d 253e 4fe4 683d
00000150: 0372 053d 2907 80bd 92db 2fbc 081a 093d
00000160: e215 e5bb e7cc 93bc 3fe2 fbbc de35 023d
00000170: 7305 a3bc 8c74 cfbd aa04 083d ded1 adbc
00000180: c312 e8bc bd88 823d c669 5c3d 512a 42bc
00000190: a147 98bc 07d2 4fbd ad2a b3bd 43b0 c5bc
000001a0: 5935 8c3d 95a5 7e3d ed75 2b3e 77e7 043e
000001b0: d28c d23d 721e ddb9 d0ec 7dbd 8384 a8bc
000001c0: 5393 cd3d 900e 293d bcfd 433d 6dd4 c43d
000001d0: 32af b6bc b5d9 cebd a831 a0bd 4adc 5d3d
000001e0: 7e0c 58bc e57a 093e 5940 9fbc 21df 10be
000001f0: fa1e 07bd 0090 fcbc ac4d d2bd 6541 b73d
00000200: d9c8 103e e22e f8bc af11 ed3d 53cd 65bd
00000210: 5bbd 073e b8e7 a63d ef8b 64bd efc7 49bd
00000220: 0e0b 95bd 7595 70bd 11c9 a73d 0893 0cbc
00000230: 7b6f 0b3e 0800 dabd 3469 423e 641e 723c
00000240: 9902 0a3e 4955 8fbd 26c3 ed3d 6cbe e4bd
00000250: 19fb b1bd 92fe 9b3d 7059 573d 384c b3bd
00000260: b910 afbd 46ec 3cbc 24e2 83bd 0cc4 8d3d
00000270: 6d96 25be 107b 6b39 fbe5 e53d ab91 a4ba
00000280: c408 60bd 7176 00bd 4a7e b53d 99e8 dabd
00000290: 82eb dd3c 277a ebbd e1bd 8d3d 5c9c b13c
000002a0: 5dc4 b2bc ee7b 9c3c d3af 81bd 726c d53d
000002b0: aac6 a53b 7063 54bd bbae 1cbb 3bba 06bc
000002c0: 026f 8cbc e8de 123e 58be 3ebd 8adf 86bd
000002d0: 640e 11be 7209 c5bd 2b2f 19be eb4f 08bc
000002e0: 3b1c 833d 27d1 37bc 1edc babc d428 fd3c
000002f0: 1455 c5bd 203f c63d 258c aebd 6464 19bd
00000300: 4584 a43d 9f35 8abc 3254 1d3c f4c2 28bb
00000310: fdc0 e93d 1fcd 20bc 8411 0e3e 2b70 1c3e
00000320: 0a2a 84bc 566d 713b aecd 1dbc 71ec 08be
00000330: f5e2 b1ba 8a13 493d 614a 693d 3fba 0a3e
00000340: e4ef 833d a288 403d 5f1c a4bc 00c4 67bd
00000350: 40aa 693c 875c a7bd d7d0 62bd 9f81 51bd
00000360: 0042 2e3c dd0e 45bd eae6 0e3e 7383 5b3d
00000370: b46a 6f3d 488b 193d 6ed4 433d ee1a 0abe
00000380: 793f 1b3d 3b47 f2bd 40e4 d13d a329 093e
00000390: 3ff5 ee3c 1c34 1a3e ddb4 3cbd 0cb1 68bd
000003a0: 0236 ed3d c361 e83d 9f22 e0bd 200f b6bd
000003b0: 498a 07be cc37 013e d446 b2bb 0dc8 76bd
000003c0: a8a1 83bd 85b6 a1bd 617b 08bd 0370 bfbc
000003d0: bf1e 8e3d 3d80 fdbb b531 603d 42ff 84bd
000003e0: da89 1e3d 0b6c c7bc ce12 fcbc 2214 843d
000003f0: 7fc5 233d 06db 72bc 3161 c03d a980 e1bc
-0.08781009 0.0046919263 0.013885704 0.058653437 -0.04446169 0.08906822 0.024977524 0.13550177
0.029910468 0.00713288 -0.06304036 -0.08375037 -0.010476747 0.056279663 -0.02463929 -0.074122906
0.035132285 0.14248 -0.10662132 0.07773248 0.025327126 -0.03325228 -0.13205022 0.047691412
0.021556482 0.12965237 -0.002455039 0.04475765 0.10256651 -0.051333778 -0.08367267 0.0820963
0.023998512 -0.072290905 -0.12825508 -3.428574e-05 -0.021762785 -0.0045700497 -0.12948978 0.11897093
0.0928824 -0.032498043 -4.05123e-05 -0.045732446 -0.030060537 0.07293093 0.022049608 -0.105683334
-0.0061513837 -0.12021061 0.14310767 0.11147866 0.13569243 0.03718038 0.06478089 0.018875033
-0.074130796 -0.03504906 -0.07741663 0.017286396 0.06483312 -0.036146637 0.13587949 0.028931342
0.032143496 -0.050889093 -0.10832632 0.052588273 -0.06965069 0.08647765 -0.017342046 -0.04033303
0.005895514 0.04391738 0.15121779 -0.02033706 0.060311478 0.056080353 0.029472385 -0.112456225
-0.13384363 -0.01156253 0.16118455 0.056858357 0.032579433 -0.06251366 -0.010733502 0.03347209
-0.006991134 -0.018042041 -0.030747531 0.031789653 -0.01990006 -0.101296514 0.033207573 -0.021218237
-0.028329259 0.06373737 0.05381181 -0.011850909 -0.018588843 -0.050737407 -0.08748374 -0.0241319
0.06846113 0.06216963 0.16744204 0.12978922 0.102807656 -0.00042175088 -0.06199342 -0.020570999
0.100378655 0.041273654 0.0478494 0.096108295 -0.022300337 -0.10100118 -0.07821971 0.054165162
-0.013186572 0.13425787 -0.019439863 -0.14147617 -0.032988526 -0.030830383 -0.10268721 0.0894802
0.14139117 -0.030295793 0.115756385 -0.056104016 0.13255827 0.081496656 -0.055797514 -0.049262937
-0.07277499 -0.058736283 0.08192647 -0.008579977 0.13616745 -0.10644537 0.18985444 0.0147777535
0.13477553 -0.06998689 0.11609487 -0.111691326 -0.08690471 0.07616915 0.05257553 -0.08754772
-0.085481115 -0.011530941 -0.06439617 0.069221586 -0.16170664 0.00022457191 0.11225506 -0.001255562
-0.05469586 -0.031362955 0.08861978 -0.10688896 0.027089838 -0.11497908 0.06920982 0.021681003
-0.021822149 0.019102063 -0.06332364 0.10421075 0.005059083 -0.051852643 -0.0023907858 -0.008223112
-0.017142776 0.14342844 -0.046568245 -0.065856054 -0.14165646 -0.09620942 -0.149594 -0.008319835
0.06401869 -0.011219299 -0.022810038 0.030903257 -0.09635368 0.09680009 -0.08522824 -0.037449256
0.08033041 -0.016871272 0.009602593 -0.0025750967 0.11413763 -0.00981453 0.13873869 0.15277164
-0.016133327 0.003683885 -0.009631557 -0.13371445 -0.0013571667 0.0490909 0.0569557 0.1354761
0.0644224 0.047005303 -0.02003306 -0.056583405 0.014261782 -0.08171945 -0.055374946 -0.051149007
0.010635853 -0.048109878 0.13955274 0.053592157 0.05845137 0.037486345 0.04781001 -0.13486835
0.03790233 -0.118299924 0.10248613 0.1339479 0.029169677 0.1505894 -0.046070922 -0.05680947
0.11582567 0.113467716 -0.109441034 -0.088896036 -0.13236345 0.12618941 -0.0054405723 -0.060249377
-0.06427318 -0.07896141 -0.03332079 -0.023368841 0.06939458 -0.0077362345 0.054734904 -0.06493999
0.038705684 -0.024343511 -0.030770686 0.064491525 0.03998327 -0.014822727 0.09393538 -0.02752717

fc3.bias f4 [64]
00000000: 0e32 9ebb 4f37 113d ec54 68bd ff72 e7bc
00000010: b63b da3d 395b a6bd 7dba 87bd 7005 90bc
00000020: 98c5 d5bb 6520 66bd da45 b23c 84b7 81bd
00000030: 112a 473d ead0 0fbd 8bae 24bd b824 e73c
00000040: c7f7 3c3c 7d71 533d c30e 73bd 40cc ab3d
00000050: bdbb 84bd 1c9f 913d a636 613d c174 d13a
00000060: c037 763d 81e9 b43c 3a2c ba3d 72c2 e33d
00000070: d478 903d 3771 00bd 2629 ba3b 2a2e afbc
00000080: 8953 fa3c e26a 3dbd 04f0 613c 8287 af3d
00000090: 42a2 de3d 9a90 3d3d 5640 8dbd a865 89bc
000000a0: f165 6bbd 6329 a33d 270d 92bd aa75 9abd
000000b0: 905f 43bd b689 8b3d 96d5 67bd 1607 ca3d
000000c0: 784c af3d ff95 5d3d 0172 d7bc 97a1 ce3c
000000d0: 2088 613d bd33 6fbd 884c 1ebd 856e abbd
000000e0: c722 42bc 6848 bebd b784 393d 5d53 71bd
000000f0: 6165 473d 779c 1fbd 7b0e 8ebb e72b 813b
-0.0048277443 0.035453137 -0.056721613 -0.028253077 0.1065592 -0.08122868 -0.06627367 -0.017580718
-0.006523799 -0.056183238 0.021761823 -0.06333831 0.048624102 -0.035111345 -0.04020552 0.028215751
0.011533684 0.051621903 -0.05934025 0.08388567 -0.06481121 0.07110426 0.054983757 0.001598023
0.06011176 0.022084 0.09090467 0.11121072 0.07054296 -0.03135797 0.005681175 -0.021384317
0.03055741 -0.04624451 0.013790134 0.08570768 0.10870792 0.04628048 -0.06897037 -0.016772106
-0.057470266 0.07966878 -0.07131415 -0.07541974 -0.047698557 0.06813376 -0.056600176 0.09864633
0.08559507 0.054098126 -0.026299478 0.025223536 0.05506146 -0.05839895 -0.038647205 -0.08370689
-0.011849112 -0.09291154 0.045292582 -0.058917392 0.048680667 -0.038967576 -0.0043352223 0.003942001

fc4.weight f4 [1, 64]
00000000: fb7e 183e c79d 71bd 0055 8fbd 1218 ab3d
00000010: 12e2 d2bd ba57 e0bd 1b1b 223e 420f b63d
00000020: 8c65 de3d b306 323e 4fef e13d 84d6 173e
00000030: fa6c b73d 55e8 b3bd 877a 2dbe 1210 c43d
00000040: 1226 f8bd bd1e c53d 42d6 013e 85a7 21be
00000050: 243a 94bd 2c14 d03d c56c fdbd 2b45 9c3d
00000060: 634e 353e 834a 27be 5239 cbbd 0b1a 29be
00000070: 4a48 dbbb 56bf ee3d e1a6 d4bc 7a88 a7bd
00000080: 6474 97bd b63e eabd 1fe0 cebd 9e0d 1c3e
00000090: be6e 25be 860f d23c 1667 1e3e afbc c83d
000000a0: 2a7a 9ebd 74e1 a3bd d795 b5bd 0f5a e73d
000000b0: ac4a 90bd 38f1 873d 8942 f33d f92d 17be
000000c0: a119 2e3e d2ea c33d f4fb e6bd c466 2a3d
000000d0: 6922 f1bd bfa3 bf3d c409 3d3e 29f1 c53d
000000e0: 3cde d6bd 60f6 1fbd d887 063e 1994 dc3c
000000f0: 20ec 88bd 098f 0fbe d7e5 d3bd 219c 843d
0.14892189 -0.05898836 -0.06998634 0.083542004 -0.10297026 -0.109542325 0.15830652 0.08889629
0.10859212 0.17385368 0.110319726 0.14827925 0.089563325 -0.08784548 -0.16941272 0.09573378
-0.12116636 0.096250035 0.12679389 -0.1578656 -0.07237652 0.101600975 -0.12374262 0.0763038
0.17705683 -0.16337018 -0.09923042 -0.16513841 -0.006691967 0.11657588 -0.02595848 -0.08180328
-0.073952466 -0.114377424 -0.101013415 0.1523957 -0.16155526 0.025642168 0.15469012 0.098016135
-0.07738145 -0.08001986 -0.0886647 0.11296474 -0.070454925 0.06637806 0.11877925 -0.14763631
0.17001964 0.09566273 -0.11278525 0.04160191 -0.11774141 0.09357404 0.18460757 0.09665138
-0.104916066 -0.03905332 0.13137758 0.026926087 -0.06685662 -0.14019407 -0.10346573 0.06475092
