Models/SavedModels/lung_cancer_model.pth (torch, 15340 bytes, 5 tensors)

fc1.weight f4 [64, 15]
-0.030230783 0.23678507 -0.10999383 0.3131513 0.09187269 0.2613935 -0.049801983 0.163813
0.3437175 -0.2983206 0.20033585 0.10495091 0.22768316 0.09646694 0.072407216 -0.1174488
0.41287103 0.3327614 -0.38020587 0.27718106 -0.42838576 -0.28880388 -0.04574602 -0.10307409
-0.36200583 -0.28537664 -0.23262386 0.1268522 -0.13909146 -0.3581731 0.13718186 -0.28358987
0.20839852 0.10355877 0.15766975 0.060506396 0.06781338 0.27320364 -0.019295026 -0.011805071
0.13767639 0.09180705 0.14687045 0.24952263 0.013215925 -0.023427512 0.101497225 0.118218355
0.17047985 0.066180035 -0.05637949 0.10426229 -0.001010227 0.24777341 0.09323559 0.19238965
0.11924411 0.1530279 0.30282122 -0.0920984 -0.05222094 -0.185455 -0.019466165 0.13900886
-0.08800943 -0.0784578 0.25372744 -0.14653459 -0.08967531 -0.25549382 0.11873379 0.0036300048
0.36852708 -0.17348066 -0.5253304 -0.21936703 -0.069553755 0.14867343 0.1512858 -0.05833674
-0.04873475 -0.34835622 -0.086544275 -0.06313416 0.14235851 -0.2232652 0.079663664 -0.22820598
-0.099560834 0.20419452 -0.042563498 0.09507961 0.18670861 0.33163556 -0.38835204 -0.18244089
0.000106196836 -0.22888426 -0.09184478 -0.42963818 -0.25004652 0.07831294 0.09784501 -0.10412805
-0.13850139 -0.47450638 0.016384533 -0.43257967 -0.42599952 -0.29830128 0.47351652 0.23586649
0.13213174 -0.25969705 -0.13559826 -0.10885562 0.039786268 -0.5744748 0.16373879 -0.12131967
-0.13445847 0.12608653 0.025223644 -0.3335816 -0.2533457 -0.041095644 -0.10753409 -0.14435703
0.41277078 0.076815344 0.50248176 0.2656705 -0.111261 0.21355103 -0.025789468 -0.023531208
-0.16643643 -0.20806248 0.04869082 -0.14489472 0.29133302 -0.23804916 0.13312592 0.008144003
0.13088477 0.22702865 0.22613168 0.41915306 0.32967383 -0.1584785 0.09967122 -0.021424118
-0.13072152 -0.27270448 0.19464065 -0.21605769 0.0016620037 0.14072897 0.021833517 -0.26556215
0.13235119 -0.08248055 0.10321045 -0.18418002 0.065728806 -0.04211463 -0.05310944 0.18726523
0.2662743 -0.34848818 -0.20826824 -0.08719627 -0.006884081 -0.011585915 -0.2131312 -0.07503214
-0.22051494 0.14064547 0.3427869 -0.2129528 -0.011678665 0.15689036 0.004546147 -0.05963599
0.25778967 0.14545926 0.30788583 0.06873925 -0.02743012 0.08426289 0.066087954 -0.05791322
0.22453465 0.2444769 -0.014580498 -0.0019966254 -0.12578619 0.1203082 0.106077395 0.02640491
-0.4137544 -0.12835974 0.124619775 0.18521385 -0.27501667 -0.14960098 -0.3824965 -0.19783638
0.08864577 0.23643368 0.037488773 0.1544565 -0.18827775 -0.22413754 -0.05695624 0.23601633
-0.054362237 -0.073351815 0.1998637 0.0033531294 -0.32361522 0.1745809 0.009014622 -0.30075225
-0.11406695 0.38814124 0.25840876 0.146811 -0.17953032 -0.37195498 -0.22509916 0.19123197
0.084341526 0.15992364 0.30758914 0.026663011 0.08853899 -0.5046641 -0.122196615 -0.111667424
0.031053584 -0.29785955 -0.4221297 -0.08151608 -0.17947143 -0.057109594 -0.43653202 0.14880937
0.0569825 0.22310051 -0.18935001 -0.17472072 0.110662945 -0.28198513 -0.056603353 -0.28360602
00000000: 8ca6 f7bc c977 723e 7244 e1bd 5e55 a03e
00000010: c027 bc3d 5ed5 853e 2afd 4bbd 98be 273e
00000020: bdfb af3e 7abd 98be d724 4d3e 81f0 d63d
00000030: c625 693e 7690 c53d 3c4a 943d ff88 f0bd
00000040: d563 d33e b45f aa3e 58aa c2be adea 8d3e
00000050: 6155 dbbe 1ade 93be 2e60 3bbd 8218 d3bd
00000060: d458 b9be e31c 92be f334 6ebe 8be5 013e
00000070: fe6d 0ebe 7762 b7be 6779 0c3e b132 91be
00000080: 6c66 553e 9f16 d43d 2e74 213e 8ed5 773d
00000090: bee1 8a3d 59e1 8b3e 9a10 9ebc 0e6a 41bc
000000a0: 0afb 0c3e 5605 bc3d 3565 163e dc82 7f3e
000000b0: 9b87 583c 0eeb bfbc c7dd cf3d 771c f23d
000000c0: 4592 2e3e 6689 873d 2eee 66bd 7887 d53d
000000d0: 9869 84ba 50b8 7d3e 4df2 be3d cb01 453e
000000e0: 4236 f43d 59b3 1c3e 620b 9b3e 169e bcbd
000000f0: a0e5 55bd eae7 3dbe 8277 9fbc 5758 0e3e
00000100: 4a3e b4bd 7cae a0bd 90e8 813e 2a0d 16be
00000110: b0a7 b7bd 16d0 82be b42a f33d 60e5 6d3b
00000120: 95af bc3e eaa4 31be 0e7c 06bf c0a1 60be
00000130: 3372 8ebd d93d 183e aaea 1a3e 81f2 6ebd
00000140: 179e 47bd bf5b b2be 203e b1bd 7c4c 81bd
00000150: 6ec6 113e a29f 64be b426 a33d d4ae 69be
00000160: 8de6 cbbd 5e18 513e 1057 2ebd 19b9 c23d
00000170: 8b30 3f3e 23cc a93e 14d6 c6be c9d1 3abe
00000180: feb5 de38 a360 6abe 1e19 bcbd 89f9 dbbe
00000190: 1906 80be 8962 a03d f762 c83d 1641 d5bd
000001a0: 4fd3 0dbe 80f2 f2be db38 863c 157b ddbe
000001b0: 9c1c dabe f2ba 98be c270 f23e fc86 713e
000001c0: 8b4d 073e 03f7 84be 45da 0abe b2ef debd
000001d0: edf6 223d c810 13bf 24ab 273e 7276 f8bd
000001e0: 7baf 09be d41c 013e d1a1 ce3c 35cb aabe
000001f0: 87b6 81be e853 28bd d53a dcbd 54d2 13be
00000200: b156 d33e 5d51 9d3d a5a2 003f f705 883e
00000210: cfdc e3bd 1fad 5a3e 6f44 d3bc 85c4 c0bc
00000220: 506e 2abe 550e 55be 0670 473d 485f 14be
00000230: 9a29 953e 29c3 73be 2952 083e 6d6e 053c
00000240: a806 063e 337a 683e 108f 673e 3b9b d63e
00000250: 02cb a83e 3048 22be 6d20 cc3d a281 afbc
00000260: dddb 05be ec9f 8bbe e14f 473e 3a3e 5dbe
00000270: 97d7 d93a 411b 103e 34dc b23c c3f7 87be
00000280: 1287 073e 90eb a8bd 0060 d33d b099 3cbe
00000290: d39c 863d 6480 2cbd 4989 59bd 75c2 3f3e
000002a0: 1b55 883e 0b6d b2be 4544 55be f593 b2bd
000002b0: db93 e1bb dad2 3dbc 113f 5abe 73aa 99bd
000002c0: abce 61be 5e05 103e c481 af3e 4c10 5abe
000002d0: df57 3fbc dea7 203e d8f7 943b de44 74bd
000002e0: 02fd 833e 46f3 143e 36a3 9d3e 2ac7 8c3d
000002f0: 22b5 e0bc 0692 ac3d 1f59 873d 6a36 6dbd
00000300: 69ec 653e 2758 7a3e 0be3 6ebc d1d9 02bb
00000310: 18ce 00be 2564 f63d 1b3f d93d 1c4f d83c
00000320: 9ed7 d3be bc70 03be a738 ff3d b3a8 3d3e
00000330: fcce 8cbe 0031 19be 95d6 c3be 9f95 4abe
00000340: ea8b b53d ac1b 723e d48d 193d d829 1e3e
00000350: e2cb 40be 5084 65be f24a 69bd 44ae 713e
00000360: f0aa 5ebd 7a39 96bd 12a9 4c3e 2dc0 5b3b
00000370: e5b0 a5be 56c5 323e 11b2 133c 33fc 99be
00000380: ef9b e9bd 73ba c63e 274e 843e 9f55 163e
00000390: ccd6 37be e270 bebe 6580 66be 50d2 433e
000003a0: 40bb ac3d 06c3 233e 537c 9d3e 636c da3c
000003b0: ee53 b53d ab31 01bf 3842 fabd e4b1 e4bd
000003c0: 1664 fe3c 0c81 98be 6221 d8be e7f1 a6bd
000003d0: 5cc7 37be c0eb 69bd 2081 dfbe 7c61 183e
000003e0: 7b66 693d 7674 643e f8e4 41be fde9 32be
000003f0: 41a3 e23d 5b60 90be ebd8 67bd cf34 91be

fc1.bias f4 [64]
-0.44314468 -0.020804865 -0.42703012 -0.14130774 0.04237386 0.36754638 0.15187268 0.138172
-0.0067173573 -0.14108525 0.18006288 0.20739509 -0.15952975 0.02533452 0.3730962 0.041875865
-0.075944595 -0.02121826 0.34954083 0.43152142 -0.03235945 -0.045632284 0.23504594 0.33814645
-0.19286855 -0.16375048 -0.10575303 0.10709499 0.24839027 0.018961856 -0.14947164 0.12528794
-0.13798131 -0.3084678 0.33875346 -0.34079942 -0.22554179 0.20017846 0.14933006 -0.29073688
0.0599285 0.080398604 0.026272347 -0.13160478 -0.28013897 -0.13690019 -0.27109072 -0.14197873
-0.024373721 -0.19345167 0.17014064 -0.2002293 -0.33539677 0.10338867 -0.14361654 0.3303847
-0.15310816 0.04455621 0.19793212 0.14201535 -0.4494205 0.011582713 -0.26965508 -0.092006624
00000000: dce3 e2be f76e aabc b1a3 dabe fab2 10be
00000010: 3690 2d3d 0a2f bc3e 8384 1b3e f67c 0d3e
00000020: 471d dcbb a778 10be 6762 383e 615f 543e
00000030: c45b 23be 578a cf3c 7706 bf3e 0786 2b3d
00000040: d788 9bbd ebd1 adbc 04f7 b23e 60f0 dc3e
00000050: 588b 04bd ebe8 3abd e2af 703e 8821 ad3e
00000060: 557f 45be 35ae 27be 0b95 d8bd 9e54 db3d
00000070: 055a 7e3e e555 9b3c 180f 19be 7b4b 003e
00000080: f94a 0dbe 7eef 9dbe 1871 ad3e 437d aebe
00000090: 6df4 66be 95fb 4c3e fbe9 183e 77db 94be
000000a0: 9677 753d 06a8 a43d 1b39 d73c 67c3 06be
000000b0: 606e 8fbe 902f 0cbe 67cc 8abe df62 11be
000000c0: 66ab c7bc 3218 46be 5939 2e3e e908 4dbe
000000d0: 20b9 abbe 70bd d33d 3710 13be 2f28 a93e
000000e0: 63c8 1cbe 9380 363d b8ae 4a3e 796c 113e
000000f0: 721a e6be 6bc5 3d3c 3b10 8abe f86d bcbd

fc2.weight f4 [32, 64]
0.37614083 -0.42560458 0.20533739 0.052158196 -0.073924385 -0.11502006 -0.17696458 0.34376597
0.066307686 0.0015834741 0.023939168 -0.050579365 0.221099 -0.29830065 -0.063852414 0.046327204
-0.53076905 0.26443172 -0.06421437 -0.07155906 0.052776895 -0.2663571 -0.13217188 0.122417696
-0.27016172 0.13953514 0.05628853 -0.25761262 -0.20629989 0.019705985 0.25207248 0.10367725
0.06417184 0.083987966 -0.058079213 0.12791559 0.1058306 -0.017174918 0.055609163 0.30359626
0.023214059 -0.0745778 -0.2813882 0.18112405 0.2816719 -0.25039414 0.20425616 -0.24606241
-0.18090771 0.15640272 -0.18705538 -0.3702346 0.1538289 -0.16563642 0.061560165 -0.25132543
0.24358979 0.023402423 0.017175257 -0.2671434 0.16982408 -0.13522352 -0.3244572 -0.29887593
0.15556966 -0.49869174 0.2220903 0.12001938 -0.19680534 -0.020320931 -0.09216943 0.3605052
-0.019063108 0.14353992 0.12113554 0.003264344 0.090225324 -0.053430345 -0.13948575 0.16344795
-0.3629205 0.20049436 0.0379408 -0.026574548 0.03173008 -0.10693242 -0.09085381 -0.0875704
-0.2835652 0.2798263 -0.14483878 -0.16978778 -0.13502783 0.20293394 0.17820407 0.14766102
-0.016202176 -0.00247887 -0.04333544 0.09458219 0.28042418 -0.16366388 0.0521457 0.29694688
0.121872686 -0.15866207 -0.2626849 0.18305284 0.16690111 -0.35188398 0.21856692 -0.28238708
-0.14592344 0.2169475 -0.24386978 -0.44926694 0.15171051 -0.19307426 0.16563782 -0.27958387
0.3751628 0.004774082 0.010115358 -0.32507652 0.18415518 -0.18759228 -0.54680455 -0.23659135
-0.16077422 0.56022906 -0.11254208 -0.0106763765 0.20321183 0.1321647 0.14043018 -0.25199524
-0.38176 0.17228769 0.10059331 0.1820727 -0.09265179 0.22113167 0.07499591 -0.31219316
0.23941681 0.07644215 0.015287576 0.13210097 -0.20752285 0.18488602 0.18139419 0.11168178
0.2836188 -0.026765747 0.15930678 0.24665028 0.121234916 0.0894593 -0.06539155 -0.04284408
-0.006655614 -0.25021842 0.055996034 -0.26074907 -0.105004326 0.15435724 -0.02152258 0.010932477
-0.13481516 0.085665986 0.09579738 -0.14486332 -0.043323543 0.33299658 -0.064339794 0.34214947
0.14769237 -0.06677855 0.1364086 0.53795 -0.19622605 0.04636581 -0.0724478 0.27582735
-0.0065915193 0.18805353 0.13480781 0.17252927 0.032912508 0.358972 0.3606609 0.5288382
0.33205217 -0.29083303 0.18144645 0.0672776 -0.33714738 -0.08148284 -0.22168253 0.27040365
0.09825461 0.027213939 0.09098678 -0.13699001 0.21625958 -0.24450086 -0.013966493 0.025243849
-0.27307934 0.2207872 -0.051213723 -0.20368615 0.03749263 -0.27316448 -0.25482962 0.14062506
-0.46160635 0.23439337 -0.3283367 -0.31379327 -0.11653494 0.11888707 -0.01864525 0.04177444
0.00681797 0.07753008 -0.05284618 0.07690808 0.17838614 -0.11567136 -0.14674932 0.27876568
0.029327776 -0.24010614 -0.17660566 -0.014063902 0.28752854 -0.16193739 0.025666744 -0.41071263
0.059791736 0.16492663 -0.17187813 -0.23682931 0.10841558 -0.41574532 0.08349501 -0.08252546
0.32305497 0.18778913 0.019021198 -0.11355068 0.26670438 -0.25187886 -0.33347246 -0.22127321
00000000: 8895 c03e d8e8 d9be f743 523e d5a3 553d
00000010: ab65 97bd a38f ebbd 3436 35be 1802 b03e
00000020: 53cc 873d 938c cf3a 131c c43c 4f2c 4fbd
00000030: c767 623e ddba 98be 0ec5 82bd 98c1 3d3d
00000040: 7be0 07bf 9863 873e d382 83bd 8e8d 92bd
00000050: 962c 583d f55f 88be 1158 07be 21b6 fa3d
00000060: a352 8abe 4de2 0e3e cd8e 663d cde5 83be
00000070: 4740 53be 726e a13c a50f 813e bd54 d43d
00000080: 876c 833d e201 ac3d 78e4 6dbd 4efc 023e
00000090: b7bd d83d 6ab2 8cbc 6fc6 633d f870 9b3e
000000a0: 692b be3c 3fbc 98bd 1d12 90be 9578 393e
000000b0: 4d37 903e a933 80be 8728 513e c9f7 7bbe
000000c0: df3f 39be 0928 203e 728b 3fbe 648f bdbe
000000d0: 5385 1d3e 989c 29be 8326 7c3d baad 80be
000000e0: 9a6f 793e 70b6 bf3c 20b3 8c3c 05c7 88be
000000f0: 5de6 2d3e 0978 0abe 411f a6be 4406 99be
00000100: a74d 1f3e 8654 ffbe a46b 633e b8cc f53d
00000110: 5787 49be 1578 a6bc 53c3 bcbd 2394 b83e
00000120: 3c2a 9cbc 21fc 123e e915 f83d 9bee 553b
00000130: 0ec8 b83d c7d9 5abd 5ad5 0ebe e65e 273e
00000140: b7d0 b9be 654e 4d3e d067 1b3d deb2 d9bc
00000150: 66f7 013d 62ff dabd 9011 babd 1c58 b3bd
00000160: 752f 91be 6545 8f3e 9e50 14be d9dc 2dbe
00000170: bc44 0abe eacd 4f3e 217b 363e 7334 173e
00000180: 6dba 84bc 8a74 22bb 8180 31bd 4fb4 c13d
00000190: c293 8f3e 8197 27be bb96 553d 6c09 983e
000001a0: 6398 f93d 4f78 22be a37e 86be 3472 3b3e
000001b0: 20e8 2a3e 232a b4be 02d0 5f3e 0a95 90be
000001c0: f46c 15be 7c27 5e3e 00b9 79be 5106 e6be
000001d0: 005a 1b3e 42b5 45be f69c 293e 9e25 8fbe
000001e0: 5715 c03e e76f 9c3b e3ba 253c 6e70 a6be
000001f0: 2d93 3c3e 3118 40be 62fb 0bbf 0145 72be
00000200: ffa1 24be 2c6b 0f3f 767c e6bd f8eb 2ebc
00000210: c316 503e 2f56 073e eecc 0f3e 8505 81be
00000220: 0c76 c3be 2f6c 303e de03 ce3d 4471 3a3e
00000230: 39c0 bdbd 5770 623e 7597 993d c8d7 9fbe
00000240: ae29 753e b48d 9c3d be78 7a3c 7a45 073e
00000250: df80 54be c352 3d3e 66bf 393e 6bb9 e43d
00000260: 7c36 913e d743 dbbc 5121 233e e491 7c3e
00000270: 034a f83d 7036 b73d 01ec 85bd 467d 2fbd
00000280: 5617 dabb a11c 80be 195c 653d e780 85be
00000290: 820c d7bd d30f 1e3e 1f50 b0bc 221e 333c
000002a0: fc0c 0abe a671 af3d 6b31 c43d 0d57 14be
000002b0: 0774 31bd 877e aa3e 95c4 83bd 372e af3e
000002c0: ab3c 173e 31c3 88bd b2ae 0b3e 17b7 093f
000002d0: 7bef 48be 13ea 3d3d 835f 94bd 3e39 8d3e
000002e0: acfd d7bb 1b91 403e 0f0b 0a3e 83ab 303e
000002f0: 44cf 063d 2ecb b73e 8ca8 b83e f161 073f
00000300: be02 aa3e 11e8 94be 19cd 393e d7c8 893d
00000310: 959e acbe 7ae0 a6bd bf00 63be 5972 8a3e
00000320: b739 c93d c4ef de3c 4757 ba3d 1c47 0cbe
00000330: 2773 5d3e 6f5e 7abe b8d3 64bc 30cc ce3c
00000340: 0ed1 8bbe 0a16 623e 7bc5 51bd 1a93 50be
00000350: df91 193d 37dc 8bbe 0779 82be 0400 103e
00000360: ab57 ecbe d104 703e bf1b a8be 83a9 a0be
00000370: dfa9 eebd 107b f33d ecbd 98bc ad1b 2b3d
00000380: 4769 df3b 17c8 9e3d 3c75 58bd fc81 9d3d
00000390: dbaa 363e 1be5 ecbd 7445 16be 60ba 8e3e
000003a0: ce40 f03c 62de 75be 1dd8 34be 486c 66bc
000003b0: f136 933e ead2 25be 1043 d23c ed48 d2be
000003c0: 2ee8 743d 87e2 283e d200 30be 6283 72be
000003d0: fd08 de3d 92dc d4be 6fff aa3d 1c03 a9bd
000003e0: 7667 a53e cb4b 403e 58d2 9b3c 428d e8bd
000003f0: 7a8d 883e 44f6 80be e7bc aabe 7295 62be

fc2.bias f4 [32]
-0.09350633 -0.022378951 0.07777239 -0.19239923 0.12196045 0.21412474 0.098510966 -0.16396959
0.13172735 0.036979634 0.051051416 0.014322421 0.038211644 -0.07244563 0.20874265 0.26316875
-0.123219684 0.15486914 -0.031333346 -0.069871664 -0.08892503 0.2088865 0.22609349 0.14377025
-0.16768664 0.045238595 0.033418924 -0.01931537 -0.09199197 0.15119615 0.03727731 0.06781168
00000000: 3f80 bfbd 1054 b7bc 2147 9f3d 4e04 45be
00000010: 67c6 f93d 8443 5b3e 1ec0 c93d a5e7 27be
00000020: 89e3 063e f577 173d 4a1b 513d 96a8 6a3c
00000030: d083 1c3d 605e 94bd a2c0 553e 0ebe 863e
00000040: 9a5a fcbd 0496 1e3e 6557 00bd e018 8fbd
00000050: 531e b6bd 58e6 553e 0d85 673e 8238 133e
00000060: 0cb6 2bbe 1b4c 393d 48e2 083d 443b 9ebc
00000070: 4966 bcbd 2ad3 1a3e 18b0 183d dae0 8a3d

fc3.weight f4 [1, 32]
0.46135482 0.42544696 -0.32336247 0.5867585 -0.28275228 -0.46062022 -0.3722516 0.38056603
-0.3175431 0.2226092 -0.3527888 -0.29295537 -0.46491677 0.097179264 -0.39872548 -0.5537694
0.46540815 -0.25857183 0.4101625 -0.5189536 0.49084866 -0.38265157 -0.36118683 -0.32483196
0.5216265 0.71580577 -0.29132035 0.534338 0.472406 -0.38023698 -0.30733752 -0.38379094
00000000: b336 ec3e 2fd4 d93e c48f a5be ce35 163f
00000010: e8c4 90be 6ad6 ebbe c397 bebe 8dd9 c23e
00000020: 0295 a2be abf3 633e bca0 b4be 3ffe 95be
00000030: 9209 eebe ec05 c73d bf25 ccbe d5c3 0dbf
00000040: fa49 ee3e 8763 84be d200 d23e 25da 04bf
00000050: 8450 fb3e e8ea c3be 7bed b8be 6050 a6be
00000060: 5089 053f 0c3f 373f f127 95be 60ca 083f
00000070: 33df f13e 6cae c2be 585b 9dbe 3f80 c4be
