Models/SavedModels/lung_cancer_model.pth (torch, 15404 bytes, 5 tensors)

layers.0.weight f4 [64, 15]
0	0x3b7003db	0.0036623392
1	0x3ec6ce95	0.38829485
2	0xbe189f36	-0.14904484
3	0x3e9f2ca0	0.31088734
4	0x3ddfd39d	0.10929034
5	0x3e80fa30	0.25190878
6	0xbcef26a9	-0.02919324
7	0x3e6e4bc0	0.23271084
8	0x3eadd8f8	0.33954597
9	0xbe88e41e	-0.2673654
10	0x3e73cdee	0.23809025
11	0x3dcb302c	0.099212974
12	0x3e2b5a45	0.16733654
13	0x3e275ef9	0.16344823
14	0x3db5c392	0.08875193
15	0xbe1c7095	-0.15277322
16	0x3ec97ba9	0.39352158
17	0x3e25406c	0.16137856
18	0xbeb66d72	-0.35630375
19	0x3e5c8ba6	0.21537647
20	0xbef7949c	-0.48355567
21	0xbe8477af	-0.2587256
22	0x3e0466bd	0.12929817
23	0x3e8fc760	0.280818
24	0xbee8d65e	-0.4547605
25	0xbeacaed7	-0.33727142
26	0xbe9a4cdd	-0.30136767
27	0x3e137b49	0.14402498
28	0xbe0aa448	-0.13539231
29	0xbf0e8cb5	-0.5568345
30	0x3debe9ec	0.115192264
31	0xbf0162a5	-0.50541145
32	0x3e8fe035	0.28100744
33	0x3e0a4006	0.13500986
34	0x3dbd5a63	0.092457555
35	0x3d0d49c0	0.03449416
36	0x3db56921	0.088579424
37	0x3ea35312	0.31899315
38	0x3d8b76f2	0.068097964
39	0xbdc01a15	-0.09379975
40	0x3e6e4b9b	0.23271029
41	0x3db13fe0	0.08654761
42	0x3e68fa0e	0.22751638
43	0x3ead315e	0.33826727
44	0x3e07cbd6	0.13261351
45	0x3d49d928	0.049279362
46	0x3e1ab6b2	0.15108755
47	0x3e948171	0.29005006
48	0x3ea2b6e0	0.31780148
49	0x3a6d91d5	0.0009062563
50	0xbdd93424	-0.10605648
51	0x3d689482	0.056782253
52	0xbd09b4a1	-0.033619527
53	0x3e9f8e90	0.31163454
54	0x3e36a61f	0.17836808
55	0x3e5e13c5	0.21687229
56	0x3e3cf69a	0.18453446
57	0x3e39080b	0.18069474
58	0x3eadda87	0.33955786
59	0xbd59638a	-0.053073443
60	0xbd89600f	-0.06707775
61	0xbe08220e	-0.13294241
62	0x3d9e525e	0.07730554
63	0x3e70c6f1	0.2351339
64	0xbd59852d	-0.053105522
65	0x3da8a88a	0.08235271
66	0x3e890643	0.2676259
67	0xbe52e6b1	-0.20595814
68	0xbe146f4b	-0.1449558
69	0xbebfabaa	-0.37435657
70	0x3e3df2ff	0.18549727
71	0x3cf6b202	0.030114178
72	0x3edc2551	0.4299722
73	0xbe82c181	-0.25538257
74	0xbf045681	-0.51694494
75	0xbe4d868d	-0.20070858
76	0x3dacff8c	0.08447179
77	0x3e5b2b65	0.21403272
78	0x3ea5a79b	0.32354435
79	0xbd0f7160	-0.035020232
80	0xbdaea823	-0.08528163
81	0xbeb8225e	-0.3596372
82	0xbd93b4ad	-0.072121955
83	0xbccc8697	-0.024966521
84	0x3ee9587e	0.45575327
85	0xbeb1cf98	-0.34728694
86	0x3e532bde	0.20622203
87	0xbe00da7a	-0.12583342
88	0xbe5770e5	-0.2103916
89	0x3ec0685b	0.37579617
90	0xbdca46b4	-0.09876767
91	0x3de07082	0.10958959
92	0x3e9202c2	0.2851773
93	0x3ee74e4c	0.45176923
94	0xbef33928	-0.47504544
95	0xbe59f8bf	-0.21286295
96	0x3d8cd81d	0.06877158
97	0xbe54d404	-0.20784003
98	0x3bef1d85	0.00729722
99	0xbee9e1a4	-0.45679963
100	0xbe90d5ec	-0.2828821
101	0x3dda59b5	0.106616415
102	0x3e1dd346	0.15412626
103	0xbe67ee79	-0.22649564
104	0xbe798b23	-0.24369483
105	0xbebae36f	-0.36501643
106	0xbe456425	-0.19276483
107	0xbec150ca	-0.3775695
108	0xbed221e8	-0.41041493
109	0xbeac7fde	-0.33691305
110	0x3ec7751c	0.38956535
111	0x3e89be9e	0.26903242
112	0x3e88de71	0.2673221
113	0xbe8ecab6	-0.2788903
114	0xbe487459	-0.19575633
115	0xbe645506	-0.22298059
116	0x3d8cf663	0.06882932
117	0xbf23519b	-0.63796395
118	0xbd83071a	-0.06397839
119	0xbe398474	-0.18116933
120	0xbdf8babd	-0.121449925
121	0x3e96fb0e	0.29488415
122	0xbcea1ab1	-0.02857718
123	0xbe792606	-0.24330911
124	0xbe99b2f4	-0.30019343
125	0x3d80d2c6	0.06290202
126	0xbd3ea922	-0.046548016
127	0xbdc432e1	-0.09580017
128	0x3eb68073	0.35644874
129	0x3d3f1102	0.04664708
130	0x3efc2d4a	0.49253303
131	0x3e83786b	0.2567781
132	0xbd72eb84	-0.059306636
133	0x3e884d70	0.2662158
134	0xbd9c2c0a	-0.07625587
135	0xbd2eeaca	-0.04270438
136	0xbf08ded1	-0.5346499
137	0xbe2ba67a	-0.16762725
138	0x3e24872f	0.16067193
139	0x3d121772	0.03566689
140	0x3e668b21	0.22514011
141	0x3d8a53b3	0.067542456
142	0x3ef7d66e	0.48405784
143	0xbd3c154d	-0.04591875
144	0x3e440cfd	0.1914558
145	0x3e8685e9	0.2627404
146	0x3e9582bf	0.29201314
147	0x3ee44d85	0.44590393
148	0x3ee1a29f	0.44069383
149	0xbe22d846	-0.15902814
150	0x3e5a4469	0.21315159
151	0xbdadc26d	-0.084843494
152	0xbe3b1353	-0.1826909
153	0xbed8662a	-0.42265445
154	0x3e7cd67d	0.24691196
155	0xbe244519	-0.16041984
156	0xbcd46598	-0.02592735
157	0x3e216595	0.15761407
158	0x3dca2484	0.09870246
159	0xbac7148c	-0.0015188619
160	0x3e1e09c8	0.15433419
161	0xbe22b60c	-0.15889758
162	0x3e27b18e	0.16376325
163	0xbe4bf644	-0.19918162
164	0x3e8f0b35	0.27938238
165	0xbd3c2346	-0.045932077
166	0xbcee5c28	-0.029096678
167	0x3ec9f11a	0.39441758
168	0x3ea1d15b	0.31605038
169	0xbeb7f846	-0.35931605
170	0xbe38424f	-0.17994045
171	0xbd61f990	-0.055169642
172	0xbb80365c	-0.00391273
173	0x3dac58c9	0.08415372
174	0xbe8a9415	-0.27066103
175	0xbea04966	-0.31306
176	0xbe824df9	-0.25450113
177	0x3ea73b9a	0.3266266
178	0x3ec09307	0.37612173
179	0xbe8c6bc4	-0.2742597
180	0x3cc45ecf	0.02397099
181	0x3f20bfda	0.6279274
182	0x3d3c7ced	0.046017576
183	0x3d8a2cdc	0.067468375
184	0x3e72d8d5	0.23715527
185	0x3e947de6	0.29002303
186	0x3ef3b0be	0.4759578
187	0x3e2e183e	0.17001435
188	0xbda7242f	-0.08161198
189	0xbe676b86	-0.2259961
190	0x3e0a8ed8	0.13531053
191	0xbdbfcd84	-0.09365371
192	0x3edd6bc3	0.43246278
193	0x3ed22177	0.41041157
194	0x3d2462b7	0.040133204
195	0xbe0199bb	-0.126563
196	0x3efa3613	0.4886938
197	0x3ea91804	0.33026135
198	0xbe943470	-0.28946257
199	0x3eb6e002	0.3571778
200	0xbf20750c	-0.626786
201	0xbe9bcf64	-0.30431664
202	0x3e7bb646	0.2458125
203	0xbe0e6c91	-0.13908602
204	0xbe39f38d	-0.18159313
205	0xbeb9f764	-0.36321557
206	0xbebbd5c3	-0.36686525
207	0xbbf03c0a	-0.007331376
208	0xbe8af186	-0.27137393
209	0xbe1c221c	-0.15247387
210	0x3dcec94e	0.100969896
211	0x3e6818ba	0.22665682
212	0xbe7afcf2	-0.24510553
213	0xbe17acd9	-0.1481203
214	0xbe203cfe	-0.15648267
215	0x3ee2b0ca	0.44275504
216	0xbe1021d3	-0.14075403
217	0x3d7e4988	0.062081844
218	0x3e34c1b9	0.17652024
219	0x3dbf2142	0.09332515
220	0xbea3a82b	-0.3196424
221	0x3eae2137	0.34009716
222	0x3d6ec399	0.058292005
223	0xbe900110	-0.2812581
224	0xbcff94c6	-0.03119887
225	0x3ec29034	0.38000643
226	0x3f081d15	0.53169376
227	0x3e544010	0.20727563
228	0xbe7c3dec	-0.24632996
229	0xbe13ee06	-0.14446267
230	0xbe8b4c2e	-0.27206558
231	0x3f1733d2	0.59063447
232	0x3eb5cbbd	0.35507002
233	0x3dcb486c	0.09925923
234	0x3e8962ea	0.26833278
235	0x3d4c09a7	0.049813893
236	0x3e5ac941	0.21365835
237	0xbe6c6849	-0.23086657
238	0xbe2ff0e0	-0.1718173
239	0xbd8e4339	-0.069464155
240	0x3e5fb704	0.21847159
241	0xbecb2ca3	-0.39682493
242	0xbe6f1784	-0.23348814
243	0xbbf202a8	-0.0073855706
244	0xbe6a6b1a	-0.22892419
245	0x3d8e210b	0.06939896
246	0xbec39858	-0.38202167
247	0x3e224559	0.15846767
248	0xbd729e41	-0.059232954
249	0x3e8d9487	0.2765238
250	0xbe84e81a	-0.2595833
251	0xbea05eeb	-0.31322417
252	0x3e655be5	0.22398336
253	0x3e4daee9	0.20086254
254	0xbd0c3230	-0.03422755
255	0xbe8a050e	-0.2695698

layers.0.bias f4 [64]
0	0xbec157c8	-0.37762284
1	0x3dc9135f	0.09818148
2	0xbedbd7ca	-0.4293807
3	0x3d8e704c	0.06955013
4	0x3dbafa0b	0.09129723
5	0x3ec0b4c3	0.3763791
6	0x3df46480	0.11933231
7	0x3e35d2ea	0.17756239
8	0x3c7cf3a5	0.015438949
9	0x3da467a6	0.08027582
10	0x3e3afe13	0.18260984
11	0x3e7e3dbc	0.24828237
12	0x3de785e4	0.113048345
13	0xbd9747d7	-0.07386749
14	0x3eb592f1	0.3546367
15	0x3ac64d67	0.0015129269
16	0xbdec25d0	-0.1153065
17	0x3dd04913	0.10170188
18	0x3ea86cd3	0.32895526
19	0x3ed88707	0.42290518
20	0x3c5885ec	0.013215523
21	0xbb72d6df	-0.0037054343
22	0x3e3f4a7d	0.18680759
23	0x3eb7420d	0.3579258
24	0xbdefedbf	-0.11715268
25	0xbe040dd3	-0.12895899
26	0xbd778336	-0.060427867
27	0x3e327fc6	0.17431554
28	0x3e9a18c8	0.30097032
29	0x3d8d5d6f	0.06902587
30	0xbd0a6dfe	-0.033796303
31	0x3e81c0da	0.25342447
32	0xbd58f22e	-0.052965336
33	0xbea1b42e	-0.3158278
34	0x3ec0ca5a	0.37654382
35	0xbe817c8e	-0.2529034
36	0xbe3ee077	-0.18640314
37	0x3e30014b	0.17187993
38	0x3e0a999a	0.13535157
39	0xbe9ad5ff	-0.3024139
40	0x3dbe3662	0.092877164
41	0x3d8f1931	0.06987227
42	0x3d302225	0.043001313
43	0xbd370c8f	-0.04468971
44	0xbe4ec3dd	-0.20191903
45	0xbe36da1c	-0.1785664
46	0xbe25a388	-0.16175663
47	0xbdb40120	-0.08789277
48	0x3d702fdc	0.058639392
49	0xbd3891cb	-0.045060914
50	0x3e438f5a	0.19097653
51	0xbe49cffd	-0.19708247
52	0xbeac332b	-0.33632788
53	0x3dc451fe	0.09585951
54	0xbda51d3e	-0.08062218
55	0x3eb36c8d	0.35043755
56	0xbddb95ed	-0.107219554
57	0x3e2427d8	0.16030824
58	0x3eb01984	0.34394467
59	0x3e1d9238	0.1538781
60	0xbe773974	-0.2414301
61	0x3d0abe0b	0.033872645
62	0xbe97d7aa	-0.29656726
63	0xbda53eb4	-0.080686

layers.2.weight f4 [32, 64]
0	0x3e804368	0.25051427
1	0xbeaa8a0c	-0.33308446
2	0x3e5a8553	0.21339922
3	0x3d2faa58	0.04288706
4	0xbe168d9b	-0.14702456
5	0xbe731698	-0.23739088
6	0xbe020b79	-0.12699689
7	0x3e8e5cc9	0.27805164
8	0x3e008a37	0.12552725
9	0x3dcf245b	0.10114356
10	0xbdc392e1	-0.09549499
11	0xbd8d898f	-0.06911003
12	0x3ec02398	0.37527156
13	0xbeb985a6	-0.36234778
14	0xbe053b40	-0.13010883
15	0x3d9b3530	0.07578504
16	0xbedec5ed	-0.4351038
17	0x3e863472	0.26211888
18	0xbe17e3d7	-0.14833008
19	0xbe15a1f7	-0.14612566
20	0x3e09932c	0.13435048
21	0xbe814e94	-0.25255263
22	0xbe15c39f	-0.14625405
23	0x3e45b2d7	0.19306503
24	0xbea8e0f9	-0.3298414
25	0x3dea9942	0.11455013
26	0xbe115be0	-0.14195204
27	0xbe639a42	-0.22226813
28	0xbe9671f5	-0.29383817
29	0x3e0dd571	0.13850953
30	0x3e9defe4	0.30847085
31	0x3e4e1fea	0.20129362
32	0x3dba7cbc	0.091058224
33	0x3dd0b45a	0.10190649
34	0xbe2d4f19	-0.16924705
35	0x3d341cac	0.043972656
36	0x3d7cf372	0.061755605
37	0xbd87c7f1	-0.06629933
38	0xbdbc9b32	-0.09209289
39	0x3ec0d44e	0.37661976
40	0x3d7644ca	0.060124196
41	0xbe68e9cb	-0.22745435
42	0xbe9f76c2	-0.31145293
43	0x3e4d9e4b	0.20079915
44	0x3e965695	0.29362932
45	0xbe164976	-0.1467646
46	0x3e7f3450	0.249223
47	0xbeb85254	-0.3600031
48	0xbe4c00a3	-0.19922118
49	0x3e2217ae	0.15829346
50	0xbe89bf93	-0.26903972
51	0xbe7112e5	-0.23542364
52	0x3de69712	0.11259283
53	0xbe5a4a3f	-0.21317385
54	0x3d298170	0.041383207
55	0xbe89db01	-0.269249
56	0x3eb25711	0.3483205
57	0x3de20969	0.11036951
58	0x3ca9264f	0.02064815
59	0xbec8fa0c	-0.3925327
60	0x3e245ce4	0.1605106
61	0xbe5ca94e	-0.2154896
62	0xbef532ff	-0.4789047
63	0xbe744d79	-0.23857678
64	0x3d2695b1	0.0406701
65	0xbead1ead	-0.33812466
66	0x3e463bb9	0.1935872
67	0x3e0b9a35	0.13633044
68	0xbe6f7f65	-0.23388441
69	0xbe201187	-0.15631686
70	0xbcbcdba6	-0.023053955
71	0x3e666075	0.22497733
72	0x3d6f8460	0.058475852
73	0x3ebd63cf	0.3699021
74	0xbcb7517a	-0.022377718
75	0xbc9a85ab	-0.018862566
76	0x3e02add6	0.12761626
77	0xbe4633ef	-0.19355749
78	0xbe55343c	-0.20820707
79	0x3e8b7d80	0.27244186
80	0xbea22e53	-0.31675968
81	0x3e5b5fa8	0.21423209
82	0xbd26ea42	-0.04075075
83	0xbd9c7e3e	-0.07641266
84	0x3d9efeb6	0.07763426
85	0xbd19c780	-0.037543774
86	0xbe3d2c4b	-0.18473928
87	0xbd5ded88	-0.054181606
88	0xbeab97b2	-0.33514172
89	0x3e60eb6d	0.21964808
90	0xbe562ae5	-0.209148
91	0xbdda7236	-0.10666315
92	0xbe654ffd	-0.22393794
93	0x3ea2f577	0.318279
94	0x3e84f0ff	0.25965115
95	0x3e8b3707	0.2719042
96	0x3d2b5c4d	0.04183607
97	0x3d13bbed	0.036067892
98	0xbe3f615d	-0.18689485
99	0x3cf827c8	0.030292407
100	0x3e6f2c7c	0.23356813
101	0xbe6f2340	-0.2335329
102	0xbd416383	-0.047214042
103	0x3eaa7dfb	0.3329924
104	0x3e12f150	0.14349866
105	0xbe3935de	-0.18086955
106	0xbe9dff09	-0.3085864
107	0x3e4fa41f	0.20277451
108	0x3e18bbe0	0.14915419
109	0xbeb79a70	-0.35860014
110	0x3e61010e	0.21973059
111	0xbe7023e8	-0.23451197
112	0xbe8fbe70	-0.2807498
113	0x3e69b92e	0.22824547
114	0xbe6445be	-0.2229223
115	0xbec2e202	-0.38063055
116	0x3e524f79	0.20538129
117	0xbe41c667	-0.1892334
118	0x3e1ba553	0.15199785
119	0xbea81e6e	-0.32835716
120	0x3ec69c3d	0.38791075
121	0x3d6c92e0	0.05775726
122	0xbcd02c25	-0.025411675
123	0xbeb992e4	-0.3624488
124	0x3e14c643	0.14528756
125	0xbe58a609	-0.21157087
126	0xbf0903e6	-0.53521574
127	0xbe21df1f	-0.1580777
128	0xbdcd33dd	-0.10019658
129	0x3e8e4927	0.27790186
130	0xbe6c1e1c	-0.23058361
131	0x3ceb33fe	0.028711315
132	0x3e87a2ab	0.26491293
133	0x3e5401a4	0.20703751
134	0x3dc233d3	0.09482541
135	0xbe418065	-0.18896635
136	0xbe8cbb06	-0.27486438
137	0x3e25b87e	0.1618366
138	0x3e67ef78	0.22649944
139	0x3e85abdd	0.26107684
140	0xbdcdb835	-0.100449
141	0x3eeb9ea8	0.46019483
142	0x3db7cfd4	0.08975187
143	0xbea5e4b0	-0.32401037
144	0x3e88cb9f	0.2671785
145	0x3e296c2a	0.16545168
146	0x3dc7f3dc	0.09763309
147	0x3df0e99f	0.1176331
148	0xbe89585b	-0.26825222
149	0x3e12eec4	0.14348894
150	0x3e8d9824	0.27655137
151	0x3e457441	0.19282629
152	0x3ebc9af8	0.36836982
153	0xbdb4a50a	-0.08820541
154	0x3ea0c721	0.31401923
155	0x3e38d53d	0.18050094
156	0x3e34a753	0.17641954
157	0x3e4a6910	0.1976664
158	0xbdd7dcd7	-0.10540169
159	0xbd5d49de	-0.054025523
160	0xbdbeb372	-0.0931157
161	0xbe7bc317	-0.2458614
162	0x3ddf54cd	0.10904846
163	0xbe7229b1	-0.23648717
164	0xbe10898e	-0.14114973
165	0x3e655c65	0.22398527
166	0x3db939df	0.09044241
167	0xbde596da	-0.11210413
168	0xbe542db7	-0.20720564
169	0x3e2dcfa2	0.16973737
170	0x3dfbb5db	0.122905456
171	0xbe3886f4	-0.1802023
172	0xbe75f363	-0.24018626
173	0x3e543afb	0.20725624
174	0xbe10fc0a	-0.14158645
175	0x3e8b46cc	0.2720245
176	0x3e70c2b3	0.23511772
177	0xbe19077a	-0.14944258
178	0x3df6c983	0.12050154
179	0x3edb25f9	0.42802408
180	0xbeaf3ad5	-0.34224573
181	0x3de676ce	0.11253129
182	0xbe064656	-0.13112769
183	0x3e771ed0	0.24132848
184	0xbe0b8cbb	-0.13627903
185	0x3e53c8c4	0.20682055
186	0x3e22f9cc	0.15915602
187	0x3e685752	0.2268956
188	0x3d1b6243	0.037935507
189	0x3eb9d605	0.36296096
190	0x3ef5d28e	0.48012203
191	0x3edc8684	0.43071377
192	0x3e54b905	0.20773704
193	0xbe2cbb1f	-0.16868256
194	0x3e434a18	0.19071233
195	0x3d5ae7ad	0.0534436
196	0xbe98a670	-0.29814482
197	0xbdf85c0a	-0.1212693
198	0xbe127692	-0.14303043
199	0x3e9f3458	0.31094623
200	0x3e4a7de8	0.19774592
201	0x3da72be8	0.08162671
202	0xbcab34d0	-0.020899206
203	0xbda62e4c	-0.08114299
204	0x3e955ac4	0.2917081
205	0xbe9d22c5	-0.3069059
206	0xbd96d71c	-0.073652476
207	0x3dfa9346	0.122351214
208	0xbe6a0ee3	-0.22857241
209	0x3e37d98d	0.17954083
210	0xbce88117	-0.028381867
211	0xbe49dec2	-0.19713882
212	0x3dc2d3d0	0.09513056
213	0xbdb4cac1	-0.08827735
214	0xbe1172b3	-0.1420391
215	0x3e355322	0.17707494
216	0xbeb65c8c	-0.35617483
217	0x3e006ae4	0.12540776
218	0xbe3d4208	-0.1848222
219	0xbe8c39cc	-0.27387846
220	0xbd8c7069	-0.06857378
221	0x3e1e0b13	0.15433912
222	0x3d46863f	0.04846787
223	0x3e1ae7ae	0.15127441
224	0x3caecf9a	0.021339227
225	0x3e12f6e2	0.14351991
226	0xbe1bd444	-0.15217692
227	0xbc4462ec	-0.011986475
228	0x3de7e0cb	0.11322173
229	0xbdffdd75	-0.124934115
230	0xbe924a1c	-0.28572166
231	0x3eb35602	0.35026556
232	0x3d8708b6	0.06593458
233	0xbe22e787	-0.15908633
234	0xbe51bdcc	-0.20482558
235	0xbcb611c1	-0.022225263
236	0x3e4ad90e	0.19809362
237	0xbdcac3d8	-0.099006355
238	0x3c9ba886	0.019001257
239	0xbe997c62	-0.2997771
240	0xbda6525c	-0.081211776
241	0x3e4a0310	0.19727731
242	0xbe75d971	-0.24008729
243	0xbe2b2695	-0.16713937
244	0x3dd34a65	0.10316924
245	0xbeddf892	-0.43353707
246	0x3df9288f	0.12165939
247	0xbe1d6d64	-0.1537376
248	0x3eb020a5	0.34399906
249	0x3e23087a	0.15921202
250	0xbd74889e	-0.0597006
251	0xbe3fb4e5	-0.1872135
252	0x3e50feb7	0.20409666
253	0xbe57cac6	-0.21073446
254	0xbeba4137	-0.3637788
255	0xbe9d421e	-0.30714506

layers.2.bias f4 [32]
0	0xbdc770f4	-0.09738341
1	0xbd8a251d	-0.0674536
2	0x3da040ea	0.078248814
3	0xbe484c35	-0.1956032
4	0x3dd77283	0.10519888
5	0x3e53d25d	0.20685716
6	0x3dae921c	0.08523962
7	0xbdd2045e	-0.10254739
8	0x3dff3fe1	0.12463356
9	0x3baa0dab	0.0051896176
10	0x3d6b9e67	0.05752411
11	0x3bc7e9e2	0.006100879
12	0x3d0acc85	0.03388645
13	0xbd2c2da7	-0.042035725
14	0x3e300240	0.17188358
15	0x3e900181	0.28126147
16	0xbe20f870	-0.15719771
17	0x3e29d0ad	0.1658351
18	0xbd1a3a41	-0.03765321
19	0xbd93abb1	-0.07210482
20	0xbdbc1202	-0.09183122
21	0x3e540799	0.20706023
22	0x3e3f08bc	0.18655676
23	0x3e14c742	0.14529136
24	0xbe204d6e	-0.15654537
25	0x3deb1cdb	0.11480113
26	0x3ce26be7	0.027639342
27	0xbcf23725	-0.02956731
28	0xbdcbb000	-0.09945679
29	0x3e07d90d	0.13266392
30	0x3c957068	0.018242076
31	0x3d6008fa	0.05469606

layers.4.weight f4 [1, 32]
0	0x3eab7d8d	0.33494225
1	0x3eae4cfa	0.34043103
2	0xbe87512a	-0.2642911
3	0x3ec636a8	0.38713574
4	0xbe8b04bb	-0.27152047
5	0xbee9df91	-0.4567838
6	0xbe9babc7	-0.30404493
7	0x3e8143a4	0.25246918
8	0xbe8c1303	-0.27358255
9	0x3d9088da	0.07057352
10	0xbe97d293	-0.29652843
11	0xbe8fedb3	-0.28111038
12	0xbec86dad	-0.39146176
13	0x3e020c42	0.12699988
14	0xbe9586c1	-0.29204372
15	0xbf129439	-0.5725742
16	0x3e950af2	0.29109913
17	0xbe5283a2	-0.20558026
18	0x3e930661	0.28715804
19	0xbac27bd5	-0.001483793
20	0x3eb393ed	0.35073796
21	0xbeaa287f	-0.3323402
22	0xbe849215	-0.25892702
23	0xbe934168	-0.28760839
24	0x3e9555f1	0.2916713
25	0x3f2c8fc4	0.6740687
26	0xbea46e18	-0.32115245
27	0x3eb36d7a	0.3504446
28	0x3eb2cbab	0.3492101
29	0xbe949267	-0.29017946
30	0xbe90dd23	-0.28293714
31	0xbe9cfe8d	-0.30662957
