Models/SavedModels/lung_cancer_model.pth (torch, 15404 bytes, 5 tensors)

layers.0.weight f4 [64, 15]
000000 46 2f 06 3b 45 cc bb 3e 38 d6 08 be 52 53 9f 3e
       0.0020474955 0.36679283 -0.13362968 0.31118256
000010 cf 29 dc 3d a1 2c 65 3e 8e 2c dc bc c6 a4 3e 3e
       0.10750162 0.22380306 -0.026876714 0.18617544
000020 78 8c ae 3e 6c 03 7d be 0a e0 84 3e f4 e7 a1 3d
       0.34091544 -0.24708337 0.25952178 0.0790557
000030 30 53 3a 3e 2c fc 1f 3e 84 91 c8 3d af 50 23 be
       0.18195796 0.1562354 0.0979338 -0.15948747
000040 ba be 04 3f 78 4e 15 3e 1d ba a6 be ae 8e 44 3e
       0.51853526 0.14580715 -0.32563868 0.19195053
000050 ba 7e ec be 60 13 10 be ce e6 cc 3d 6f 5b 96 3e
       -0.46190435 -0.14069891 0.1000496 0.29366633
000060 1f 9a 03 bf be 61 b8 be 40 cf c3 be b4 fa 1e 3e
       -0.51407045 -0.3601207 -0.38244057 0.15525323
000070 ed a4 13 be 59 8f 15 bf 7c e5 b4 3d c9 3e 06 bf
       -0.14418383 -0.58421856 0.08832833 -0.5243955
000080 8f 7f 9e 3e 12 53 f5 3d 7d 22 d2 3d e5 de 10 3d
       0.30956694 0.11978735 0.10260484 0.03536882
000090 72 0d 8f 3d 29 a5 ab 3e 96 f3 16 3d 5b 65 e8 3c
       0.06984986 0.33524445 0.036853395 0.028368643
0000a0 3f 5c 4f 3e 2d 83 8f 3d 1e 53 7e 3e 18 58 ad 3e
       0.20250033 0.07007442 0.24836394 0.33856273
0000b0 aa 5d b8 3d 16 da f5 3c a0 ae df 3d 0e 91 89 3e
       0.0900224 0.030011218 0.10921979 0.2686848
0000c0 a9 e2 97 3e 60 f7 14 bb 15 2c eb bd c0 61 21 3d
       0.29665115 -0.0022730455 -0.11483017 0.039399862
0000d0 c1 41 5c bd eb 7e 9e 3e f5 de 1a 3e 23 7f 60 3e
       -0.053773645 0.30956206 0.15124114 0.21923499
0000e0 b0 53 39 3e dc 71 29 3e e1 75 a9 3e 3d db 97 bd
       0.1809833 0.1654734 0.33097747 -0.07414863
0000f0 0d f1 91 bd 7b 97 02 be 09 c2 cd 3d d3 0b 82 3e
       -0.07126055 -0.12753098 0.10046775 0.25399646
000100 a3 48 82 bd b6 6f 93 3d 1f 7e 95 3e 0b 7c 3f be
       -0.063615106 0.071990415 0.29197785 -0.18699662
000110 42 db f1 bd 06 b8 d0 be 50 82 20 3e 09 bf 84 3c
       -0.11809398 -0.407654 0.1567471 0.016204374
000120 16 03 d9 3e 38 78 8c be 4a 06 03 bf ee 63 55 be
       0.42385167 -0.2743547 -0.5118147 -0.20838901
000130 d9 6b c9 bd 41 9a 83 3e 97 c2 b1 3e 56 d4 39 bd
       -0.098350234 0.25703624 0.34718773 -0.045368515
000140 56 ee b6 bd ed 2f bf be bc d8 18 bd 0e d1 08 3b
       -0.08932178 -0.37341252 -0.03731607 0.002087656
000150 62 1f e1 3e cc 1c b2 be 79 bb 47 3e 0c 1a 07 be
       0.43969256 -0.34787595 0.19505109 -0.1319353
000160 c1 1c 4e be ca 55 c5 3e 18 d9 d9 bd ee 9f 03 3e
       -0.20128156 0.38542014 -0.106371105 0.12853977
000170 7a bf 93 3e 07 a6 e5 3e c4 f9 f2 be 18 83 53 be
       0.28857023 0.4485323 -0.4745618 -0.20655477
000180 93 a0 5e 3d 86 e5 63 be 06 dd a8 bb be e9 f1 be
       0.054352354 -0.22255525 -0.005153301 -0.47248644
000190 bf f8 9b be 81 e1 ff 3d 50 7e 12 3e 25 93 93 be
       -0.30463216 0.12494183 0.14305997 -0.288232
0001a0 56 fe 6d be cb e9 d5 be d8 10 e4 be dc 50 cd be
       -0.23241553 -0.41779932 -0.445441 -0.40100753
0001b0 f6 c3 b3 be d8 88 6e be 65 b5 b9 3e 18 2e 88 3e
       -0.35110444 -0.23294389 0.36271206 0.26597667
0001c0 f5 f4 5c 3e 0b 1a 2c bf 8f d7 6a be 05 f0 9f be
       0.21577819 -0.6722724 -0.22933792 -0.31237808
0001d0 fa 02 fe 3d 40 69 21 bf 32 e7 ab bd a8 e6 59 be
       0.124029115 -0.63051224 -0.083937064 -0.21279395
0001e0 8a c1 de bd 23 07 9f 3e ed d8 1d bd 5f 78 74 be
       -0.108767584 0.31060132 -0.038536955 -0.23874043
0001f0 f1 1f a5 be de 17 0e 3d bd 04 e0 bb f7 c7 ca bd
       -0.32250932 0.03469073 -0.0068365023 -0.099014215
000200 63 56 b3 3e 0f 64 51 3d 8e 3a fb 3e 1a 65 83 3e
       0.35026845 0.051120814 0.4906811 0.25663072
000210 10 6f 8e bd 98 2f 6a 3e 61 2b 89 bd c0 4e 27 bd
       -0.06954777 0.22869718 -0.06697727 -0.040846586
000220 85 be 11 bf 8a 4c 29 be 69 8e e1 3d 4f b4 1b 3d
       -0.56931335 -0.16533104 0.11013491 0.038013753
000230 01 04 48 3e 54 88 a7 3c 41 0e ee 3e e9 f2 4b bd
       0.19532777 0.020450749 0.4649525 -0.049792204
000240 c4 1f 51 3e cf 6f 8b 3e 9b ff 9a 3e f8 6b e2 3e
       0.20422274 0.2723374 0.30273136 0.44223
000250 f9 ae e2 3e 82 2c 21 be aa 26 45 3e 76 63 06 3e
       0.4427412 -0.15739635 0.1925303 0.13123879
000260 15 ef 5d be c1 b5 ad be 6c 75 c3 3e 08 4f 60 be
       -0.21673234 -0.3392773 0.38175523 -0.21905148
000270 ec b4 67 bd 7e a5 1b 3e 1f af 9f 3d 34 a8 4e bd
       -0.056569025 0.15199849 0.077970736 -0.05045338
000280 15 29 16 3e ef 33 bd bc ad d4 d5 3d e9 15 59 be
       0.14664109 -0.023096053 0.10440955 -0.21199764
000290 71 bb 7a 3e d7 4d 76 bd e6 91 18 bc a2 0b ca 3e
       0.24485566 -0.060132828 -0.009312129 0.39462
0002a0 a3 cb a8 3e 5d 21 c1 be 86 00 4f be c7 16 5f bd
       0.32967862 -0.37720767 -0.20215043 -0.05446508
0002b0 09 94 e9 ba 30 99 d3 3d 23 91 90 be 40 27 a0 be
       -0.0017820607 0.103319526 -0.2823573 -0.31279945
0002c0 a2 87 79 be 0b 97 a3 3e c0 f8 c3 3e 95 da 8a be
       -0.24368146 0.31951174 0.3827572 -0.2711989
0002d0 ee 15 10 3e 30 1e 1d 3f 9a 2e 2b 3e a1 ac 42 3d
       0.14070866 0.6137419 0.16716996 0.047527913
0002e0 da 56 80 3e 82 52 a4 3e 55 6a 09 3f dd 55 8c 3e
       0.25066262 0.32094198 0.53677875 0.27409258
0002f0 5d b9 38 be bc b1 ef be 1f 6a 9c 3d f8 95 3c be
       -0.1803946 -0.46815288 0.076374285 -0.18416584
000300 9c 80 da 3e e8 6b da 3e 72 28 c7 bd e8 3d f8 bd
       0.42676246 0.4266045 -0.09724511 -0.12121183
000310 9b 86 ce 3e 2f 77 b3 3e fb d4 85 be f9 80 a4 3e
       0.4033707 0.35051867 -0.26139054 0.32129648
000320 08 e4 13 bf 27 c8 b7 be 5c 5d 51 3e d3 17 31 be
       -0.57769823 -0.35894892 0.2044577 -0.17294244
000330 7c 79 8d bd 54 05 ab be 94 a2 ae be 07 f2 4a 3d
       -0.06907937 -0.33402503 -0.34108412 0.04954722
000340 fd 2f 36 be 5b cd 3e be c6 33 ab 3d 3c 22 4c 3e
       -0.17791744 -0.18633024 0.083594844 0.19934934
000350 ac 7a 80 be 73 c5 34 be 60 8b 26 be d5 02 e4 3e
       -0.2509359 -0.17653446 -0.16264105 0.4453341
000360 49 21 11 be 9a 4f f4 3c c0 17 2d 3e ef ed c5 3d
       -0.14172854 0.029823113 0.16903591 0.09664523
000370 8a 28 b1 be de 12 a4 3e 5d a9 9b 3d f7 96 8e be
       -0.3460124 0.32045645 0.07600663 -0.27849552
000380 80 f0 41 bd 3c 76 c5 3e d9 d2 18 3f 0c 38 72 3e
       -0.0473485 0.38566768 0.5969673 0.23654193
000390 d3 e8 54 be f1 97 13 be 08 da 38 be 05 7e 2b 3f
       -0.2079194 -0.1441343 -0.18051922 0.66989166
0003a0 ac 65 c1 3e 5e 37 f4 3d d9 c0 16 3e 2c 31 1c 3c
       0.37772882 0.11924623 0.14722003 0.009533208
0003b0 b9 1e 4b 3e 31 35 47 be bb 4c 63 be 8d d2 2a be
       0.19835939 -0.19453885 -0.22197239 -0.16681881
0003c0 b4 7a 66 3e 36 3a eb be 85 a9 5d be 49 07 3b bc
       0.22507745 -0.4594285 -0.21646698 -0.011415311
0003d0 49 36 8a be c7 2b 7f 3d b7 9d bf be 0e ca 32 3e
       -0.2699454 0.06229761 -0.37425014 0.1745989
0003e0 7f cf 52 bc 06 09 8d 3e b5 49 77 be 8f 4b a8 be
       -0.012866854 0.27545947 -0.24149211 -0.32870147
0003f0 50 02 25 3e c5 b1 28 3e 34 30 c8 3c 6d 79 8c be
       0.16114163 0.16474064 0.024437048 -0.2743639

layers.0.bias f4 [64]
000000 ec 35 c2 be c3 b4 b1 3d ca 31 e3 be d4 f8 a0 bc
       -0.37931764 0.08677056 -0.44373924 -0.0196499
000010 bc 8c b7 3d 5b 30 c9 3e 53 fe f1 3d d5 9b 4a 3e
       0.0896239 0.39294705 0.118160866 0.19786008
000020 cb 9e 68 3c 5f b2 46 3d eb 6f 46 3e 49 91 84 3e
       0.014198015 0.04850995 0.19378631 0.25892094
000030 72 a6 8d 3e 81 ae eb bd e0 e0 b3 3e 3e d8 42 3d
       0.2766605 -0.11507893 0.35132504 0.047569506
000040 20 ba 0f be 83 d0 c8 3d 54 6a a9 3e 84 53 d5 3e
       -0.14035845 0.098053955 0.33088934 0.4166528
000050 5d 79 61 3c 48 a5 4a bd 12 db 2e 3e 92 64 ba 3e
       0.013761845 -0.04947403 0.17075756 0.36404854
000060 8e 9e e4 bd 9c 7f ef bd 15 01 51 bd b6 7b 2d 3e
       -0.111630544 -0.116942614 -0.051026423 0.16941723
000070 b5 ae 9e 3e 0b a8 a5 3d 6a 2b 6d bd 5d d9 7c 3e
       0.30992666 0.08088692 -0.05790273 0.24692293
000080 97 b4 a6 bd 0f 03 93 be 9d 47 c2 3e 22 19 88 be
       -0.081399135 -0.2871327 0.37945262 -0.26581675
000090 64 74 3d be b7 ee 29 3e 7a 83 08 3e 9e bf 4e be
       -0.18501431 0.16594969 0.13331404 -0.20190284
0000a0 98 ff c1 3d 70 cd 60 3d 77 3a fa bd df 66 4b bd
       0.09472579 0.05488342 -0.122181825 -0.049658652
0000b0 e4 b0 3e be c2 14 2f be 6a 00 32 be f2 f6 d0 bd
       -0.18622166 -0.17097762 -0.1738297 -0.10203351
0000c0 8e 02 96 3d 6b 7b 8b bd 57 6f 45 3e c7 fb 37 be
       0.07324706 -0.068106495 0.19280754 -0.17967139
0000d0 2e d8 ad be 7f a1 8a bc be 06 c3 bd 2d 9e 90 3e
       -0.33953995 -0.01692271 -0.0952277 0.2824568
0000e0 07 97 0c be c2 76 40 3e d1 3e b1 3e bb 8b 2d 3e
       -0.13729487 0.18795303 0.34618238 0.16947834
0000f0 03 89 a5 be f3 13 ef 3c be b1 c5 bd 1b a9 65 bd
       -0.32331094 0.029184317 -0.09653042 -0.056069475

layers.2.weight f4 [32, 64]
000000 b9 12 80 3e 73 a0 bf be a2 83 61 3e c6 02 6b 3d
       0.25014284 -0.374271 0.2202287 0.05737569
000010 a0 eb 21 be d0 3a 66 be 8c 51 10 be 79 98 a0 3e
       -0.1581254 -0.22483373 -0.14093608 0.31366327
000020 57 62 07 3e 43 bd d6 3d b8 63 b0 bd 18 a6 ab bd
       0.13221107 0.104853176 -0.0861277 -0.08381289
000030 40 c1 ca 3e 32 89 9d be 52 7b 06 be 78 cf ec 3d
       0.39600563 -0.30768734 -0.1313298 0.11563009
000040 1d 14 ec be 74 27 84 3e 8b b1 15 be 4f 71 1b be
       -0.46109095 0.2581135 -0.14618509 -0.15179943
000050 93 58 18 3e 83 db 9e be 87 ae 20 be d6 6e 32 3e
       0.14877538 -0.3102685 -0.15691577 0.17425093
000060 b3 54 ad be ed a4 f6 3d 0f 4d 20 be 42 86 6e be
       -0.33853683 0.12043176 -0.15654396 -0.23293403
000070 07 b8 90 be f2 f3 15 3e 67 66 9b 3e 5b b7 46 3e
       -0.28265402 0.14643839 0.30351564 0.19405882
000080 ab 0b b0 3d 66 91 e9 3d 16 13 1e be b8 1d 4a 3d
       0.085959755 0.11404686 -0.15436968 0.04934475
000090 f2 bc 6d 3d 43 3e c3 bd 83 c5 9b bd 44 97 bd 3e
       0.05804152 -0.0953336 -0.07606032 0.3702947
0000a0 b9 84 83 3d eb 8c 62 be ff 3c cf be 0a 2c 51 3e
       0.06421799 -0.22124068 -0.40476224 0.20426956
0000b0 f3 99 92 3e c8 e8 0e be 18 a3 75 3e 7d 8f fc be
       0.2863308 -0.13955986 0.23987997 -0.49328223
0000c0 f1 d2 61 be 07 a3 26 3e 5c d3 88 be e0 c8 6d be
       -0.22053124 0.16273127 -0.26723754 -0.23221159
0000d0 eb b0 ea 3d ce 4b b2 be ea e2 30 3d ec 01 81 be
       0.11459526 -0.3482346 0.043185152 -0.2519678
0000e0 22 18 b1 3e c9 9f e2 3d 1f a7 18 3c 1f 4b c3 be
       0.34588724 0.11065633 0.0093171885 -0.3814325
0000f0 41 6d 3e 3e 86 d3 58 be 82 09 72 be f7 d1 77 be
       0.18596365 -0.2117444 -0.2363644 -0.24201189
000100 58 24 21 3d c0 bb b7 be 26 cc 44 3e 5e 18 09 3e
       0.0393413 -0.3588543 0.19218501 0.13388202
000110 bf 90 74 be ab 80 28 be 1e 02 e8 bc 79 5e 81 3e
       -0.23883341 -0.16455333 -0.028321322 0.2526739
000120 d8 46 54 3d 78 ed be 3e 4f 60 a1 bc 96 f6 e1 bc
       0.051825374 0.3729055 -0.019699244 -0.027583402
000130 8e 7b 01 3e 8a 48 1e be 1b 99 53 be 47 7c a2 3e
       0.12644789 -0.15457359 -0.20663874 0.3173544
000140 9b 68 ae be a2 85 58 3e 54 f8 41 bd 83 9c b2 bd
       -0.34064183 0.21144727 -0.047355965 -0.087212585
000150 2c cb ad 3d a5 4f 90 bd 26 11 3f be 99 89 89 bd
       0.084860176 -0.07046441 -0.18658885 -0.06715698
000160 73 20 b4 be 3f ad 61 3e 8e df 40 be 9f 03 e8 bd
       -0.35181007 0.22038744 -0.1883528 -0.11328816
000170 6f ad 60 be 03 34 a1 3e ca c6 83 3e ca 30 85 3e
       -0.2194116 0.31484994 0.25737602 0.26013786
000180 5a fb 01 3d cd e5 bf 3c e1 8e 3a be 1d 11 00 3d
       0.03173385 0.023425007 -0.18218566 0.03126632
000190 fc b0 6d 3e 7b a2 70 be 47 60 61 bd b4 06 ab 3e
       0.23212045 -0.23499481 -0.055023458 0.33403552
0001a0 ea e2 0d 3e 3e d7 28 be 08 68 b4 be fc 5f 4f 3e
       0.13856092 -0.16488358 -0.3523562 0.20251459
0001b0 96 ef 16 3e 76 c0 a4 be f4 38 5e 3e af 25 8d be
       0.14739832 -0.32178086 0.21701413 -0.27567813
0001c0 51 29 92 be 91 a1 68 3e 98 bc 65 be d8 ba b6 be
       -0.28547147 0.22717883 -0.22435224 -0.35689425
0001d0 33 22 4f 3e 3a 43 6e be cc aa 18 3e 0d 30 9b be
       0.2022789 -0.23267832 0.14908904 -0.30310097
0001e0 9b e7 b2 3e 97 a4 5b 3d 3b 9b ff bc c5 23 bd be
       0.34942326 0.053623762 -0.03120195 -0.36941352
0001f0 34 28 1f 3e f6 64 56 be b2 18 ed be e6 ab 1c be
       0.1554268 -0.20936951 -0.46307904 -0.15299949
000200 d1 8c d4 bd 56 24 98 3e e2 ed 77 be 78 94 72 3c
       -0.10378421 0.29715222 -0.24211839 0.0148059055
000210 cb aa 8c 3e e9 0c 5f 3e 8d 49 d4 3d 6a cc 67 be
       0.27474055 0.21782269 0.10365591 -0.22636572
000220 b7 51 8c be 91 b5 1d 3e 03 1a 68 3e 58 61 8b 3e
       -0.27406093 0.15401293 0.22666173 0.27222705
000230 ad aa 32 bc 7d 48 d6 3e 9e f9 bc 3d 0c 28 9b be
       -0.01090495 0.4185218 0.09227298 -0.3030399
000240 cb 1d 9b 3e 31 5f 47 3e b5 c9 d5 3d 2a d9 f7 3d
       0.30296168 0.19469906 0.10438863 0.12101968
000250 c4 8b 91 be 34 54 38 3e 42 6d 8f 3e 5a 25 58 3e
       -0.28426945 0.18000871 0.28013045 0.21107998
000260 bb bf c9 3e 6d 87 b8 bd 5d 82 99 3e da 2a 41 3e
       0.3940409 -0.090102054 0.29982272 0.18864003
000270 3c 92 36 3e 0f dc 4d 3e 83 c1 d3 bd 48 01 29 bd
       0.17829221 0.20103477 -0.10339644 -0.041260988
000280 15 70 b8 bd a3 ab 77 be 9f f0 dc 3d ad 84 68 be
       -0.09005753 -0.24186568 0.10788082 -0.22706862
000290 73 2a 08 be cb a4 67 3e 40 85 bf 3d c0 64 db bd
       -0.13297443 0.22621457 0.09351587 -0.10712576
0002a0 66 78 30 be fe 70 18 3e f0 84 55 3e ee 47 3b be
       -0.17233428 0.14886853 0.20851493 -0.18289158
0002b0 fe 38 61 be fd 1b 4d 3e f7 6d e3 bd dd 3f 90 3e
       -0.21994397 0.20030208 -0.111049585 0.28173724
0002c0 e1 b1 75 3e 2e c7 1f be ca ff fa 3d 27 dc d9 3e
       0.23993637 -0.15603325 0.12255819 0.42550775
0002d0 2b 07 af be 54 69 42 3e c7 ef 02 be 19 3c 58 3e
       -0.34185156 0.18985492 -0.1278678 0.21116675
0002e0 10 c3 54 be 34 c5 69 3e 7c a4 34 3e f2 24 7a 3e
       -0.20777535 0.22829133 0.17640871 0.24428156
0002f0 00 22 ca 3b de 32 b9 3e ee cb ac 3e b6 f3 da 3e
       0.006168604 0.3617162 0.33749336 0.42764062
000300 96 c5 53 3e b6 ae 59 be d0 48 4e 3e 63 b0 30 3d
       0.20680842 -0.21258053 0.20144963 0.043136965
000310 47 39 8a be 35 2a 0e be 41 72 1b be 71 dc c5 3e
       -0.26996824 -0.13883288 -0.15180303 0.38644746
000320 4a fe 44 3e ac 19 04 3e 8f 3b 0c 3c ae a5 82 bd
       0.19237629 0.12900418 0.008559122 -0.06379257
000330 cc 79 af 3e 20 52 86 be 6d 3d b1 bd 45 cf 1f 3e
       0.3427261 -0.2623453 -0.08654294 0.15606411
000340 52 70 86 be 84 b1 39 3e f3 a5 a3 bc 04 fc 53 be
       -0.2625757 0.18134123 -0.019976592 -0.20701605
000350 ed e3 c7 3d 72 98 e1 bd 34 57 0e be 29 98 10 3e
       0.0976027 -0.11015405 -0.13900453 0.14120544
000360 d1 f2 c0 be 5d 74 01 3e 76 58 63 be 41 2f 76 be
       -0.37685254 0.12642045 -0.22201714 -0.24041463
000370 26 4e 9f bd 15 63 44 3e ea d5 9a 3d 4c 07 29 3e
       -0.077785775 0.19178422 0.07560332 0.1650669
000380 c6 ca 0d 3d 8d 70 0b 3e da 24 26 be 40 5b 33 bc
       0.034617208 0.13617153 -0.16224995 -0.010947049
000390 a1 8e e6 3d 6c 81 08 be 1b 7e 72 be 94 ef b0 3e
       0.11257673 -0.1333062 -0.23680918 0.34557784
0003a0 f5 bc 64 3d 95 f6 33 be d6 16 8e be e9 45 ae bc
       0.055844266 -0.17574532 -0.27751797 -0.02127357
0003b0 45 dc 4a 3e 54 e3 bc bd 91 8e 76 3c fb 61 b4 be
       0.19810589 -0.09223047 0.015048639 -0.35231003
0003c0 78 db df bd 1a 83 4e 3e 8c 7d 69 be 7b 9e 28 be
       -0.10930532 0.20167199 -0.22801799 -0.16466706
0003d0 46 f2 e4 3d 7d de e4 be 60 15 00 3e c4 7c 1a be
       0.111790225 -0.44700995 0.12508154 -0.15086657
0003e0 fa f8 a9 3e 83 62 18 3e 53 d7 9f bd e3 47 48 be
       0.33197767 0.14881329 -0.07804742 -0.19558673
0003f0 a1 7d 54 3e c8 e1 06 be 9a dc 62 be 73 c6 85 be
       0.20751049 -0.13172066 -0.22154465 -0.26127967

layers.2.bias f4 [32]
000000 14 2a d2 bd 22 4d 94 bd 66 14 a9 3d 3c 39 4e be
       -0.10261932 -0.072412744 0.08255844 -0.2013902
000010 eb a3 dd 3d cc 9d 5d 3e 00 aa b2 3d 80 2d e0 bd
       0.108222805 0.21642226 0.08723831 -0.109461784
000020 a5 9a fe 3d 36 14 b8 3b ce fc 76 3d f7 4a 11 3c
       0.1243184 0.0056176437 0.060299687 0.008867971
000030 82 ad 0f 3d 9f df 27 bd b5 ba 33 3e 4e 67 89 3e
       0.03507758 -0.040984746 0.17551692 0.26836628
000040 38 a5 05 be dd cc 2c 3e 5c 72 3c bd 46 2f 94 bd
       -0.13051307 0.16875024 -0.0460075 -0.07235579
000050 21 37 c3 bd 4d 5c 56 3e b7 25 41 3e 81 90 19 3e
       -0.095319994 0.20933647 0.18862043 0.1499653
000060 88 d2 2a be d6 7c 9c 3d 0f 7e ed 3c 7e e3 13 bd
       -0.16681874 0.07640998 0.028990773 -0.036105625
000070 a9 8b d5 bd 68 71 09 3e ea 84 81 3c dc 44 65 3d
       -0.10427029 0.13422167 0.015810449 0.055973873

layers.4.weight f4 [1, 32]
000000 ab 39 af 3e 6b 4a b0 3e 6e d1 89 be 6b 90 c9 3e
       0.34223685 0.34431776 -0.26917595 0.39367995
000010 05 9a 8d be 0d c3 ef be 04 cb 9d be 0d 21 83 3e
       -0.2765657 -0.468285 -0.3081895 0.25611153
000020 32 01 90 be cd af 91 3d 5b ed 9b be a2 ab 94 be
       -0.28125912 0.071136095 -0.30454525 -0.29037195
000030 7b 03 ca be b0 3d 02 3e a7 2f 97 be a5 ed 02 bf
       -0.3945578 0.12718844 -0.29528543 -0.51143867
000040 94 8e 9b 3e 9e 6b 5c be 7e da 94 3e 16 ae 96 ba
       0.30382216 -0.21525428 0.29072946 -0.0011495973
000050 12 dc b4 3e 77 ab ac be 79 29 87 be 5c 75 97 be
       0.3532415 -0.33724567 -0.2639883 -0.29581726
000060 7c 7c 97 3e 34 f8 2e 3f ca 77 ab be 91 ca b4 3e
       0.29587162 0.6834748 -0.3348983 0.35310796
000070 48 de b4 3e 42 fb 97 be 42 d3 97 be c5 a9 a0 be
       0.35325837 -0.29683882 -0.29653364 -0.31379524
