Models/SavedModels/lung_cancer_model.pth (torch, 15404 bytes, 5 tensors)

layers.0.weight f4 [64, 15]
000000 32 17 59 3d 0d 19 b9 3e 00 3a 19 be f1 55 9e 3e
       0.053000636 0.36151925 -0.14963531 0.30924943
000010 15 25 d9 3d 5b a7 68 3e 8a 85 9f bb ce 6e 4c 3e
       0.10602776 0.22720091 -0.004868214 0.19964144
000020 ee 11 9e 3e 26 91 7e be 79 13 8b 3e 7c 2a b2 3d
       0.30873054 -0.24860057 0.27163294 0.086995095
000030 d0 99 13 3e 75 f4 29 3e 79 85 cb 3d 8c 05 23 be
       0.14414144 0.16597159 0.09937567 -0.15920085
000040 03 fc 02 3f 79 5c 04 3e 11 0f a9 be 1f dc 4d 3e
       0.5116579 0.129259 -0.33019307 0.20103501
000050 4c 8f fe be af fa 1f be e9 20 ed 3d 2f 0c a1 3e
       -0.49718702 -0.15622972 0.11578543 0.31454608
000060 ad 05 02 bf 2c 03 c5 be cc d4 ba be 72 f7 c5 3d
       -0.5078991 -0.38478982 -0.36490476 0.09666337
000070 e9 81 0d be 8b f5 08 bf 7d 6d 9b 3d 44 9f 06 bf
       -0.13819088 -0.5349967 0.075892426 -0.5258677
000080 6a f1 7f 3e dc de 0c 3e 4c 97 d2 3d b7 81 4d 3d
       0.24994436 0.13756889 0.10282764 0.050172534
000090 31 be a8 3d 2b 1a b2 3e 66 8f 07 3d 20 1d 26 3d
       0.08239401 0.3478559 0.03309574 0.04055512
0000a0 97 e8 53 3e f7 60 95 3d 00 f1 85 3e f4 e8 ae 3e
       0.20694195 0.07293885 0.2616043 0.34162104
0000b0 95 22 e6 3d fe 09 7f 3d 1b cc e9 3d a3 7a 8a 3e
       0.11237065 0.06226539 0.11415883 0.2704669
0000c0 35 42 8d 3e 45 a6 20 bb b0 4d ea bd c0 a1 7e 3d
       0.27589574 -0.0024513167 -0.11440599 0.062165976
0000d0 29 99 fc bc 6c 90 9e 3e fe 2f 2b 3e 67 4e 66 3e
       -0.030834751 0.3096956 0.16717526 0.22490846
0000e0 0b 3b 34 3e 69 47 33 3e 2d 22 aa 3e cf 95 69 bd
       0.17600648 0.1750771 0.332292 -0.057027634
0000f0 49 ec 18 bd b4 eb 15 be 67 28 ba 3d 94 55 7c 3e
       -0.037334714 -0.14640695 0.090897374 0.2464202
000100 13 95 66 bd f6 ce 97 3d c5 18 93 3e aa 4b 5a be
       -0.056294512 0.074125215 0.28729835 -0.21317926
000110 61 cd ff bd 26 5e ce be f5 62 36 3e b7 b4 06 3d
       -0.12490345 -0.40306205 0.17811187 0.032887187
000120 4a ad d1 3e 4e 64 86 be ae dd 02 bf 97 fa 44 be
       0.40952522 -0.262484 -0.51119506 -0.19236217
000130 be 10 3f bd b2 55 7f 3e 5f 4b ac 3e 67 0e 66 bd
       -0.046646826 0.24935034 0.33651254 -0.05616608
000140 ad 64 e7 bd 9d 06 bd be f6 f3 34 bd 88 e7 80 ba
       -0.11298499 -0.36919108 -0.04417797 -0.0009834627
000150 0e cd dd 3e 60 14 b0 be d1 f7 35 3e 31 1a ec bd
       0.43320507 -0.34390545 0.17770316 -0.11528433
000160 1e 76 5b be f0 19 c4 3e ba 79 02 be 92 15 98 3d
       -0.21431777 0.3830104 -0.12741747 0.07425989
000170 3d 78 b6 3e 5b 87 d4 3e 5a 79 fe be 8a fd 68 be
       0.3563861 0.41509518 -0.4970196 -0.22752967
000180 84 ef b6 3d 1f 86 83 be 86 e5 07 3d dc b1 03 bf
       0.08932403 -0.25688264 0.033177875 -0.51443267
000190 e2 7b ab be cd 72 ee 3d 4f 9e 25 3e eb ff a0 be
       -0.33492953 0.1164299 0.16173671 -0.3144525
0001a0 3b e7 70 be 41 c8 b3 be e3 40 29 be 1b a7 c9 be
       -0.23525707 -0.3511372 -0.16528659 -0.39385304
0001b0 52 a6 d0 be 0d 5e a5 be 4d c8 bf 3e 5d 44 8f 3e
       -0.40751892 -0.32298318 0.37457505 0.27981845
0001c0 09 5c 8e 3e 5f cd 02 bf 81 61 65 be ff 8c 53 be
       0.27804592 -0.5109462 -0.22400476 -0.20659254
0001d0 7f 1f 84 3d e4 a9 1a bf a9 9c 5c bd 81 cf 32 be
       0.0645132 -0.6041548 -0.05386034 -0.17461969
0001e0 3b 75 f5 bd d8 e5 9c 3e 8e 82 2b bd 58 f9 71 be
       -0.119852506 0.30644107 -0.041872554 -0.23630273
0001f0 21 13 9e be a7 13 64 3d 6b 25 04 bd 7f 6d d4 bd
       -0.3087397 0.055682804 -0.032262247 -0.10372447
000200 46 32 b2 3e d8 48 3d 3d 33 a5 fb 3e a3 49 82 3e
       0.3480398 0.046212047 0.49149475 0.25446805
000210 b0 4a 87 bd 87 29 82 3e a6 e9 9d bd 43 41 27 bd
       -0.066060424 0.25422308 -0.077105805 -0.040833723
000220 5e 40 0b bf 4d 91 47 be 20 50 44 3e 67 89 f6 3c
       -0.5439509 -0.19489022 0.1917119 0.030094815
000230 12 8b 8c 3e f7 69 44 3d bb 91 f2 3e a5 b7 0d bd
       0.27449852 0.04795262 0.4737681 -0.034598965
000240 6e 8b 50 3e 0d ad 89 3e 26 65 95 3e 9a dc e7 3e
       0.20365688 0.2688984 0.29178733 0.45285493
000250 69 7b e6 3e 0e 5b 24 be 79 98 4e 3e b9 a9 cc 3d
       0.4501603 -0.1605036 0.20175351 0.099933095
000260 7c 07 61 be 3b 4f b8 be 8a d3 c4 3e d7 31 47 be
       -0.21975511 -0.35997948 0.38442641 -0.19452606
000270 5a fd 7e bd ba e8 35 3e 18 2e 9f 3d ee c2 b9 bd
       -0.062253334 0.1776456 0.077724636 -0.09070383
000280 96 cd 1b 3e 07 40 35 bd 38 bf f7 3d f0 5b 58 be
       0.15215144 -0.044250514 0.12097019 -0.21128821
000290 f2 fb 3e 3e 87 bd 86 bb 29 2c 58 bd 12 00 b1 3e
       0.18650797 -0.004111949 -0.05277649 0.34570366
0002a0 a0 9e a4 3e 4e 26 b8 be 78 6e ed bd 91 df 0b be
       0.3215227 -0.35966724 -0.11593336 -0.13659503
0002b0 24 5c 53 3d 10 f3 e7 3d 35 96 6b be 37 6a b6 be
       0.051601544 0.11325657 -0.23006518 -0.3562791
0002c0 dd e7 a1 be bf 9c a4 3e a4 2e cf 3e 2f 9f 73 be
       -0.3162221 0.32150838 0.4046527 -0.23791192
0002d0 fd 35 f8 3c 39 de 09 3f 78 6d 01 3e 85 27 cb 3d
       0.030299181 0.5385471 0.12639415 0.09919647
0002e0 30 19 87 3e 2b 9d 9e 3e db 90 f8 3e cd 31 36 3e
       0.26386404 0.30979285 0.48548016 0.17792435
0002f0 c3 b3 07 be 22 7a e9 be 2b dc 4b 3e 0b 6f 0d be
       -0.13252167 -0.45600992 0.19908206 -0.13811891
000300 58 94 dd 3e a7 1f e1 3e f1 99 93 bd b1 30 f8 bd
       0.4327724 0.4396946 -0.07207096 -0.12118662
000310 16 51 e4 3e 30 14 a8 3e 65 3b 9b be 7b a5 af 3e
       0.44593114 0.32827902 -0.30318752 0.3430594
000320 72 e2 23 bf 57 ad a4 be 84 dc 6d 3e c1 59 10 be
       -0.64017403 -0.32163498 0.23228651 -0.14096738
000330 bf 88 0c be d4 7f ab be 91 1d ad be ab 30 93 bb
       -0.1372404 -0.33495963 -0.3381162 -0.0044918857
000340 88 4a 7d be 4d 0f 1e be 7c 5c d8 3d 7a ba 56 3e
       -0.24735463 -0.15435524 0.10564515 0.20969573
000350 6a 79 73 be 90 f8 2a be fa 80 27 be 80 4d d9 3e
       -0.23776785 -0.16696382 -0.16357794 0.4244194
000360 60 4f 14 be 52 27 41 3d 7f a3 2b 3e 05 5b ad 3d
       -0.14483404 0.04715664 0.16761588 0.08464626
000370 7a 9f a3 be 6b ad ac 3e 3b f6 56 3d 1b b9 8d be
       -0.31957608 0.33726057 0.052480917 -0.27680287
000380 f7 f8 2c bd 2b ad c6 3e 4f aa 06 3f 7f 23 5a 3e
       -0.04222962 0.38803992 0.5260362 0.21302603
000390 fc ad 67 be 5e d2 de bd 21 a3 6d be 94 87 25 3f
       -0.22624964 -0.10879968 -0.2320676 0.6466
0003a0 fa 5d bd 3e 63 b5 c5 3d 09 2e 35 3e 21 0f c5 3c
       0.3698576 0.096537374 0.17693342 0.024055066
0003b0 b5 1f 2e 3e 00 ce 06 be 39 2c 38 be 55 c1 20 be
       0.17004283 -0.1316452 -0.1798562 -0.1569875
0003c0 fa fd 8a 3e 63 01 ed be d1 b0 53 be d7 ce bc bc
       0.27146894 -0.4629012 -0.20672919 -0.023047848
0003d0 49 34 93 be 60 3c 86 3d 90 6e be be dd 67 2d 3e
       -0.28750828 0.06554484 -0.37193727 0.16934152
0003e0 c3 8c 11 bb 3b b7 9f 3e 02 6d 80 be 50 29 bc be
       -0.0022209145 0.3119448 -0.25083166 -0.3675027
0003f0 bc eb 3b 3e c5 92 82 3e 83 30 19 3d 18 dc 8d be
       0.18351644 0.255026 0.03739978 -0.2770698

layers.0.bias f4 [64]
000000 6a f9 b9 be 7f 08 bc 3d c6 99 db be d4 04 4a 3d
       -0.363231 0.09181308 -0.42890757 0.04932101
000010 66 8e af 3d d6 eb c6 3e ee 7f f6 3d fd 76 30 3e
       0.08572082 0.38851804 0.120361194 0.1723289
000020 f3 3d 61 3c 42 c6 af 3d d6 a4 43 3e e4 f9 86 3e
       0.01374768 0.085827366 0.19105849 0.26362526
000030 a0 da 17 3e 31 72 b1 bd 76 98 b4 3e 68 b9 6c 3c
       0.14829493 -0.086643584 0.35272568 0.014448501
000040 78 ee ea bd 69 af ed 3d ed b8 a9 3e a1 92 cc 3e
       -0.114712656 0.116057225 0.331489 0.3995562
000050 75 4e f4 3c 01 3b 9a bc 22 26 2e 3e 97 89 be 3e
       0.029822567 -0.018826963 0.17006734 0.37214348
000060 79 f9 f9 bd 3a 01 05 be cf f1 8b bd c9 06 2e 3e
       -0.12205786 -0.12988749 -0.06833231 0.16994776
000070 21 11 9c 3e 56 b2 a7 3d 38 d3 14 bd a7 78 82 3e
       0.30481818 0.08188312 -0.036334246 0.25482675
000080 b2 ed 77 bb 20 e6 a4 be 4c 0f c0 3e 3e 1f 85 be
       -0.0037830886 -0.3220682 0.3751167 -0.26000398
000090 c4 7a 39 be 3b 82 28 3e 55 c0 09 3e 64 8e 5c be
       -0.18113238 0.16455929 0.13452275 -0.21538693
0000a0 be 96 c2 3d 0a a0 60 3d b1 1c 76 3d 3c 0f 40 bd
       0.09501408 0.054840125 0.060085956 -0.04688953
0000b0 be 57 34 be 56 81 15 be 23 d7 24 be 2c cb a2 bd
       -0.17611596 -0.14600119 -0.16097693 -0.07948908
0000c0 ea 31 96 3d b8 8f 80 bd c8 21 40 3e 05 d5 3d be
       0.07333739 -0.06277412 0.18762887 -0.18538292
0000d0 86 dc ae be bd 3f e4 3d 15 4b b5 bd de bd b1 3e
       -0.3415262 0.111449696 -0.088522114 0.3471517
0000e0 43 96 fb bd c9 6f 20 3e 1c 88 b1 3e 51 74 26 3e
       -0.122845195 0.15667643 0.34674156 0.16255309
0000f0 f6 11 9e be ac 91 c9 3c c1 ba 0c be b9 bc a1 bd
       -0.30873078 0.024605595 -0.13743116 -0.07897324

layers.2.weight f4 [32, 64]
000000 9b f5 77 3e 43 fb bf be fd 48 56 3e 86 ce 54 3d
       0.24214785 -0.37496385 0.2092628 0.05195477
000010 4c c1 1c be cd 79 6e be 46 fa 12 be a7 76 90 3e
       -0.15308112 -0.23288651 -0.14353284 0.28215525
000020 58 6e 05 3e 73 04 b9 3d 8c cc a1 bd b0 19 9f bd
       0.13030374 0.09034052 -0.07900342 -0.077685714
000030 04 c3 be 3e 57 26 b6 be 11 90 e2 bd 22 db e6 3d
       0.3725816 -0.35576126 -0.11062635 0.11272265
000040 e6 4f f5 be 93 b3 87 3e 2b 83 1a be 4e ec 2d be
       -0.4791252 0.26504192 -0.15089099 -0.16984674
000050 a0 04 14 3e 46 88 88 be 06 b0 23 be 34 1c 48 3e
       0.1445489 -0.26666468 -0.15985116 0.19542009
000060 bc ce ae be 94 fc e8 3d a0 09 0e be 69 e9 6d be
       -0.341421 0.113763005 -0.13870859 -0.2323357
000070 4a e1 91 be bc f1 13 3e c7 e2 95 3e 27 df 3b 3e
       -0.28492194 0.14447683 0.2927458 0.18346845
000080 ce 4e 93 3d bc 66 ce 3d 4a e9 2e be db 3f 25 3d
       0.07192765 0.10078189 -0.1708118 0.0403441
000090 8c 96 75 3d 83 eb 9a bd 2e 67 9d bd 06 47 cc 3e
       0.059958026 -0.075644515 -0.076856956 0.39897937
0000a0 7a 7e 49 3d 7d cb 5a be 51 48 9a be e2 5b 4e 3e
       0.049192883 -0.21366687 -0.30133298 0.20152238
0000b0 aa 1b 95 3e ec c0 06 be 91 46 82 3e 73 8d b7 be
       0.29122669 -0.13159531 0.25444463 -0.35850105
0000c0 33 e9 52 be 0f 66 1d 3e 14 f0 88 be 65 ee 6e be
       -0.20596771 0.15370964 -0.26745665 -0.23333128
0000d0 92 7c b6 3d fc 10 81 be 9c 39 13 3d 3e 92 8d be
       0.08910479 -0.2520827 0.035943612 -0.27650636
0000e0 3f 1c b2 3e a0 49 e6 3d 69 60 18 3d 25 10 bd be
       0.34787175 0.112445116 0.03720132 -0.3692638
0000f0 3d 70 30 3e 11 7f 60 be 0b a3 82 be 92 db 74 be
       0.17230316 -0.21923472 -0.25515017 -0.23911884
000100 c9 75 0e 3d 68 7d b9 be d0 bd 44 3e dd 62 06 3e
       0.034780297 -0.3622849 0.19213033 0.13123651
000110 8e ba 6e be 3e 7e 25 be f1 e2 23 bd ca 70 6a 3e
       -0.23313352 -0.16161439 -0.04001135 0.22894588
000120 0e 00 4d 3d e8 c7 be 3e 00 39 47 3b 95 36 bc bc
       0.05004888 0.3726189 0.0030398965 -0.022975245
000130 d4 8c 08 3e 40 9c 3d be c7 7a 4e be e4 43 9c 3e
       0.13334972 -0.18516636 -0.20164023 0.30520546
000140 8a 58 b7 be 46 9b 5d 3e b1 78 35 bd 1f 8f c3 bd
       -0.35809737 0.21641263 -0.044304553 -0.095487826
000150 f4 fe 9b 3d 12 93 37 bd bf 8f 3f be 1e 91 4f bd
       0.07616988 -0.04481799 -0.18707179 -0.050675504
000160 3d 81 b9 be bb 4e 5f 3e e4 7f 4c be 15 d8 df bd
       -0.36231413 0.21807377 -0.19970661 -0.10929886
000170 ee 11 56 be f1 24 a4 3e c8 0a 81 3e 80 76 86 3e
       -0.20905277 0.32059434 0.25203538 0.26262283
000180 3d 59 a8 3c 1c e1 bb 3c f4 4f 47 be a1 75 c1 3c
       0.020550365 0.022934489 -0.19464093 0.02361566
000190 38 8f 6f 3e 3c 78 69 be 90 12 28 bd f9 08 b6 3e
       0.23394477 -0.22799772 -0.041033328 0.3555372
0001a0 20 09 03 3e e4 39 28 be 43 d8 9b be 15 e0 4e 3e
       0.1279645 -0.16428334 -0.30438432 0.20202668
0001b0 f0 15 1a 3e 33 f4 a3 be 8f 07 60 3e da 5e 70 be
       0.15047431 -0.32022247 0.21877883 -0.23473683
0001c0 2c 73 8f be 96 e6 65 3e 1b 07 64 be 94 01 bb be
       -0.28017557 0.22451243 -0.22268336 -0.36524642
0001d0 87 24 37 3e 6c 77 52 be f9 77 15 3e 6d 9d a8 be
       0.17885028 -0.20553368 0.14596547 -0.32932606
0001e0 db d4 c0 3e c6 38 67 3d 66 56 b9 bc 43 f1 bb be
       0.37662396 0.056450628 -0.022624206 -0.36707506
0001f0 03 4a 16 3e 0a cb 57 be 58 4e f8 be 81 37 0d be
       0.1467667 -0.21073547 -0.48497272 -0.13790704
000200 a3 46 ab bd 6c f7 99 3e ad ab 75 be a6 ac b9 3c
       -0.08363082 0.3007158 -0.2399127 0.022665333
000210 e2 fe 88 3e c9 9b 5a 3e 2f 73 f3 3d 28 ee 40 be
       0.2675696 0.2134849 0.11887204 -0.1884085
000220 45 3d 87 be d4 37 2c 3e a0 96 6a 3e 25 31 87 3e
       -0.26413932 0.16818172 0.22909021 0.26404682
000230 57 b2 84 bd c8 b6 e3 3e 95 49 b7 3d 98 cf a6 be
       -0.06479328 0.4447539 0.089495815 -0.32580256
000240 35 49 a1 3e cb e8 37 3e 8a d9 c9 3d a1 ae 00 3e
       0.31501165 0.17959897 0.098559454 0.12566616
000250 e1 3a 8d be fa 04 20 3e b3 01 91 3e 13 5e 53 3e
       -0.27583984 0.15626898 0.2832161 0.20641355
000260 f5 50 cc 3e 97 a8 96 bd 9c e2 9a 3e b6 f8 3c 3e
       0.39905515 -0.07356375 0.30251014 0.1845425
000270 42 8c 34 3e 81 5c 44 3e 2d dd bd bd d6 54 3d bd
       0.17631629 0.19175912 -0.092707016 -0.046223484
000280 6b 19 6f bd 58 9b 77 be 98 67 0d 3e 78 3d 67 be
       -0.05837385 -0.24180353 0.13809049 -0.22582042
000290 e4 5b 0e be 24 d1 66 3e c7 1c ac 3d d9 2e 0e be
       -0.13902241 0.22540718 0.08403926 -0.13885058
0002a0 c8 4d 23 be 47 3b 17 3e 69 58 f1 3d c7 1a 38 be
       -0.1594764 0.14768706 0.11784441 -0.17978965
0002b0 9a fe 73 be 77 c7 47 3e fa ba ef bd 5b f7 81 3e
       -0.23827592 0.19509684 -0.11705585 0.2538403
0002c0 5b 72 6f 3e 3d 7b 0b be 34 0d f2 3d 18 57 da 3e
       0.23383467 -0.1362123 0.118189245 0.42644572
0002d0 94 cd ad be 51 fb 08 3e ea 25 06 be 28 67 7c 3e
       -0.33945906 0.1337712 -0.131004 0.24648726
0002e0 61 54 81 be 5a 38 62 3e 36 38 2e 3e bb 6b 73 3e
       -0.25259688 0.22091809 0.1701363 0.23771565
0002f0 9f 89 be 3c 67 f5 b9 3e a2 17 b9 3e c4 a1 d5 3e
       0.023258982 0.3632004 0.36150843 0.4172498
000300 fc a6 4c 3e db 00 4e be 75 71 47 3e 06 17 31 3d
       0.19985574 -0.20117514 0.19476874 0.043234847
000310 11 93 96 be b5 f1 fe bd d2 ec 26 be 83 61 95 3e
       -0.29409078 -0.12448446 -0.16301277 0.29175958
000320 77 14 40 3e d4 11 e4 3d a1 b4 4e ba 55 9f 9e bd
       0.18757807 0.11136213 -0.0007885192 -0.07745234
000330 12 3f 96 3e 3f 7d 8e be d8 0f 9d bd b1 a9 ed 3d
       0.29344994 -0.2782993 -0.076690376 0.11604632
000340 8f ce 74 be 6d 8d 3a 3e 47 63 9e bc 59 0d 5a be
       -0.23906921 0.18218012 -0.019334449 -0.21294154
000350 aa 2c b1 3d 29 d2 bb bd 82 5a 1a be e6 56 1b 3e
       0.08651097 -0.09170944 -0.15073588 0.15169868
000360 9c 62 ba be 43 c5 fb 3d 8d 55 3e be da b3 89 be
       -0.36403358 0.12293484 -0.18587323 -0.26895028
000370 df af 82 bd 32 2a 24 3e 0a 2c 62 3d 5e 8a 1b 3e
       -0.06381201 0.16031721 0.05521778 0.15189502
000380 c0 8d 45 3c d2 bc 0c 3e a1 ad 1e be 1a f3 9e bc
       0.012057722 0.13743904 -0.15495922 -0.01940303
000390 ce d3 e5 3d 49 fb 05 be 7b e2 85 be bf 24 bf 3e
       0.11222039 -0.13084139 -0.26149353 0.37332723
0003a0 80 a2 30 3d 42 c5 14 be f8 c8 4d be db a2 bb bc
       0.043123722 -0.14528373 -0.20096195 -0.022904804
0003b0 b9 ef 47 3e 7b 6e ac bd ef 56 2c 3c 59 c7 9b be
       0.1952504 -0.0841951 0.010518773 -0.30425528
0003c0 b8 a6 d4 bd 29 c8 49 3e f3 6c 78 be 68 c4 28 be
       -0.103833616 0.19705261 -0.24260311 -0.16481173
0003d0 e2 93 b0 3d 74 57 da be 6e 0b f4 3d 29 e7 24 be
       0.086219564 -0.42644846 0.119162425 -0.16103806
0003e0 10 df b5 3e 21 2e 1f 3e c5 67 8d bd 2c 4b 41 be
       0.35521746 0.1554494 -0.06904558 -0.18876332
0003f0 bf 74 51 3e 9b 2f 38 be 0b f5 83 be bf c4 8a be
       0.20454691 -0.1798691 -0.2577289 -0.2710323

layers.2.bias f4 [32]
000000 3a 97 c6 bd 61 b9 8b bd 41 ca a3 3d a7 e9 50 be
       -0.09696813 -0.068224676 0.07997561 -0.20401631
000010 91 66 ba 3d 96 23 5e 3e e8 31 b1 3d 8f 8d e5 bd
       0.09101594 0.21693262 0.08652097 -0.11208641
000020 ff 57 00 3e 3f fa 05 3c ec f9 76 3d 9b 88 1b 3c
       0.12533568 0.008177339 0.060296938 0.0094930185
000030 43 83 0f 3d 9d 30 2c bd 88 46 33 3e a1 8b 91 3e
       0.03503729 -0.04203855 0.17507374 0.2842684
000040 9d 45 04 be c8 df 2c 3e 0a 9b 2e bd ab 20 94 bd
       -0.1291718 0.16882241 -0.042628326 -0.072327934
000050 09 d5 ce bd be 37 56 3e 6c ab 41 3e 75 46 16 3e
       -0.10099227 0.20919701 0.18913049 0.14675315
000060 cc 30 27 be 20 5a d3 3d 7f 91 07 3d d5 0b f7 bc
       -0.16327208 0.10319924 0.03309774 -0.03015701
000070 07 24 d6 bd b4 d6 08 3e 7c 75 90 3c b4 a8 63 3d
       -0.104560904 0.13363153 0.017634146 0.05558081

layers.4.weight f4 [1, 32]
000000 4b ce ac 3e 06 82 af 3e 59 5e 88 be a6 1b c7 3e
       0.3375114 0.34278888 -0.26634482 0.38888282
000010 6c 08 81 be 93 75 e2 be ec 15 9c be e4 0f 83 3e
       -0.25201738 -0.44230327 -0.30485475 0.2559806
000020 a9 0f 8d be 3b b2 37 3e 18 5c 99 be b7 b2 93 be
       -0.2755101 0.17939083 -0.29953074 -0.28847286
000030 53 9c c8 be 84 11 02 3e 1a 08 98 be 2a 53 12 bf
       -0.39181766 0.12701994 -0.2969368 -0.5715815
000040 87 69 99 3e c3 35 56 be d8 82 93 3e b1 50 45 ba
       0.29963323 -0.20918946 0.28810763 -0.00075269776
000050 42 a4 b4 3e 7d 8b ab be c3 86 86 be 39 31 94 be
       0.3528157 -0.3350486 -0.2627469 -0.28943804
000060 17 05 97 3e cb ac 29 3f bc ac a8 be 94 02 b4 3e
       0.2949607 0.66279286 -0.32944286 0.35158217
000070 11 0e b3 3e 88 27 95 be 3f b5 93 be e1 49 9d be
       0.3497167 -0.29131722 -0.28849217 -0.30720428
