Models/SavedModels/lung_cancer_model.pth (torch, 15404 bytes, 5 tensors)

layers.0.weight f4 [64, 15]
0	0x3d11fa2f	0.035638984
1	0x3ebb852f	0.3662505
2	0xbe22eb5d	-0.15910096
3	0x3e9fe1ea	0.31227046
4	0x3dd42142	0.10357906
5	0x3e7319e3	0.23740344
6	0x3b1cdb1b	0.0023934308
7	0x3e5e9f7e	0.21740529
8	0x3ea34956	0.31891888
9	0xbe84ba15	-0.2592322
10	0x3e7e7fa2	0.24853376
11	0x3dcc4ec3	0.0997596
12	0x3e1fafa3	0.15594344
13	0x3e21ee96	0.1581367
14	0x3dc30b8d	0.095236875
15	0xbe2f0799	-0.17092742
16	0x3f10100b	0.5627448
17	0x3e05e7a6	0.13076648
18	0xbeabc5c6	-0.33549327
19	0x3e5c0ac6	0.21488485
20	0xbf04038b	-0.51567906
21	0xbe2dbc88	-0.1696645
22	0x3e0d2394	0.13783103
23	0x3e867f72	0.26269108
24	0xbf0c9e07	-0.5492863
25	0xbec9d293	-0.39418468
26	0xbec66fbd	-0.38757125
27	0x3e239ddf	0.15978192
28	0xbe0bf16e	-0.13666317
29	0xbf08c03b	-0.5341832
30	0x3de113f9	0.109901376
31	0xbefdd198	-0.4957397
32	0x3e8fb04e	0.28064197
33	0x3dfd3f99	0.12365646
34	0x3dc1ba3a	0.09459348
35	0x3d3db11b	0.04631148
36	0x3da5b14c	0.08090457
37	0x3eb13190	0.34608126
38	0x3d8a92b2	0.06766261
39	0xbdbae0e2	-0.09124924
40	0x3e67365e	0.22579333
41	0x3daf1b0b	0.0855008
42	0x3e818a38	0.25300765
43	0x3eaa1906	0.33222216
44	0x3dfe2ed1	0.12411273
45	0x3d17cbce	0.037059598
46	0x3ddeb471	0.1087426
47	0x3e92b981	0.28657153
48	0x3e9dc4d8	0.30814242
49	0xbb00319f	-0.0019560826
50	0xbdec18df	-0.11528181
51	0x3d607cb3	0.054806422
52	0xbd08ee43	-0.03343035
53	0x3ea2154f	0.31656882
54	0x3e29adc1	0.16570188
55	0x3e5bcf2e	0.21465752
56	0x3e3c0326	0.18360576
57	0x3e346121	0.17615177
58	0x3ea93b6b	0.33053145
59	0xbd86ff99	-0.0659172
60	0xbd55ca45	-0.052194852
61	0xbe0ed3f6	-0.13948044
62	0x3df11b06	0.117727324
63	0x3e8128be	0.25226396
64	0xbd958c63	-0.07302167
65	0x3db3b991	0.08775628
66	0x3e97250d	0.29520455
67	0xbe5a4bd4	-0.21317989
68	0xbe0289ee	-0.12747929
69	0xbecd0451	-0.40042356
70	0x3e3de925	0.18545969
71	0x3d1d968a	0.038473643
72	0x3ed69f34	0.41918337
73	0xbe8bcbf8	-0.27304053
74	0xbf03f398	-0.5154357
75	0xbe50b058	-0.2037977
76	0xbe1dd588	-0.15413487
77	0x3e878edc	0.2647618
78	0x3eb0e419	0.34549025
79	0xbd78522b	-0.060625236
80	0xbda72a87	-0.08162408
81	0xbebad2a5	-0.36488834
82	0xbcff8e84	-0.031195886
83	0x3c0207bf	0.007936417
84	0x3ee33913	0.44379482
85	0xbeb0edf2	-0.34556538
86	0x3e53d299	0.20685805
87	0xbdff7bac	-0.124747604
88	0xbe440753	-0.19143419
89	0x3ec68591	0.38773778
90	0xbdf1fdb2	-0.11815967
91	0x3dfe1d1c	0.12407896
92	0x3e961dd6	0.29319638
93	0x3ee2d9f3	0.44306907
94	0xbefaf8da	-0.49017984
95	0xbe537e3d	-0.20653625
96	0x3d55b8cb	0.052178185
97	0xbe6652c2	-0.22492507
98	0xbcbc2f26	-0.0229717
99	0xbef756a0	-0.48308277
100	0xbe945dd5	-0.28977838
101	0x3e172f3d	0.14764114
102	0x3df94590	0.12171471
103	0xbe93a653	-0.28837833
104	0xbe6f369a	-0.23360673
105	0xbf104ed4	-0.5637028
106	0xbf2faa5b	-0.68619317
107	0xbef3acff	-0.47592923
108	0xbe9b8483	-0.30374536
109	0xbe6e2476	-0.23256096
110	0x3eb49475	0.35269514
111	0x3e834f9d	0.25646678
112	0x3e6e0e22	0.23247579
113	0xbf46305d	-0.77417547
114	0xbe9494b4	-0.290197
115	0xbe924bc6	-0.28573436
116	0x3e14e368	0.14539874
117	0xbf16a0c1	-0.5883904
118	0xbdce5dae	-0.10076462
119	0xbead2445	-0.33816734
120	0xbdf394d9	-0.11893625
121	0x3e9ce455	0.30642954
122	0xbd06f768	-0.03295079
123	0xbe7df5f3	-0.24800853
124	0xbe9a6f0d	-0.3016285
125	0x3d80c59f	0.06287693
126	0xbd5223dd	-0.051303733
127	0xbdb483fc	-0.088142365
128	0x3eba6e96	0.36412495
129	0x3d32fdf7	0.04369923
130	0x3efc142d	0.49234143
131	0x3e83324e	0.25624317
132	0xbd84b874	-0.06480494
133	0x3e827ee1	0.25487426
134	0xbda06329	-0.07831413
135	0xbd3c1dc6	-0.04592683
136	0xbf13916e	-0.57643783
137	0xbe37e602	-0.17958835
138	0x3e1f2f86	0.15545473
139	0x3d26b0f6	0.040696107
140	0x3e5f10b6	0.21783718
141	0x3d4787e7	0.04871359
142	0x3ef482ea	0.4775613
143	0xbd122c35	-0.03568669
144	0x3e5b7d1f	0.21434449
145	0x3e87eed4	0.265494
146	0x3ea08706	0.31353015
147	0x3ee573de	0.44814962
148	0x3edc409d	0.43018046
149	0xbe2b93c4	-0.16755587
150	0x3e4f80ce	0.20263979
151	0x3d613e10	0.054990828
152	0xbe2eb744	-0.17062098
153	0xbeb3b03f	-0.35095403
154	0x3ea179af	0.3153815
155	0xbe6b971e	-0.23006865
156	0xbd18e658	-0.037329048
157	0x3e1624e6	0.14662513
158	0x3d9e205e	0.07721017
159	0xbd1c30ce	-0.03813248
160	0x3e1ca73d	0.15298171
161	0xbd7c0f4e	-0.061538033
162	0x3df58341	0.11987925
163	0xbe58a4bd	-0.21156593
164	0x3e8ecd58	0.2789104
165	0xbd5b061c	-0.053472623
166	0x3ac0bd3c	0.0014704834
167	0x3ec955e4	0.39323342
168	0x3ea51b9e	0.32247633
169	0xbec1aea8	-0.37828565
170	0xbe5042b6	-0.20337948
171	0xbd80e41e	-0.0629351
172	0xbc109a30	-0.008825824
173	0x3dcbdff9	0.09954829
174	0xbe8feeb8	-0.28111815
175	0xbe94ce19	-0.2906349
176	0xbe576d19	-0.21037711
177	0x3e9b6fd1	0.30358747
178	0x3ec247d6	0.3794543
179	0xbe8da764	-0.2766677
180	0x3c8fa5f3	0.017535185
181	0x3f0e740c	0.55645823
182	0x3d904b4d	0.070456125
183	0x3d773285	0.060350914
184	0x3e8e3073	0.2777134
185	0x3ea9c2e2	0.33156496
186	0x3f040dd3	0.51583594
187	0x3e1f4ef8	0.15557468
188	0xbd2c09b5	-0.042001445
189	0xbe664f70	-0.2249124
190	0x3d9fd3f7	0.07804101
191	0xbde5f3f7	-0.11228173
192	0x3eda89b9	0.426832
193	0x3ed5be8a	0.41746932
194	0x3c865512	0.016397987
195	0xbe068172	-0.13135317
196	0x3ee5a46b	0.44852003
197	0x3eab1760	0.3341627
198	0xbe8ab185	-0.27088562
199	0x3eb5e00d	0.355225
200	0xbf1c821e	-0.61136043
201	0xbea417c0	-0.3204937
202	0x3e6a941f	0.22908066
203	0xbdfd2db9	-0.123622365
204	0xbe27e4c3	-0.1639586
205	0xbeb1d6f0	-0.34734297
206	0xbeb3041d	-0.34964076
207	0x3c4f79c0	0.012663305
208	0xbe86482a	-0.26226932
209	0xbe0c4c68	-0.13701022
210	0x3d9a2571	0.07526673
211	0x3e56fd8a	0.20995155
212	0xbe7eeadb	-0.24894278
213	0xbe305af7	-0.172222
214	0xbe27064f	-0.16311
215	0x3edc3999	0.43012694
216	0xbe116376	-0.14198098
217	0x3d32888a	0.043587245
218	0x3e20f2fe	0.15717694
219	0x3dd39c4b	0.10332545
220	0xbea7a8fd	-0.32746115
221	0x3eb28731	0.34868768
222	0x3d9574f4	0.07297698
223	0xbe8e8dfd	-0.27842703
224	0xbd36d91f	-0.044640657
225	0x3ecadc4e	0.39621204
226	0x3efc8ea8	0.49327588
227	0x3e668468	0.22511446
228	0xbe7b429e	-0.24537131
229	0xbde6a7ce	-0.11262475
230	0xbe8ad165	-0.2711288
231	0x3f2b7bb8	0.66985655
232	0x3ed221a5	0.41041294
233	0x3e1ac872	0.15115526
234	0x3e1c372a	0.15255418
235	0x3d09c6eb	0.03363697
236	0x3e3d64cb	0.1849548
237	0xbdf7b277	-0.12094586
238	0xbe45a35c	-0.19300598
239	0xbe20d367	-0.15705644
240	0x3d9cfb1e	0.07665084
241	0xbeddc7e7	-0.43316576
242	0xbe9490f4	-0.2901684
243	0xbc8f1a42	-0.017468575
244	0xbe9c04e9	-0.30472496
245	0x3d279d52	0.040921517
246	0xbe613c30	-0.21995616
247	0x3e6ea075	0.23303397
248	0x3ea13d5b	0.31492123
249	0x3e8c3cbe	0.27390093
250	0xbe8f6702	-0.28008276
251	0xbec1f9dd	-0.37885943
252	0x3e5a89d2	0.21341637
253	0x3e2cb223	0.16864829
254	0xbd4cbcf2	-0.04998488
255	0xbe847b18	-0.25875163

layers.0.bias f4 [64]
0	0xbebf8a03	-0.37409982
1	0x3dccc76c	0.09998974
2	0xbed62cbf	-0.41831014
3	0x3d2836a9	0.041067753
4	0x3dbc7395	0.09201733
5	0x3ec9a955	0.39387003
6	0x3dec6367	0.11542397
7	0x3e0ac590	0.13551927
8	0x3c764ac6	0.015032476
9	0x3da751b6	0.08169882
10	0x3e45d61d	0.19319959
11	0x3e84174b	0.2579902
12	0x3e14b917	0.14523731
13	0xbdbabe87	-0.091183715
14	0x3eb4274f	0.3518624
15	0x3d07b623	0.033132683
16	0xbd5507b1	-0.05200929
17	0x3deaa369	0.11456949
18	0x3ea8e9c6	0.32990855
19	0x3ed944f6	0.42435426
20	0x3d05e2ed	0.032687116
21	0xbca7c039	-0.020477401
22	0x3e380109	0.17969145
23	0x3ebb40c3	0.36572847
24	0xbe00d180	-0.12579918
25	0xbe0289ad	-0.12747832
26	0xbdab61a9	-0.083682366
27	0x3e2c19cf	0.1680672
28	0x3e9a2180	0.30103683
29	0x3d88b1a4	0.06674507
30	0xbd0d796f	-0.034539636
31	0x3e81d037	0.25354168
32	0xbd68fe43	-0.056883108
33	0xbe930385	-0.28713623
34	0x3ec32f21	0.38121894
35	0xbe8207ca	-0.25396568
36	0xbe3a65f2	-0.18202952
37	0x3e23c1b9	0.15991868
38	0x3e0991e9	0.13434567
39	0xbe582049	-0.21106066
40	0x3dc7d569	0.09757502
41	0x3d625737	0.055258956
42	0xbc9f4ac7	-0.019444836
43	0xbd3f834f	-0.046756085
44	0xbe35c5ca	-0.17751232
45	0xbe30e508	-0.17274868
46	0xbe215102	-0.15753558
47	0xbda54564	-0.08069876
48	0x3d929ba7	0.071585946
49	0xbd34179c	-0.04396783
50	0x3e3f23a8	0.18665946
51	0xbe331eae	-0.17492172
52	0xbeab74db	-0.3348759
53	0x3de2aca1	0.110680826
54	0xbdba6a4c	-0.09102306
55	0x3eac54a7	0.33658335
56	0xbe18053c	-0.14845747
57	0x3e26ffd2	0.16308525
58	0x3eb11562	0.34586626
59	0x3e22d698	0.15902174
60	0xbeb5b32c	-0.3548826
61	0x3c9d43f2	0.019197438
62	0xbdde61be	-0.108584866
63	0xbd965a89	-0.07341487

layers.2.weight f4 [32, 64]
0	0x3e7cc596	0.24684748
1	0xbecd0a5a	-0.4004696
2	0x3e5e4b4b	0.2170841
3	0x3d4b7a25	0.049677033
4	0xbe17477b	-0.14773361
5	0xbe6f09b2	-0.23343542
6	0xbe0c1aa3	-0.13682036
7	0x3ed121ca	0.40846092
8	0x3e03dece	0.12877962
9	0x3deb0481	0.114754684
10	0xbd9eb1d8	-0.07748765
11	0xbd9fc3d5	-0.07801024
12	0x3ebafee8	0.36522603
13	0xbead342c	-0.33828866
14	0xbe03c863	-0.1286941
15	0x3db623ae	0.08893524
16	0xbef151d0	-0.4713273
17	0x3e87e407	0.2654116
18	0xbe0789d5	-0.13236172
19	0xbe1797e7	-0.1480404
20	0x3e01a5e8	0.12660944
21	0xbe991e6e	-0.29906029
22	0xbe53abef	-0.20671056
23	0x3e335bf2	0.17515543
24	0xbeaffbc3	-0.34371766
25	0x3df01d09	0.11724288
26	0xbdefd7dd	-0.117110945
27	0xbe5c941f	-0.21540879
28	0xbe95460a	-0.29154998
29	0x3e1f1373	0.15534763
30	0x3ea3a15e	0.3195905
31	0x3e55c39d	0.20875402
32	0x3dc06b8e	0.093955144
33	0x3dd5270d	0.10407839
34	0xbe281f67	-0.16418229
35	0x3d1f8701	0.03894711
36	0x3d7fa663	0.062414538
37	0xbdcd6052	-0.10028137
38	0xbd8091b2	-0.06277789
39	0x3ebde6ec	0.37090242
40	0x3d4902e5	0.049075026
41	0xbe558339	-0.20850839
42	0xbebc798e	-0.3681149
43	0x3e4f7033	0.20257644
44	0x3e94effe	0.2908935
45	0xbe158687	-0.146021
46	0x3e78089e	0.24222037
47	0xbe7b8703	-0.24563222
48	0xbe5955b3	-0.21224098
49	0x3e295748	0.16537201
50	0xbe84c1d0	-0.25929117
51	0xbe729fc1	-0.23693754
52	0x3dce2399	0.100653835
53	0xbe67c9c2	-0.22635558
54	0x3d38bc63	0.045101535
55	0xbe8ac529	-0.27103546
56	0x3ea456a7	0.3209736
57	0x3ddc631b	0.1076109
58	0x3c0606b8	0.008180313
59	0xbebfbc55	-0.37448373
60	0x3e384044	0.17993265
61	0xbe44a8ac	-0.19204968
62	0xbe82c159	-0.25538138
63	0xbe7388f6	-0.23782715
64	0x3d1748f7	0.03693482
65	0xbec4ae9f	-0.38414475
66	0x3e42c4c4	0.19020373
67	0x3e0a418e	0.1350157
68	0xbe719c56	-0.23594794
69	0xbe2a8f00	-0.16656113
70	0xbcee8808	-0.0291176
71	0x3eae5215	0.34047
72	0x3d7dab36	0.061930858
73	0x3ec0941e	0.37613004
74	0x3a442032	0.0007481604
75	0xbcc02be3	-0.023458427
76	0x3def9bf1	0.11699665
77	0xbe3648cf	-0.17801212
78	0xbe516189	-0.20447363
79	0x3e9cdeb6	0.30638665
80	0xbeb3d3f3	-0.35122642
81	0x3e5bad00	0.21452713
82	0xbd312c81	-0.043255333
83	0xbda5d953	-0.08098092
84	0x3d9c5b8e	0.0763465
85	0xbd80935f	-0.06278109
86	0xbe4a181d	-0.19735761
87	0xbd706cc5	-0.05869748
88	0xbec57264	-0.38563836
89	0x3e5f3194	0.21796256
90	0xbe511a33	-0.2042015
91	0xbdd56289	-0.10419185
92	0xbe686cb4	-0.22697717
93	0x3ea5ae56	0.3235957
94	0x3e84fe0a	0.25975066
95	0x3e85a5b9	0.26103
96	0x3d2d306d	0.04228251
97	0x3ccda593	0.025103366
98	0xbe47e4da	-0.19520894
99	0x3ccdaa33	0.025105571
100	0x3e6f1209	0.23346724
101	0xbe71d639	-0.23616876
102	0xbd502f53	-0.050826382
103	0x3ea86265	0.3288757
104	0x3e08d732	0.1336334
105	0xbe2f3653	-0.17110567
106	0xbea3b8b6	-0.3197686
107	0x3e4ef51e	0.20210692
108	0x3e180951	0.14847304
109	0xbeac6363	-0.33669576
110	0x3e5e1dcd	0.21691056
111	0xbe2291bf	-0.1587591
112	0xbe8ff0e3	-0.2811347
113	0x3e665497	0.22493206
114	0xbe5c6df0	-0.21526313
115	0xbebccf12	-0.36876732
116	0x3e482026	0.19543514
117	0xbe42ef3e	-0.19036576
118	0x3e191036	0.1494759
119	0xbea73258	-0.32655597
120	0x3eab7e55	0.3349482
121	0x3d5de069	0.054169092
122	0xbce68824	-0.028141089
123	0xbeb896fa	-0.36052686
124	0x3e216be0	0.15763807
125	0xbe4c8302	-0.1997185
126	0xbeeb2167	-0.4592392
127	0xbe1bd00f	-0.15216087
128	0xbdb19450	-0.086708665
129	0x3ea5b423	0.32363996
130	0xbe693230	-0.22773051
131	0x3cce6c8b	0.025198242
132	0x3e8a7fa2	0.270505
133	0x3e5f8874	0.21829396
134	0x3dd1d7d1	0.10246242
135	0xbe991553	-0.29899082
136	0xbe8d94f0	-0.27652693
137	0x3e1ee6bd	0.15517707
138	0x3e5a184c	0.21298331
139	0x3e87de8a	0.2653697
140	0xbceaec81	-0.028677227
141	0x3ee13ea5	0.43993106
142	0x3db9d969	0.09074671
143	0xbe972119	-0.2951744
144	0x3e9bd5b5	0.30436483
145	0x3e341bc9	0.17588724
146	0x3dc66d6c	0.09688839
147	0x3df9e89f	0.12202572
148	0xbe8bdc06	-0.27316302
149	0x3e30498f	0.1721556
150	0x3e99ccd6	0.3003909
151	0x3e553746	0.20821866
152	0x3ed9aba3	0.4251376
153	0xbda4845c	-0.08033058
154	0x3e9ba46c	0.3039888
155	0x3e36dc4f	0.17857479
156	0x3e36ed09	0.17863859
157	0x3e3fb409	0.18721022
158	0xbddd55dd	-0.10807393
159	0xbd5269c1	-0.051370386
160	0xbdbc45fa	-0.091930345
161	0xbe791abe	-0.24326608
162	0x3dc94059	0.098267265
163	0xbe688e6e	-0.22710583
164	0xbe09ea1e	-0.13468215
165	0x3e69a8f7	0.22818361
166	0x3db401ef	0.08789431
167	0xbdd65bcb	-0.10466727
168	0xbe242517	-0.16029774
169	0x3e1d4622	0.15358785
170	0x3e13725a	0.1439909
171	0xbe3db6f5	-0.18526824
172	0xbe6bbcbf	-0.2302122
173	0x3e504e57	0.20342384
174	0xbde7fd56	-0.11327617
175	0x3e5fe412	0.21864346
176	0x3e6d8b52	0.23197678
177	0xbe14b049	-0.14520372
178	0x3dea939b	0.11453935
179	0x3eda649b	0.4265488
180	0xbeac87bc	-0.33697307
181	0x3df48b6b	0.11940654
182	0xbdf9556c	-0.12174496
183	0x3e70f008	0.23529065
184	0xbe3b288e	-0.18277189
185	0x3e6a81ac	0.22901028
186	0x3e2aef5c	0.16692871
187	0x3e7132ca	0.2355453
188	0xbbd4e95c	-0.006497545
189	0x3eb52a5f	0.3538389
190	0x3eba2c32	0.36361843
191	0x3edac318	0.4272697
192	0x3e50e225	0.20398767
193	0xbe37ec84	-0.17961317
194	0x3e47195e	0.1944327
195	0x3d5a416d	0.05328505
196	0xbe9d3501	-0.307045
197	0xbdf4bcec	-0.119500965
198	0xbe115ade	-0.1419482
199	0x3ec593f9	0.38589457
200	0x3e4f1622	0.20223287
201	0x3da3be3f	0.07995271
202	0xbbc4d8eb	-0.006007304
203	0xbda23c1e	-0.07921623
204	0x3e8c85d9	0.27445868
205	0xbe98bd57	-0.29831955
206	0xbd9439c5	-0.07237581
207	0x3e255711	0.16146494
208	0xbea29138	-0.31751418
209	0x3e2e37fc	0.17013544
210	0xbc970e56	-0.018439453
211	0xbe4a3f8a	-0.197508
212	0x3dc124a4	0.09430817
213	0xbda9e5b0	-0.082957625
214	0xbe2d4f6f	-0.16924833
215	0x3e24a914	0.16080123
216	0xbeb15539	-0.34635332
217	0x3dff2969	0.1245907
218	0xbe30d001	-0.17266847
219	0xbe90ce6d	-0.2828249
220	0xbd8e7abf	-0.06957006
221	0x3e1ba382	0.15199092
222	0x3d4834dd	0.04887854
223	0x3e135660	0.14388418
224	0x3cbbddb7	0.02293287
225	0x3e11389a	0.14181748
226	0xbe1bcfa9	-0.15215935
227	0xbc89f8cb	-0.016842267
228	0x3de13777	0.10996907
229	0xbe082703	-0.13296132
230	0xbe8953ec	-0.2682184
231	0x3eb090bf	0.34485433
232	0x3d5bd958	0.053674072
233	0xbe17afd1	-0.14813162
234	0xbe5594c3	-0.2085753
235	0xbcc267f3	-0.023731207
236	0x3e4303d3	0.19044428
237	0xbdc68ebb	-0.096951924
238	0x3c668b82	0.014071347
239	0xbe769114	-0.2407878
240	0xbdad197d	-0.08452127
241	0x3e4b7d55	0.19872029
242	0xbe7dd10a	-0.24786773
243	0xbe2a994a	-0.16660038
244	0x3dd2bda6	0.10290079
245	0xbeed25e9	-0.46317986
246	0x3df3ec66	0.11910324
247	0xbe1de4d3	-0.15419321
248	0x3ead47db	0.33843884
249	0x3e1d0a08	0.15335858
250	0xbd804bb7	-0.062644415
251	0xbe3e39d9	-0.18576755
252	0x3e5d1708	0.21590817
253	0xbe59fd9d	-0.21288152
254	0xbe96f50b	-0.29483828
255	0xbe9c6aa6	-0.30550116

layers.2.bias f4 [32]
0	0xbdc381fc	-0.09546277
1	0xbd9392a6	-0.07205705
2	0x3da0e4ed	0.07856164
3	0xbe4e716c	-0.20160455
4	0x3dd64ade	0.104634985
5	0x3e5b3f58	0.21410882
6	0x3dafff10	0.08593571
7	0xbdd2895c	-0.102801055
8	0x3dff8c6a	0.12477954
9	0x3c2fa17a	0.010719651
10	0x3d6e053f	0.05811047
11	0x3bbcbf40	0.0057601035
12	0x3d0d2b5a	0.03446517
13	0xbd2c359f	-0.042043325
14	0x3e309d41	0.17247488
15	0x3e8b3138	0.27185988
16	0xbe008300	-0.12549973
17	0x3e2a255c	0.16615814
18	0xbd0e6476	-0.034763776
19	0xbd9408f8	-0.07228273
20	0xbdaf0804	-0.08546451
21	0x3e5495b4	0.20760232
22	0x3e3ee9d9	0.18643893
23	0x3e0f38af	0.13986467
24	0xbe21966d	-0.15780039
25	0x3db7ed71	0.08980835
26	0x3cddd029	0.027076798
27	0xbced382e	-0.028957453
28	0xbdd01c6b	-0.1016167
29	0x3e085249	0.1331264
30	0x3c9b6656	0.018969696
31	0x3d6068f0	0.054787576

layers.4.weight f4 [1, 32]
0	0x3eae8ab0	0.34090185
1	0x3eb04318	0.34426188
2	0xbe8974ff	-0.26847073
3	0x3ec868d4	0.39142478
4	0xbe8d4516	-0.2759177
5	0xbeef79a2	-0.46772486
6	0xbe9e1083	-0.30871972
7	0x3e837846	0.256777
8	0xbe8ea741	-0.2786198
9	0x3e8330cd	0.2562317
10	0xbe999e2c	-0.30003488
11	0xbe94470a	-0.28960449
12	0xbeca8635	-0.39555517
13	0x3e0218a2	0.12704709
14	0xbe971eb0	-0.295156
15	0xbf0b6a07	-0.5445866
16	0x3e994e9a	0.2994278
17	0xbe58b228	-0.21161711
18	0x3e9458bd	0.28973952
19	0xbad712f0	-0.0016408842
20	0x3eb7c802	0.3589478
21	0xbeaed0f7	-0.34143803
22	0xbe87ad0e	-0.26499218
23	0xbe9b57ec	-0.30340517
24	0x3e971702	0.2950974
25	0x3f26c80b	0.6514899
26	0xbeaa915b	-0.33314022
27	0x3eb514cf	0.35367438
28	0x3eb46631	0.35234216
29	0xbe96ecad	-0.29477444
30	0xbe95d153	-0.29261264
31	0xbe9f5c1d	-0.31124964
