Models/SavedModels/lung_cancer_model.pth (torch, 15340 bytes, 5 tensors)

fc1.weight f4 [64, 15]
000000 5c b3 d2 bc e6 4e 74 3e 0d 1a e0 bd 4b b5 a6 3e
       -0.02572029 0.23858222 -0.10942469 0.3256019
000010 5f f2 d1 3d b7 42 86 3e bf 70 81 bd b2 7c 2a 3e
       0.10251307 0.26222774 -0.06320333 0.1664913
000020 e7 b9 b2 3e 87 12 95 be 57 98 4e 3e e9 4e db 3d
       0.34907457 -0.29115698 0.201753 0.1070841
000030 76 ff 5b 3e be 17 93 3d 2c b0 86 3d 83 1e 1b be
       0.2148417 0.07182263 0.06576571 -0.15148358
000040 26 94 ab 3e 67 a9 78 3d 2e 47 9c be d3 44 7f 3e
       0.33511466 0.06070843 -0.30523056 0.24928598
000050 63 f2 0d bf 9a 2f f9 bd 45 73 85 3d f4 c0 75 3e
       -0.5544798 -0.121672824 0.065161265 0.23999387
000060 c5 ed a8 be 5b 55 90 be 73 63 75 be d1 20 81 3d
       -0.32993904 -0.2819012 -0.23963718 0.06305087
000070 21 ed 60 be 5d c9 07 bf 03 68 09 3e ac e9 89 be
       -0.21965457 -0.5304163 0.13418584 -0.2693609
000080 10 41 4d 3e 2a fe d7 3d 07 d9 16 3e 0b 8d 74 3d
       0.2004435 0.10546525 0.14731227 0.05970482
000090 b1 b2 9f 3d cf cb 88 3e d2 cb 77 bc 7b a3 2a bc
       0.077977546 0.26717994 -0.015124278 -0.010414953
0000a0 f6 53 13 3e 84 b9 b2 3d 80 c4 13 3e 82 b6 7c 3e
       0.14387497 0.087267905 0.14430428 0.24678996
0000b0 50 39 73 39 07 8f c8 bc 2f 9a d4 3d 08 73 d4 3d
       0.00023195636 -0.024482263 0.10380971 0.10373503
0000c0 e8 51 30 3e 03 04 58 3d 4b 93 5f bc a6 41 2a 3e
       0.17218745 0.0527382 -0.013645957 0.16626605
0000d0 51 60 a9 bc 66 63 84 3e c6 73 be 3d 79 bc 52 3e
       -0.02067581 0.25857085 0.09299426 0.20579709
0000e0 9b 84 d7 3d 03 b0 03 3e 48 8c 9b 3e fb 5c df bd
       0.10523339 0.12860112 0.30380464 -0.109064065
0000f0 76 07 50 bd 87 2f 13 be d9 12 9c 3c 52 03 0b 3e
       -0.050788365 -0.14373599 0.019051956 0.13575485
000100 cb 6b 92 bd 87 32 88 bd 3f 61 80 3e be 04 26 be
       -0.07149466 -0.06650262 0.25074193 -0.16212747
000110 d6 ac c7 bd 93 7b 8a be b5 7f 04 3e ae 86 9e 3b
       -0.09749763 -0.27047405 0.12939341 0.0048378324
000120 a3 a8 bd 3e a1 1e 3e be d6 37 01 bf 5e 85 6e be
       0.37042722 -0.18566372 -0.50475824 -0.23293063
000130 e7 89 f0 bd 14 01 2c 3e 00 ad 15 3e cc 71 8e bd
       -0.11745053 0.16797286 0.14616776 -0.06955299
000140 60 34 63 bd 75 ac a7 be 5a d6 82 bd 2e f1 f6 3c
       -0.05546987 -0.32748762 -0.063885406 0.0301443
000150 74 36 06 3e d7 7d 74 be 61 1e 72 3d 32 1e 4c be
       0.1310671 -0.23876129 0.059111003 -0.19933394
000160 c3 29 b4 bd 43 d3 52 3e 0d 72 38 bd 5a 47 d1 3d
       -0.08797028 0.20588402 -0.045030642 0.10218687
000170 62 fe 4c 3e 12 b8 af 3e c1 bc c2 be ad 6d 47 be
       0.20018914 0.34320122 -0.38034633 -0.19475432
000180 e7 4f e7 3b b8 15 67 be db 5c fa bd 17 c2 e3 be
       0.0070590856 -0.22566879 -0.12224742 -0.44484016
000190 67 e2 74 be 98 0b 82 3d 82 f8 c3 3d 0c e7 af bd
       -0.2391449 0.063498676 0.095688835 -0.085889906
0001a0 fc 41 d6 bd 90 f6 c9 be a5 20 38 bc c6 47 d4 be
       -0.10461804 -0.39445925 -0.011238252 -0.4146101
0001b0 b4 44 da be e3 92 a7 be 42 ae f2 3e 4c a9 69 3e
       -0.4263054 -0.32729253 0.47398573 0.22818488
0001c0 27 95 06 3e b6 90 76 be c6 20 01 be ee e6 ff bd
       0.13142835 -0.2407864 -0.12610158 -0.12495218
0001d0 34 f4 de bb c7 b4 01 bf 11 2c 4d 3d d7 87 e3 bd
       -0.0068040136 -0.5066647 0.050090853 -0.11109894
0001e0 98 02 2a be fe 59 0b 3e 80 7b 16 3d c7 1d a4 be
       -0.16602552 0.13608548 0.036738873 -0.32053968
0001f0 f6 9e 83 be af d7 19 bd 79 54 ee bd 4d 8c 15 be
       -0.25707215 -0.037559208 -0.11637206 -0.14604302
000200 4c 1b c7 3e 5c 73 af 3d 5d 1d 07 3f bf 09 8b 3e
       0.38888013 0.08566925 0.5277918 0.27155873
000210 3a e0 ea bd 41 9e 30 3e 78 c7 a7 bc f9 69 90 bc
       -0.11468549 0.17247869 -0.020480856 -0.017628657
000220 b4 86 82 be b0 e3 14 be 65 23 8c 3d 20 22 d1 bd
       -0.25493395 -0.14539981 0.068426885 -0.10211587
000230 7a b7 84 3e 1c b1 42 be bb ec 21 3e 88 d7 2a bd
       0.25921232 -0.19012874 0.15812962 -0.041709453
000240 5f a1 ef 3d 08 48 6d 3e 3c b0 58 3e 9b 11 ce 3e
       0.11700701 0.23172009 0.21160978 0.40247807
000250 0c 19 b8 3e 9f 5c 21 be ef 15 d4 3d f1 92 45 bd
       0.3595661 -0.15757988 0.10355746 -0.048235837
000260 00 3c d8 bd b3 c9 8f be 8a 96 51 3e 8a 02 5f be
       -0.10558319 -0.28083572 0.20467582 -0.21778312
000270 e4 4a 94 bb 62 ce 10 3e 9c f1 0b 3b df 47 8b be
       -0.004525529 0.14141229 0.0021353727 -0.2720327
000280 98 ca 10 3e 31 b6 a7 bd bc f3 d1 3d a1 d1 34 be
       0.14139783 -0.08189047 0.10251567 -0.17658092
000290 16 6b 82 3d 22 1f 13 bd 87 2c 22 bd 65 0a 5a 3e
       0.06368081 -0.035918362 -0.039593246 0.21293028
0002a0 9d 01 89 3e f5 2b ae be 88 be 6e be 4c 8d dd bd
       0.26759043 -0.34017912 -0.2331487 -0.10817966
0002b0 79 5c f2 bb 55 b6 c0 bb ac 0a 6e be f4 39 a2 bd
       -0.0073962775 -0.0058811107 -0.23246258 -0.0792121
0002c0 21 1a 54 be 5b d4 0c 3e 07 93 a5 3e 01 8b 43 be
       -0.20713092 0.13752882 0.32338735 -0.19095995
0002d0 a4 92 db bb 40 cc 1d 3e 2b a3 fb 3b 5a bd 7e bd
       -0.0067008305 0.15409946 0.0076793632 -0.0621923
0002e0 28 54 7e 3e 81 82 08 3e 86 d0 9d 3e 89 93 7e 3d
       0.2483679 0.13331033 0.30823153 0.06215242
0002f0 d1 d0 0c bd 13 ff b3 3d dc 4e 86 3d 66 59 64 bd
       -0.03437883 0.08788886 0.0655801 -0.05574932
000300 76 a4 61 3e c0 d6 76 3e d5 1a b1 bc 8b bd 7f 3d
       0.22035393 0.24105358 -0.02161924 0.06243662
000310 2a 84 11 3d fd 6e df 3c c6 31 21 3e 35 f2 f4 3d
       0.035526432 0.027274603 0.15741643 0.1196026
000320 97 93 02 bf d8 22 3f be 1e 1f e3 bc 5c 80 e4 bd
       -0.51006454 -0.18665636 -0.027724799 -0.11157295
000330 13 ee 3c be 78 13 0e be f7 0c 69 be 25 05 aa be
       -0.18450193 -0.13874614 -0.22758852 -0.3320705
000340 98 92 a4 3d 53 a5 83 3e e1 ba f9 3c da 52 1e 3e
       0.08035773 0.2571207 0.030484619 0.15461293
000350 69 7e 3a be 4c 21 75 be 34 20 29 bd b2 d5 78 3e
       -0.18212284 -0.23938483 -0.041290477 0.24300268
000360 32 77 83 bd 14 7b 7d bd e4 37 3c 3e 82 e8 f6 ba
       -0.06419219 -0.061884955 0.18380696 -0.0018837603
000370 20 88 a2 be 72 54 32 3e e7 91 50 3c fa b2 a9 be
       -0.3174448 0.17415026 0.012730098 -0.3314436
000380 7e 58 ea bd bf e1 97 3e ee 41 11 3e 18 6d 80 3e
       -0.1144266 0.29664418 0.14185306 0.25083232
000390 e6 72 b8 be c1 31 09 bf 85 3d 8d be 1f 15 87 3e
       -0.3602516 -0.53591543 -0.27585998 0.26383302
0003a0 ca cb d6 3d 5a 0a 0e 3d f4 f0 84 3e 74 dc 3c 3e
       0.104880884 0.03467784 0.25965083 0.18443471
0003b0 0c 0c 71 3d 43 e0 e1 be 6c 1f c3 bd 71 3f 55 be
       0.05884938 -0.4411641 -0.095274776 -0.20824982
0003c0 f6 43 c3 bc f8 0c 7c be 44 d0 dd be dd 10 e6 bd
       -0.023836117 -0.24614322 -0.43322957 -0.11233685
0003d0 f0 84 17 be 95 95 d1 bd 9f b6 48 be a3 e9 41 3e
       -0.14796805 -0.10233609 -0.19600914 0.18936782
0003e0 e4 13 3e 3d 75 49 53 3e 7d b3 54 be ff 9d 3e be
       0.046405688 0.2063349 -0.20771594 -0.18614958
0003f0 9f f7 1d 3e 9e 28 aa bd f9 9a d7 bd 86 13 8e be
       0.15426491 -0.08308528 -0.105276056 -0.2774927

fc1.bias f4 [64]
000000 8a df e2 be f6 dc a1 3d d9 34 d9 be a0 48 e9 bd
       -0.44311172 0.07903473 -0.42423132 -0.11390805
000010 7d 99 14 3d 94 08 bd 3e 78 ea 1b 3e c2 71 06 3e
       0.03627919 0.36920607 0.15226161 0.13129333
000020 c0 5e f8 ba 5c 69 f8 bd ba 72 3d 3e 4b b7 4d 3e
       -0.0018949136 -0.12129471 0.18500796 0.20089452
000030 96 13 1e be 59 13 cc 3b 4e 35 ba 3e 7a 71 18 3d
       -0.15437159 0.0062278924 0.36368793 0.037217595
000040 7f f7 60 3b 92 1b 9b bc 03 ce b4 3e cd 58 db 3e
       0.0034327207 -0.018934045 0.35313424 0.42841187
000050 e8 ff 11 bd 1e ef 37 bd c8 f8 76 3e 12 fd a9 3e
       -0.03564444 -0.044905774 0.2411834 0.3320089
000060 d4 69 44 be b2 18 25 be 90 d6 06 be b0 35 e1 3d
       -0.19180995 -0.16122702 -0.13167787 0.10996568
000070 3b a7 7f 3e cc 03 43 3c 7a ec 13 be 26 24 fd 3d
       0.24966137 0.011902761 -0.14445677 0.123604104
000080 11 8a 09 be 3c 8a a3 be e6 19 aa 3e ef f9 ae be
       -0.13431574 -0.31941402 0.33222884 -0.3417506
000090 4d 83 60 be c3 81 42 3e 77 3e 1c 3e 55 99 92 be
       -0.21925087 0.18994813 0.15258203 -0.28632608
0000a0 41 7d 89 3d 78 31 9e 3d 01 eb 72 bd 6f b8 01 be
       0.067133434 0.07724279 -0.05930615 -0.12668012
0000b0 ff 9f 8b be fb 8c 0b be 33 3c 8a be 1a 61 90 bd
       -0.27270505 -0.13627999 -0.26999053 -0.07049771
0000c0 90 57 a9 bc 78 38 44 be b1 ad 2c 3e f1 d9 32 be
       -0.020671636 -0.19162166 0.16863133 -0.1746595
0000d0 02 53 a7 be 77 ae c8 3d 1f 19 10 be 8d e4 ac 3e
       -0.32680517 0.097989015 -0.14072083 0.3376812
0000e0 5d de 11 be b6 d1 6d 3d e5 86 06 3e 6a 03 19 3e
       -0.14244981 0.058061324 0.13137396 0.14942709
0000f0 27 bd e4 be a1 5d b0 3b 2a 82 47 be 81 23 c2 bd
       -0.44675562 0.005382255 -0.19483247 -0.09479428

fc2.weight f4 [32, 64]
000000 f4 d2 be 3e d0 0b 98 be e6 06 48 3e b1 6b 42 3d
       0.3727032 -0.29696512 0.19533882 0.047465984
000010 46 7a 94 bd 10 4d e9 bd a3 c2 38 be 2f 4f a9 3e
       -0.07249884 -0.11391652 -0.18042998 0.33068225
000020 9e 3c 85 3d fe d7 76 3c 03 f5 98 3c 19 b1 91 bd
       0.065057024 0.015066145 0.018671518 -0.07113857
000030 56 e5 61 3e 54 cc 9a be a1 65 71 bd bb 03 80 3d
       0.22060141 -0.30234015 -0.05893481 0.062507115
000040 67 90 ea be 96 e2 81 3e 48 a7 a9 bd 45 71 91 bd
       -0.45813295 0.25368184 -0.082838595 -0.071016826
000050 cd ec 4f 3d 25 df 99 be 9f ea 16 be 49 0c ec 3d
       0.05076294 -0.30053058 -0.14737938 0.11525781
000060 7e 6b 98 be e3 2e fb 3d 49 85 91 3c 7d 8d 82 be
       -0.2976951 0.12264802 0.01776375 -0.25498572
000070 89 dd 53 be d4 10 d9 3c e3 24 7f 3e c2 99 bd 3d
       -0.20689978 0.026497282 0.24916415 0.092578426
000080 f4 a3 9a 3d a5 72 59 3d 06 c6 9a bd aa 36 bb 3d
       0.07550803 0.05308785 -0.07557301 0.09141286
000090 27 d9 d6 3d 0a 25 03 bd e3 46 0c 3d 81 97 a9 3e
       0.10490637 -0.032017745 0.03424729 0.331234
0000a0 8c 26 e3 3c e2 96 b5 bd 7b 82 a0 be 6f 3c 39 3e
       0.027728342 -0.08866669 -0.3134955 0.1808946
0000b0 a4 24 91 3e 96 28 88 be ea 78 41 3e b4 be c1 bd
       0.28348267 -0.26593465 0.18893781 -0.09460202
0000c0 6f 5c 4f be c5 e7 28 3e 7a 10 40 be 43 39 bf be
       -0.20250104 0.16494663 -0.18756285 -0.37348375
0000d0 e9 84 0f 3e 5e 57 17 be 37 ad 4e 3d 35 2a 7d be
       0.14015545 -0.14779422 0.05045816 -0.24723132
0000e0 1a f1 7c 3e f6 52 c9 3c 41 a3 15 3d 5d 4c 90 be
       0.24701348 0.024575692 0.036532644 -0.2818326
0000f0 0d 95 18 3e bc 1d 1b be 81 e9 8f be 39 7c 93 be
       0.14900608 -0.15148062 -0.28107837 -0.28805712
000100 8d 55 24 3e 21 a3 b7 be da f8 55 3e 68 6c fc 3d
       0.1604826 -0.35866645 0.2089571 0.12325364
000110 a1 e4 3d be 50 c1 af bc 26 60 cd bd ec 25 b7 3e
       -0.18544246 -0.021454483 -0.100281045 0.3577112
000120 cc fd 3c bc ca 94 2a 3e ff b1 01 3e f9 b0 28 bb
       -0.011535119 0.16658321 0.12665556 -0.002574025
000130 09 a0 c0 3d c0 49 7c bd 0d 38 03 be 4f 1f 43 3e
       0.09405524 -0.06159377 -0.1281435 0.19054912
000140 8e 64 9b be 6b 57 4a 3e ee 87 8b 3c a5 ac ea bc
       -0.30350155 0.1975991 0.01703259 -0.028646776
000150 4e 55 28 3d 62 77 07 be 8c 9d a9 bd 8c de a0 bd
       0.041096978 -0.13229135 -0.08282003 -0.078549474
000160 a7 b0 a9 be 6b d4 8b 3e 17 ab 34 be 4d 2a 0b be
       -0.33142588 0.273105 -0.1764339 -0.13590355
000170 ee e3 17 be f4 74 5a 3e cc 7b 31 3e fb 09 10 3e
       -0.14833042 0.21333677 0.17332381 0.14066307
000180 7e 0e cd bb 26 5d a2 bc ca 82 62 bd a2 42 a0 3d
       -0.006257831 -0.019819807 -0.05530051 0.07825209
000190 1f b3 90 3e 88 f7 2a be 11 26 0b 3d 57 bf 97 3e
       0.2826166 -0.16695988 0.03397185 0.29638168
0001a0 3a dd 07 3e ac a7 2f be 15 5f d6 be fa 4e 3d 3e
       0.13267985 -0.17153805 -0.41869417 0.18487158
0001b0 86 4c 2b 3e c6 8c c0 be ba 72 62 3e bd b0 47 be
       0.1672841 -0.37607402 0.22114077 -0.19501014
0001c0 b0 17 2d be 81 ec 60 3e 6e e5 6a be 26 b9 ec be
       -0.16903567 0.21965219 -0.22939083 -0.46235007
0001d0 35 01 13 3e b9 5f 25 be b4 80 23 3e f3 af 8f be
       0.14355929 -0.16149797 0.15967065 -0.28063926
0001e0 9b 82 ab 3e 13 f6 1b 3c 3e e4 0a 3d e5 cf a9 be
       0.33498082 0.009519118 0.033909075 -0.33166423
0001f0 11 31 2d 3e 80 fa 34 be e8 79 e4 be ef 01 74 be
       0.16913249 -0.17673683 -0.44624257 -0.23828863
000200 da 8c 2c be 33 9a a8 3e 46 62 d0 bd b3 7f 97 bc
       -0.16850606 0.32930145 -0.10174994 -0.018493509
000210 de 41 49 3e be 33 15 3e 35 87 1a 3e 5c 03 84 be
       0.19654033 0.1457052 0.1509064 -0.25783813
000220 5f d0 c5 be e5 9b 1d 3e b8 66 cb 3d fb bc 3c 3e
       -0.38635537 0.153915 0.099317014 0.18431465
000230 4a 47 c3 bd 46 94 6e 3e 55 fd 75 3d 5d 8b 98 be
       -0.09535082 0.2329875 0.06005605 -0.29793826
000240 e0 1f 2f 3e 1a 98 a1 3d d6 7a 07 3d f0 81 02 3e
       0.17102003 0.07890339 0.03307613 0.1274488
000250 e2 df 4d be 3e d1 57 3e f7 79 3c 3e c0 46 d6 3d
       -0.20104936 0.21075913 0.18405901 0.10462713
000260 54 f3 a6 3e 93 5b 89 bc 12 37 4a 3e 00 be 5f 3e
       0.3260752 -0.016767299 0.1974757 0.21849823
000270 5c 16 ff 3d 55 f0 9a 3d 9a 3f 83 bd 23 9c 1f bd
       0.124554366 0.07565371 -0.064086154 -0.038967263
000280 ff 96 0e bc 03 60 65 be 8b 7f a0 3d 24 78 87 be
       -0.008702992 -0.22399907 0.07836827 -0.26458848
000290 a1 13 e3 bd 90 58 24 3e d3 55 89 bc a6 2d 37 bb
       -0.11087728 0.16049409 -0.016764557 -0.0027950793
0002a0 ed c4 0f be 7a fb c0 3d 02 2b 67 3e fb aa 0e be
       -0.14039965 0.09422965 0.22575 -0.13932411
0002b0 9d 31 4e bd 58 da ac 3e 0f 24 77 bd cb 7e 80 3e
       -0.050340284 0.33760333 -0.060337123 0.25096735
0002c0 26 1d 21 3e 01 1d 95 bd 3f 8e 05 3e 27 a1 0e 3f
       0.15733775 -0.07280923 0.13042544 0.5571465
0002d0 96 9c 3b be 65 ea 7a 3c 2a 32 83 bd 44 6e 85 3e
       -0.18321452 0.015314673 -0.064060524 0.26060688
0002e0 f2 f1 ba bc ba ae 40 3e 53 53 ce 3d ce 39 0c 3e
       -0.022820447 0.18816653 0.100744866 0.13693926
0002f0 18 c6 32 3d ab a0 b3 3e 63 64 91 3e 61 80 05 3f
       0.04364595 0.35083517 0.283969 0.52149016
000300 58 d2 a9 3e c7 5e a5 be d6 d9 27 3e b4 b4 96 3d
       0.33168292 -0.32298872 0.16391692 0.07358685
000310 cd ea a1 be 07 15 b3 bd 46 79 6a be 68 8a 7c 3e
       -0.3162445 -0.08744245 -0.22897825 0.24662173
000320 3c df e9 3d 8a b4 af 3c 0f 5b c1 3d 3e 89 33 be
       0.11419532 0.021448392 0.09441196 -0.17532822
000330 6f 7a 4f 3e 8f cf 93 be a4 6d 20 bb 45 76 14 3d
       0.20261548 -0.28869292 -0.0024479413 0.036245603
000340 fb cd 61 be dd 87 65 3e 2b f3 96 bd 55 5f 5a be
       -0.22051232 0.22415109 -0.07370599 -0.21325429
000350 d6 53 38 3d 5e 94 96 be 2f e4 8f be d4 08 15 3e
       0.045001827 -0.2941007 -0.28103778 0.14554149
000360 8f 63 fb be 38 02 66 3e 71 59 a4 be 19 ed 9e be
       -0.49099395 0.22461784 -0.32099488 -0.31040266
000370 4f f8 1e be bf 20 1c 3e 3e 9b d4 bc ae 2a b6 3c
       -0.1552441 0.15246867 -0.025952931 0.022237148
000380 22 81 e4 3c 2b a6 b0 3d 61 1d 7a bd f2 1e 68 3d
       0.027893607 0.08625444 -0.061063174 0.056670137
000390 73 a1 36 3e 9b 5d e6 bd f7 06 5d be 62 cd 94 3e
       0.17835025 -0.112483226 -0.21584688 0.29062945
0003a0 b6 71 36 3d 07 21 6f be 6c 7d 41 be 46 41 07 bc
       0.044542037 -0.23352443 -0.18895501 -0.0082553085
0003b0 31 1b 8e 3e 1f 7d 35 be fe 31 b8 3c 6a c4 66 be
       0.2775512 -0.17723511 0.022484776 -0.22535864
0003c0 39 3f 29 39 a4 e7 2e 3e eb 5a 26 be be 1d 6e be
       0.00016140648 0.17080551 -0.1624562 -0.23253533
0003d0 63 f6 fc 3d 8e 7e c3 be 06 1e a7 3d 6d f0 c3 bd
       0.12351682 -0.3818249 0.081600234 -0.09567342
0003e0 6f e5 8a 3e 3e 5b 4d 3e 95 6e 24 3b 97 d8 d7 bd
       0.2712817 0.20054337 0.0025090326 -0.10539358
0003f0 ea 75 80 3e 1f 51 8c be d8 8c a5 be b9 65 59 be
       0.2508996 -0.2740564 -0.32334018 -0.2123021

fc2.bias f4 [32]
000000 8c 90 c8 bd e6 81 9d bc a4 8d 99 3d 2a 52 42 be
       -0.09793195 -0.01922698 0.07497719 -0.18976656
000010 55 f8 f7 3d 7e a5 55 3e 3e 18 c4 3d cc eb 1e be
       0.121079125 0.20863912 0.09574936 -0.15519637
000020 aa 9d ff 3d 59 53 c8 3c ba 5f 43 3d f3 74 7e 3c
       0.12481244 0.024453806 0.047698714 0.015530813
000030 80 66 22 3d d6 d9 7a bd 93 01 4c 3e f5 c4 7b 3e
       0.039648533 -0.0612429 0.19922476 0.24586852
000040 ca b4 ec bd 46 ee 19 3e d1 a3 d7 bc 5d 2e d0 bc
       -0.1155792 0.150323 -0.026323231 -0.025412733
000050 91 dc cb bd f3 0a 53 3e 0d 53 64 3e 7b 02 0d 3e
       -0.09954179 0.20609646 0.22297306 0.13770477
000060 76 ac 1e be 52 d5 44 3d d4 6d f7 3c 52 b2 90 bc
       -0.15495476 0.048055 0.030203737 -0.017663155
000070 89 6b b2 bd 49 46 16 3e 1d f6 ef 3c c2 45 7d 3d
       -0.08711917 0.14675249 0.02929216 0.061834104

fc3.weight f4 [1, 32]
000000 e8 cd e9 3e a6 41 dc 3e 0d a8 a0 be 32 97 19 3f
       0.45664907 0.43018836 -0.31378213 0.5999633
000010 d3 03 8d be 77 30 ec be a9 e8 ba be 6f 6b bf 3e
       -0.2754198 -0.46130726 -0.3650563 0.37386653
000020 51 26 a0 be f6 72 93 3e c3 19 b4 be 7a 1a 92 be
       -0.31279233 0.28798646 -0.35175905 -0.28535825
000030 2b 65 ea be 80 9e ee 3d 73 1c ca be 19 2e 09 bf
       -0.4578031 0.11651325 -0.3947483 -0.53585964
000040 70 f4 f2 3e a5 7c 85 be b6 32 d5 3e 9c 15 da be
       0.47452116 -0.2607166 0.41640252 -0.42594612
000050 ae b3 fe 3e a0 cd bf be 5e 88 b5 be 84 3f a3 be
       0.4974646 -0.37461567 -0.35455602 -0.31884396
000060 4d 8f 05 3f be 5f 16 3f 64 e6 93 be ec 98 0a 3f
       0.52171785 0.5873984 -0.28886712 0.5413959
000070 3a 18 fa 3e 8c 3b c1 be d6 b1 9c be 7a 91 bf be
       0.48846608 -0.37740743 -0.30604428 -0.37415677
