Models/SavedModels/lung_cancer_model.pth (torch, 15404 bytes, 5 tensors)

layers.0.weight f4 [64, 15]
0.076583855 0.41552594 -0.14637783 0.31509683 0.09239693 0.20647722 0.027276631 0.19586955
0.32055372 -0.23242901 0.27875373 0.10523858 0.1389771 0.15549079 0.11368115 -0.16989388
0.48231053 0.14421846 -0.33427155 0.19758259 -0.46585914 -0.17804286 0.11807746 0.3171688
-0.5063733 -0.38020155 -0.37915638 0.14428985 -0.13594976 -0.52999514 0.10847126 -0.5078735
0.27671814 0.10017278 0.08823191 0.0329214 0.0812607 0.33865413 0.07077356 -0.07973948
0.22812505 0.08951297 0.26674822 0.33261505 0.12454933 0.016399248 0.08134995 0.224181
0.26498842 0.0045867437 -0.12302057 0.037227172 -0.072467 0.30733162 0.152764 0.23709013
0.19338849 0.16049513 0.32754627 -0.066995695 -0.037889108 -0.12793948 0.10601339 0.25736937
-0.05131109 0.053756204 0.27494717 -0.20804486 -0.12933531 -0.3786442 0.18175085 0.037774008
0.41196594 -0.26540148 -0.50009966 -0.21405645 -0.12846723 0.23507689 0.3725119 -0.05306553
-0.0828384 -0.38151813 -0.053847343 -0.0046428586 0.40329772 -0.3403825 0.19965656 -0.121477515
-0.18105777 0.37453935 -0.1218683 0.06371295 0.34731987 0.3967368 -0.4898589 -0.22060178
0.09875185 -0.25545672 0.043345314 -0.51459426 -0.33939978 0.1302371 0.15627244 -0.35414022
-0.22530732 -0.40261984 -0.4480974 -0.3974082 -0.3551528 -0.24205475 0.36140049 0.2566063
0.23840483 -0.63312995 -0.27317378 -0.26619273 0.12906635 -0.61609036 0.043138925 -0.21983942
-0.21940653 0.2692845 0.018153341 -0.20706552 -0.28009906 -0.0070231613 -0.07002484 -0.1142408
0.33888802 0.032420687 0.53376114 0.25850934 -0.066673204 0.2643321 -0.12035302 -0.026539572
-0.57649803 -0.19137596 0.18500163 0.026641546 0.26451296 0.060239084 0.48289376 -0.03055279
0.19883667 0.25992176 0.2892809 0.45451394 0.44033855 -0.14891133 0.20125619 -0.074317776
-0.15733628 -0.39634204 0.24769172 -0.15330875 -0.0367917 0.15737808 0.08676863 -0.10211202
0.16553655 -0.15329392 0.1448125 -0.18270499 0.27884156 -0.048657082 -0.034232877 0.41636747
0.3961328 -0.39415437 -0.21309924 -0.050423324 -0.04050768 0.101540595 -0.27163678 -0.22949077
-0.28871295 0.29946876 0.3552327 -0.2816276 0.12347374 0.61767036 0.1668064 0.07856495
0.23702031 0.32033283 0.5305001 0.18642159 -0.141386 -0.45351326 0.13733193 -0.12820014
0.41992667 0.4117488 -0.15741366 -0.11708546 0.44994676 0.3458229 -0.25139746 0.3382126
-0.56402415 -0.34843794 0.21597366 -0.1581748 -0.123913385 -0.35196546 -0.3601148 0.035865903
-0.22206983 -0.17156258 0.08683795 0.21768045 -0.25962475 -0.18326643 -0.16090207 0.44062984
-0.14453611 0.037484806 0.16708903 0.09877015 -0.3516279 0.3354334 0.0797444 -0.27512127
-0.034715626 0.42218617 0.2378059 0.19167589 -0.27396315 -0.036331855 -0.33037823 0.5033472
0.2219527 0.10110241 0.24875 0.079787835 0.10800274 -0.28542086 -0.13155311 -0.16748902
0.21519795 -0.42355865 -0.20160677 -0.008438813 -0.23442137 0.061663177 -0.37198895 0.1735993
-0.0069589834 0.2567982 -0.23392351 -0.3067318 0.1508415 0.11966368 0.043765184 -0.27752504
00000000: ffd7 9c3d d1bf d43e 12e4 15be 5f54 a13e
00000010: 9a3a bd3d c46e 533e 3e73 df3c 0792 483e
00000020: 9e1f a43e df01 6ebe cfb8 8e3e 5387 d73d
00000030: 0350 0e3e fa38 1f3e aad1 e83d a9f8 2dbe
00000040: 68f1 f63e 01ae 133e a425 abbe 1753 4a3e
00000050: 1785 eebe de50 36be 98d2 f13d f363 a23e
00000060: aea1 01bf c7a9 c2be c920 c2be b8c0 133e
00000070: 6a36 0bbe c3ad 07bf 2e26 de3d ff03 02bf
00000080: 00ae 8d3e 6327 cd3d eeb2 b43d 97d8 063d
00000090: 036c a63d 1364 ad3e baf1 903d 744e a3bd
000000a0: 9d99 693e 9352 b73d 3993 883e 854c aa3e
000000b0: b813 ff3d b757 863c cd9a a63d b48f 653e
000000c0: 90ac 873e 654c 963b 35f2 fbbd 857b 183d
000000d0: 9469 94bd 925a 9d3e 2b6e 1c3e c1c7 723e
000000e0: a207 463e d658 243e 25b4 a73e 0a35 89bd
000000f0: 9c31 1bbd 9102 03be 8c1d d93d ebc5 833e
00000100: 942b 52bd 772f 5c3d e0c5 8c3e b609 55be
00000110: 7a70 04be a7dd c1be e51c 3a3e ebb8 1a3d
00000120: 33ed d23e b4e2 87be 8806 00bf 9d31 5bbe
00000130: ea8c 03be ffb7 703e e1b9 be3e 3e5b 59bd
00000140: 2ea7 a9bd 5856 c3be 088f 5cbd 1f23 98bb
00000150: 0a7d ce3e 9d46 aebe c572 4c3e 34c9 f8bd
00000160: 3567 39be 9fc3 bf3e 1696 f9bd ef7b 823d
00000170: e9d3 b13e 1621 cb3e c9ce fabe 6fe5 61be
00000180: 693e ca3d 39cb 82be db8a 313d 73bc 03bf
00000190: cfc5 adbe e05c 053e e205 203e de51 b5be
000001a0: f6b6 66be 3024 cebe 066d e5be 1679 cbbe
000001b0: 96d6 b5be 33dd 77be 7c09 b93e e761 833e
000001c0: 6520 743e ce14 22bf 6fdd 8bbe 6a4a 88be
000001d0: f829 043e 19b8 1dbf 71b2 303d 961d 61be
000001e0: 1bac 60be a8df 893e 51b6 943c fc08 54be
000001f0: 2569 8fbe 8c22 e6bb 2f69 8fbd 15f7 e9bd
00000200: bb82 ad3e 8ecb 043d 92a4 083f 565b 843e
00000210: f68b 88bd 8956 873e a57b f6bd 8469 d9bc
00000220: 6095 13bf 0ff8 43be 1171 3d3e 5f3f da3c
00000230: 3e6e 873e 42bd 763d da3d f73e d849 fabc
00000240: d79b 4b3e 7714 853e a01c 943e 0db6 e83e
00000250: 0e74 e13e 367c 18be 1a16 4e3e eb33 98bd
00000260: c31c 21be 58ed cabe e6a2 7d3e f8fc 1cbe
00000270: e5b2 16bd b827 213e c0b3 b13d 1b20 d1bd
00000280: 6a82 293e 15f9 1cbe ba49 143e 0417 3bbe
00000290: 52c4 8e3e a64c 47bd c637 0cbd 1e2e d53e
000002a0: ebd1 ca3e 9ace c9be b036 5abe b088 4ebd
000002b0: 62eb 25bd 84f4 cf3d fa13 8bbe a1ff 6abe
000002c0: 2fd2 93be f853 993e 0fe1 b53e 7e31 90be
000002d0: cddf fc3d a51f 1e3f 4ccf 2a3e a9e6 a03d
000002e0: 74b5 723e aa02 a43e dbce 073f 4de5 3e3e
000002f0: 7ec7 10be e432 e8be bea0 0c3e e646 03be
00000300: a100 d73e bdd0 d23e 0c31 21be 80ca efbd
00000310: 6c5f e63e b30f b13e 2bb7 80be 342a ad3e
00000320: e363 10bf 7566 b2be 3328 5d3e 93f8 21be
00000330: 4dc6 fdbd d134 b4be f860 b8be 20e8 123d
00000340: 4666 63be 1aae 2fbe 18d8 b13d a0e7 5e3e
00000350: 89ed 84be 32aa 3bbe 83c3 24be 3c9a e13e
00000360: 4601 14be ab89 193d 6319 2b3e 0148 ca3d
00000370: 9208 b4be edbd ab3e 0851 a33d b2dc 8cbe
00000380: f931 0ebd c928 d83e 6483 733e af46 443e
00000390: e644 8cbe b6d0 14bd 5627 a9be 5ddb 003f
000003a0: 9247 633e c80e cf3d 52b8 7e3e ce67 a33d
000003b0: 8a30 dd3d af22 92be dcb5 06be 3e82 2bbe
000003c0: da5c 5c3e aedc d8be 0172 4ebe f242 0abc
000003d0: 280c 70be 8792 7c3d 5675 bebe 04c4 313e
000003e0: 2f08 e4bb 0e7b 833e a589 6fbe f30b 9dbe
000003f0: 3276 1a3e 3b12 f53d 1f43 333d c317 8ebe

layers.0.bias f4 [64]
-0.36117446 0.11041503 -0.4332537 -0.07576428 0.10237292 0.39454293 0.112621725 0.19082552
0.012427038 0.08637256 0.17472336 0.23234588 0.21452503 -0.10474162 0.35646796 -0.10560523
-0.12562774 0.0910235 0.33261403 0.3930815 -0.012348022 -0.045240667 0.17205417 0.34646124
-0.10164068 -0.12523703 -0.05753865 0.17597505 0.2950043 0.06577667 -0.04866864 0.2528881
-0.078333065 -0.3157761 0.38265005 -0.25767776 -0.18219028 0.15782745 0.13708468 -0.1889976
0.10471867 0.05360341 -0.122103654 -0.049538556 -0.1791961 -0.14554328 -0.15728445 -0.08693854
0.04806431 -0.04913938 0.19295596 -0.18136522 -0.34332973 0.11002415 -0.08666716 0.32799703
-0.13732368 0.16155607 0.3390758 0.15952726 -0.33575547 0.029430307 -0.10941312 -0.097603425
00000000: dceb b8be 4621 e23d 6ed3 ddbe 4e2a 9bbd
00000010: e5a8 d13d 8801 ca3e 38a6 e63d c467 433e
00000020: c69a 4b3c 19e4 b03d aeea 323e 14ec 6d3e
00000030: 73ac 5b3e c682 d6bd f882 b63e 8e47 d8bd
00000040: 8fa4 00be 876a ba3d 634c aa3e fa41 c93e
00000050: 5c4f 4abc 474e 39bd f82e 303e 5e63 b13e
00000060: fd28 d0bd 233e 00be a6ad 6bbd ce32 343e
00000070: ce0a 973e ebb5 863d c558 47bd 8d7a 813e
00000080: 166d a0bd 68ad a1be b5ea c33e 57ee 83be
00000090: 1790 3abe 859d 213e ed5f 0c3e 9688 41be
000000a0: be76 d63d 408f 5b3d 7b11 fabd f1e8 4abd
000000b0: 2f7f 37be 4c09 15be 2d0f 21be d50c b2bd
000000c0: 15df 443d 6046 49bd 3f96 453e ceb7 39be
000000d0: eac8 afbe 5754 e13d 8d7e b1bd 3aef a73e
000000e0: 949e 0cbe f46e 253e 589b ad3e 1d5b 233e
000000f0: 24e8 abbe d417 f13c fc13 e0bd 4ee4 c7bd

layers.2.weight f4 [32, 64]
0.25093988 -0.3659683 0.22197387 0.06935735 -0.14476267 -0.23238637 -0.14079492 0.32609236
0.14913316 0.1091789 -0.06421688 -0.08813581 0.39264384 -0.34403634 -0.1283052 0.05500004
-0.45145714 0.25773242 -0.144564 -0.16813828 0.1630471 -0.3129247 -0.14902265 0.1884819
-0.33183038 0.12467579 -0.1366635 -0.22731568 -0.28321427 0.13880652 0.3103129 0.19114286
0.1094933 0.12127397 -0.15159403 0.050275613 0.05792462 -0.08494037 -0.08902539 0.36397102
0.076021254 -0.22486939 -0.4218878 0.20606884 0.2873547 -0.12832162 0.25245687 -0.32176945
-0.22426887 0.16576117 -0.26709235 -0.22614548 0.11649027 -0.22687525 0.0468351 -0.27472886
0.34507167 0.10009339 0.024589352 -0.3500216 0.18686344 -0.18636917 -0.24281979 -0.29065534
0.038324345 -0.34922296 0.19276825 0.14915895 -0.22812617 -0.15446961 -0.037661612 0.26509884
0.0705782 0.37973422 0.01978207 -0.030273538 0.14205568 -0.17720146 -0.20256414 0.24335203
-0.316127 0.21301936 -0.04844251 -0.09850708 0.09670737 -0.06690966 -0.17737609 -0.032325227
-0.34449607 0.22269115 -0.21151894 -0.10600721 -0.20239393 0.31126085 0.2594765 0.25783318
0.04453969 0.035472274 -0.17264795 0.031817693 0.23310444 -0.21996444 -0.058396798 0.3329867
0.14645381 -0.16963887 -0.3570246 0.20326258 0.14885552 -0.30927444 0.22154863 -0.28352517
-0.28689265 0.2263755 -0.22397274 -0.3474303 0.203882 -0.17779624 0.14808707 -0.3143775
0.3583524 0.051338572 -0.017872714 -0.3419047 0.1624752 -0.18986258 -0.43826056 -0.18605508
-0.097537234 0.29014888 -0.23068677 -0.01576745 0.26152915 0.22787596 0.11242261 -0.23229744
-0.27697536 0.17137164 0.21892886 0.27288386 -0.05122266 0.43969178 0.093219735 -0.26162878
0.28139088 0.21018243 0.10338683 0.12965015 -0.28989103 0.17813577 0.2732749 0.19786315
0.3836726 -0.08853878 0.31377158 0.1814309 0.18394451 0.20710802 -0.09822391 -0.04080671
-0.09945941 -0.24171421 0.1338305 -0.22267458 -0.13198885 0.21910116 0.099134825 -0.1115697
-0.18038686 0.15366136 0.19497187 -0.17661709 -0.22274004 0.19034448 -0.12681426 0.27893722
0.24066994 -0.12521763 0.12212714 0.41407815 -0.34302437 0.10241304 -0.12531571 0.23658496
-0.25381905 0.21776071 0.16681097 0.2147094 -0.009155657 0.34200865 0.3429514 0.46710297
0.20483954 -0.15150847 0.19377033 0.060689554 -0.30629694 -0.10137848 -0.15423763 0.280038
0.20111759 0.074522294 0.0020190773 -0.09003289 0.29588312 -0.27044863 -0.07867049 0.085709065
-0.21147707 0.17640904 -0.017639805 -0.2064669 0.10789562 -0.08264292 -0.1400704 0.16815092
-0.32885152 0.12900065 -0.16514336 -0.29254177 -0.04847013 0.12923723 0.04475793 0.13411637
0.017872533 0.14769672 -0.14741573 -0.012595135 0.110349044 -0.13103902 -0.28420848 0.34080386
0.059320517 -0.14464846 -0.253692 -0.02436152 0.19248609 -0.08127221 0.018095158 -0.38603416
-0.08977058 0.19998004 -0.24825537 -0.15731858 0.10340832 -0.45965734 0.11775933 -0.15152727
0.34274524 0.1492228 -0.06305297 -0.1762963 0.21773587 -0.21184596 -0.2955712 -0.37241432
00000000: 317b 803e 3260 bbbe 1e4d 633e 3a0b 8e3d
00000010: aa3c 14be b1f6 6dbe 8b2c 10be 94f5 a63e
00000020: 5db6 183e 3099 df3d 2484 83bd 8c80 b4bd
00000030: 9d08 c93e 8825 b0be 7062 03be b947 613d
00000040: 6425 e7be 81f5 833e 9608 14be 712c 2cbe
00000050: d2f5 263e ab37 a0be 6599 18be 6601 413e
00000060: ace5 a9be 0556 ff3d 84f1 0bbe 71c5 68be
00000070: 7601 91be 4c23 0e3e 55e1 9e3e f4ba 433e
00000080: 063e e03d 7d5e f83d 773b 1bbe cded 4d3d
00000090: 5e42 6d3d 37f5 adbd f252 b6bd 695a ba3e
000000a0: 08b1 9b3d 2944 66be ad01 d8be b603 533e
000000b0: 2820 933e be66 03be 0742 813e f7be a4be
000000c0: bda6 65be 4cbd 293e 54c0 88be ae92 67be
000000d0: 7392 ee3d fc51 68be 29d6 3f3d 43a9 8cbe
000000e0: 3cad b03e c3fd cc3d 9c6f c93c 0836 b3be
000000f0: 2159 3f3e 8fd7 3ebe c0a5 78be c7d0 94be
00000100: fdf9 1c3d 5acd b2be 0a65 453e 20bd 183e
00000110: e899 69be 482d 1ebe 1043 1abd 09bb 873e
00000120: 4e8b 903d 866c c23e 020e a23c 3600 f8bc
00000130: 0b77 113e 4d74 35be f96c 4fbe 4631 793e
00000140: 66db a1be bf21 5a3e a76b 46bd 14be c9bd
00000150: 830e c63d ef07 89bd 14a2 35be 7567 04bd
00000160: ca61 b0be 2609 643e 6c98 58be 4f1a d9bd
00000170: 5b40 4fbe 955d 9f3e 1bda 843e b602 843e
00000180: 406f 363d 604b 113d a0ca 30be 4553 023d
00000190: eeb2 6e3e 5c3e 61be 7b31 6fbd 3c7d aa3e
000001a0: fdf7 153e d0b5 2dbe eecb b6be 1124 503e
000001b0: 956d 183e 3859 9ebe a5dd 623e 362a 91be
000001c0: 98e3 92be fbce 673e 1c59 65be 62e2 b1be
000001d0: 71c6 503e 3810 36be 23a4 173e 16f6 a0be
000001e0: f779 b73e 6548 523d cc69 92bc 220e afbe
000001f0: e65f 263e 566b 42be b063 e0be 3985 3ebe
00000200: 9ac1 c7bd 658e 943e 2739 6cbe bd2a 81bc
00000210: 26e7 853e 5158 693e d33d e63d 61df 6dbe
00000220: b7cf 8dbe 0c7c 2f3e e32e 603e 6fb7 8b3e
00000230: dace 51bd 481f e13e fde9 be3d 35f4 85be
00000240: 7712 903e 103a 573e 79bc d33d 02c3 043e
00000250: 996c 94be 3969 363e b0ea 8b3e a39c 4a3e
00000260: bc70 c43e d253 b5bd aba6 a03e 06c9 393e
00000270: f35b 3c3e 2014 543e 9e29 c9bd f024 27bd
00000280: 60b1 cbbd ee83 77be dd0a 093e ce04 64be
00000290: 1628 07be 0e5c 603e 3307 cb3d a87e e4bd
000002a0: 55b7 38be 6759 1d3e b5a6 473e 1cdb 34be
000002b0: f715 64be aae9 423e 99db 01be dcd0 8e3e
000002c0: 2e72 763e 0d39 00be cb1d fa3d 0d02 d43e
000002d0: e4a0 afbe eebd d13d c352 00be 5443 723e
000002e0: 92f4 81be aafc 5e3e 7fd0 2a3e c8dc 5b3e
000002f0: 9c01 16bc c21b af3e 5397 af3e 1f28 ef3e
00000300: 75c1 513e 0925 1bbe bb6b 463e 9c95 783d
00000310: f4d2 9cbe 859f cfbd 78f0 1dbe 2461 8f3e
00000320: c5f1 4d3e 259f 983d 7f52 043b 2a63 b8bd
00000330: fe7d 973e 3e78 8abe fe1d a1bd 3c88 af3d
00000340: 728d 58be 92a4 343e 5a81 90bc 0f6c 53be
00000350: 61f8 dc3d b140 a9bd 9d6e 0fbe c12f 2c3e
00000360: 3a5f a8be bf18 043e 571b 29be 09c8 95be
00000370: 9d88 46bd c456 043e 1754 373d cd55 093e
00000380: 6b69 923c cf3d 173e 26f4 16be d35b 4ebc
00000390: aefe e13d 182f 06be c683 91be d87d ae3e
000003a0: 12fa 723d ba1e 14be ebe3 81be cf91 c7bc
000003b0: 131b 453e 0b72 a6bd 4c3c 943c 45a6 c5be
000003c0: a3d9 b7bd 91c7 4c3e a836 7ebe 1f18 21be
000003d0: bec7 d33d 3558 ebbe ce2b f13d f729 1bbe
000003e0: 4e7c af3e ddcd 183e ea21 81bd 0487 34be
000003f0: 27f6 5e3e 26ee 58be 1c55 97be 17ad bebe

layers.2.bias f4 [32]
-0.093376756 -0.075795546 0.08196201 -0.19896713 0.09085339 0.22816187 0.08865846 -0.107517004
0.12688391 0.0069175824 0.059816513 0.010038249 0.034358002 -0.04098285 0.17720853 0.28367308
-0.12188213 0.16942239 -0.033003822 -0.071968175 -0.09714842 0.21037579 0.18986094 0.1507579
-0.15651888 0.09439086 0.03335661 -0.031256385 -0.10465442 0.13519093 0.018888397 0.056461304
00000000: 503c bfbd b23a 9bbd b3db a73d 0abe 4bbe
00000010: 5811 ba3d 44a3 693e 9192 b53d e031 dcbd
00000020: dbed 013e e3ac e23b 2902 753d 7877 243c
00000030: faba 0c3d a2dd 27bd 2776 353e 993d 913e
00000040: 579d f9bd 107d 2d3e 042f 07bd 0d64 93bd
00000050: c0f5 c6bd c06c 573e e86a 423e 4760 1a3e
00000060: 7c46 20be ff4f c13d f1a0 083d b206 00bd
00000070: 0e55 d6bd 7e6f 0a3e d7bb 9a3c f843 673d

layers.4.weight f4 [1, 32]
0.34235469 0.34159327 -0.26557505 0.393741 -0.25375763 -0.54846555 -0.30588913 0.2582487
-0.27776796 0.118075885 -0.30068022 -0.28889894 -0.3975893 0.1272469 -0.29173473 -0.55709827
0.30456176 -0.2108557 0.29200897 -0.0014119955 0.35872766 -0.33499837 -0.2629559 -0.29188663
0.296819 0.6698413 -0.326844 0.3523165 0.35292503 -0.29488215 -0.28895172 -0.30989513
00000000: 1d49 af3e 50e5 ae3e 74f9 87be 6c98 c93e
00000010: 85ec 81be 3d68 0cbf 809d 9cbe 2c39 843e
00000020: 9a37 8ebe c5d1 f13d c2f2 99be 90ea 93be
00000030: d390 cbbe 034d 023e 415e 95be fe9d 0ebf
00000040: 85ef 9b3e 8eea 57be 3382 953e b512 b9ba
00000050: 27ab b73e e884 abbe 28a2 86be 2a72 95be
00000060: a9f8 973e b87a 2b3f 1958 a7be d462 b43e
00000070: 97b2 b43e cbfa 96be 7bf1 93be 93aa 9ebe
