Models/SavedModels/lung_cancer_model.pth (torch, 15276 bytes, 5 tensors)

fc1.weight f4 [64, 15]
00000000: cd5c b8bc af26 653e 39e6 d2bd 7125 9e3e
00000010: b13c ba3d 1916 8a3e e1d3 1ebd 5815 1a3e
00000020: e5f6 af3e 2eb3 98be 275e 5c3e 4c36 d43d
00000030: f7c7 623e 203b 003e 12de 533d 4cc2 2cbe
00000040: dfb5 a93e 8f68 7a3d 4872 8dbe 0af7 653e
00000050: f2ef 09bf 89c3 00be 63c7 5d3d ea30 723e
00000060: aa2d a6be ba60 8bbe bd70 6dbe 2345 8a3d
00000070: 4ff3 54be 4d3f 02bf b696 a03d 64a9 82be
00000080: 2ade 413e 8c64 a63d 1b74 023e 36f4 a23d
00000090: 46c1 b13d 54b1 9c3e 95c4 87bc fc58 e93c
000000a0: 7ff7 fd3d 0eba bb3d 2634 153e 667f 5b3e
000000b0: fb50 163b ae4f 4fbd d057 a73d 444f e63d
000000c0: 264c 623e 64c6 333d c6f2 81bd b78f b63d
000000d0: 6284 c9bc f530 863e 36b5 fe3d ac38 363e
000000e0: 6044 e63d bdd0 f03d 83f7 a13e 194c b1bd
000000f0: 374f 69bd 8084 e3bd e1cf 1d3d b754 173e
00000100: 9713 cabd c812 94bd cd90 5d3e 376b 44be
00000110: 9c33 01be 7842 8bbe 8934 8a3d b1f6 083d
00000120: caad b23e 493d 3cbe 02d8 f2be e8ee 5ebe
00000130: 62e1 adbd 3204 073e 76c5 1c3e 1651 16bd
00000140: 0abd 35bd 5f9c b4be 7c5a c6bd 9461 1ebe
00000150: 7b37 0b3e b630 57be 7931 d13d a153 71be
00000160: b3d1 1ebe 2484 2e3e 3b2f cfbb d5c3 1e3e
00000170: afa7 3b3e 4885 b23e e081 94be d63e 4dbe
00000180: ba16 2abd c3fd 81be d197 82be c42d f0be
00000190: 3a24 4dbe bee9 323d 9369 a33d 4086 c7bc
000001a0: 5f5d a8bd 24c6 b7be e711 d4bc b016 cbbe
000001b0: 0ebf d0be a94e 6fbe 5de5 d43e 45da 713e
000001c0: 4a81 453e b55a 4cbe 7a0f 1cbe f07a 53be
000001d0: 1a16 903d 4437 0fbf 49e8 94bd 19ea 0cbe
000001e0: 618e f7bd f7cc f93d 384d e73c 423c 9ebe
000001f0: 429f 67be f78e 32bc aec6 a3bd 2206 dfbd
00000200: a900 bf3e 8417 a23d 8f56 f33e 2971 773e
00000210: 5966 f0bd b654 423e df29 e1bc 2c1a d7bc
00000220: 4ebc dcbd 70bf 26be 9e25 d33d 28af a4bd
00000230: 41f5 6c3e fa6b 4dbe a5ba 5e3e b556 00bd
00000240: 066c fd3d 4bb1 8f3e 28b2 8e3e b5d7 b63e
00000250: 183a b13e ca9e 91be 76b7 e53d d64a c1bc
00000260: 4c5d 00be cccc 93be 705b 433e 22b8 4fbe
00000270: e9ad a9ba 1513 043e abec 193c 4578 84be
00000280: a864 183e d567 9cbd ad96 ff3d 5999 6dbe
00000290: 1bce 003d aeea 4abd aada 85bc e67d 4b3e
000002a0: 07e4 863e 58f5 a4be 99b4 64be 199e a2bd
000002b0: 76a8 693c d1d1 423c 8199 78be 14f2 cfbd
000002c0: cd03 4abe b183 1f3e 6483 933e 11ec 62be
000002d0: ade3 b5bc 14f8 013e c647 55bc cf5d 30bc
000002e0: 6ced 6b3e 2e03 2b3e ff64 943e e8ec bf3c
000002f0: 0760 e9bc dba5 e83d 75f6 6a3d 986b ffbc
00000300: 7716 4b3e 2a93 7e3e 3375 09bd 6d4a 863c
00000310: 3bc3 14be 56d2 053e 5d48 d33d 48ee 693d
00000320: 6967 f1be faed 09be 1ecf 0a3e b5e0 483e
00000330: a49b abbe 3095 13be 87c6 dfbe 8f05 65be
00000340: c30a ac3d 50b9 753e a1e8 9f3d aa3d 1e3e
00000350: 88d2 68be fef0 31be 4596 d3bd 5d41 863e
00000360: 86da 97bd 3887 81bd ca50 0f3e c67f e23c
00000370: 40e4 81be 45a0 2f3e c786 823d b3bb babe
00000380: 5060 f1bd 9872 bd3e cbab 623e 7e9b 1a3e
00000390: c2b6 52be 82fe eabe e3c5 2abe 0498 2a3e
000003a0: 12ab cb3d ce4b 283e d946 863e 9433 0c3e
000003b0: 2c70 be3d aec4 febe a0df cd3b 34e1 dbbd
000003c0: 48a5 743d 9e16 90be f694 dbbe fc4e 70bd
000003d0: 66bd 56be 8ee8 7bbd 87a5 b2be 6be9 073e
000003e0: b8df 293d 2510 8b3e 5068 4bbe afe3 20be
000003f0: 8a7d 093e 99dc d4bc 6829 f5bc f4d6 72be
-0.022505188 0.22378038 -0.10297818 0.3088794 0.09093607 0.26969984 -0.038776282 0.15047204
0.34368053 -0.29824203 0.21520291 0.10361919 0.22146593 0.12522554 0.051725455 -0.16870993
0.3314657 0.06113487 -0.27626252 0.22457519 -0.5388175 -0.1257459 0.054145228 0.23651472
-0.32456714 -0.27222234 -0.23187537 0.06751468 -0.2079594 -0.5087784 0.07841246 -0.2551986
0.18932405 0.081246465 0.12739603 0.07956736 0.08679442 0.3060404 -0.01657323 0.028484814
0.12400722 0.091663465 0.14570674 0.21435317 0.0022936452 -0.050613098 0.08171046 0.112455875
0.22099361 0.043890372 -0.063451335 0.0891413 -0.024599258 0.26209226 0.12436907 0.17795056
0.1124351 0.11758564 0.3163415 -0.086570926 -0.05696031 -0.11109257 0.038528327 0.1477841
-0.09867018 -0.07230145 0.21637268 -0.19181524 -0.12617344 -0.2719915 0.067483015 0.03343839
0.34898216 -0.18382753 -0.47430426 -0.21770823 -0.08490254 0.13185194 0.153097 -0.036698423
-0.044369735 -0.35275552 -0.09685227 -0.1546691 0.13595383 -0.21014675 0.10214514 -0.23567058
-0.15509681 0.17042595 -0.006322769 0.15504391 0.18325685 0.3486731 -0.29005337 -0.20043501
-0.04152558 -0.25388917 -0.25506452 -0.46909916 -0.2003335 0.043679945 0.07979121 -0.024356008
-0.08220934 -0.35893357 -0.025887443 -0.39665747 -0.40770763 -0.2336985 0.4158124 0.2361842
0.19287601 -0.19956477 -0.15240279 -0.20652366 0.070354655 -0.55943704 -0.072708674 -0.13761176
-0.120877035 0.12197297 0.028235063 -0.30905348 -0.22619346 -0.010898343 -0.079968795 -0.108898416
0.3730519 0.079146415 0.47526976 0.24164261 -0.11738271 0.18977627 -0.027485786 -0.026257597
-0.10778104 -0.16283965 0.10309909 -0.08041221 0.23140432 -0.20060721 0.21750887 -0.03133269
0.123741195 0.2806495 0.27870297 0.35711446 0.34614635 -0.2844146 0.11216633 -0.023595255
-0.1253559 -0.28867185 0.1907785 -0.20285085 -0.0012945506 0.12897904 0.009394805 -0.25873008
0.14882147 -0.07636992 0.12479911 -0.23203029 0.031446557 -0.049540214 -0.016339619 0.19872245
0.26345846 -0.32218432 -0.22334518 -0.07940311 0.014261356 0.011890844 -0.24277307 -0.101535946
-0.19728012 0.1557758 0.2881118 -0.22160365 -0.02220329 0.1269229 -0.0130176 -0.010764553
0.23039788 0.16700432 0.28983304 0.023428395 -0.028488172 0.113597594 0.057363946 -0.031179234
0.19832788 0.24860826 -0.033559036 0.01639291 -0.145276 0.13068518 0.103165366 0.05711201
-0.47149208 -0.13469687 0.13555571 0.19616969 -0.33517182 -0.1441238 -0.43706152 -0.22365402
0.0840049 0.23996472 0.07808042 0.1545321 -0.22736561 -0.17377087 -0.10331396 0.26221743
-0.07414727 -0.06324619 0.13995662 0.027648818 -0.25369453 0.17150982 0.06373363 -0.36471328
-0.11785948 0.3700149 0.22135846 0.15098378 -0.20577529 -0.458973 -0.1667705 0.16659552
0.099447384 0.16435167 0.26225927 0.1369155 0.09298739 -0.4975943 0.0062827617 -0.107363135
0.059727937 -0.28142256 -0.42887086 -0.058669075 -0.20970687 -0.06150108 -0.34891912 0.13272636
0.04147312 0.27160755 -0.19864011 -0.15711854 0.13426796 -0.025984095 -0.02992697 -0.2371481

fc1.bias f4 [64]
00000000: 7d07 e8be 7270 983d d6e0 e4be 279e f1bd
00000010: ca5e 623d 5c53 ba3e b348 203e db53 0e3e
00000020: ea6c c6bc f62f e3bd e55a 333e 835e 5d3e
00000030: 54ac 27be 856f cd3c aa46 b83e 3374 993d
00000040: 0a10 4ebd e591 20bc af78 b33e f9d9 df3e
00000050: 1f76 c4bb babe 80bd 5086 6b3e 204e b73e
00000060: dd12 43be e7be 29be 596b 0ebe b24b de3d
00000070: fe72 813e 645a 0ebb 179e 2dbe edbc e93d
00000080: 0079 1bbe 98df 9fbe 34fb a83e baf3 a2be
00000090: fb54 62be 3682 383e 864d 323e 7a09 b0be
000000a0: 3264 603d 83b8 813d a4a4 aebd 5ae6 fdbd
000000b0: 42a6 8cbe fdb1 1dbe b5d7 84be ba5f a1bd
000000c0: 90e2 54bc a749 46be 0498 363e 2956 18be
000000d0: 8c8d abbe fe61 cc3d 4c2c 13be 7964 913e
000000e0: 2ec3 16be f387 98bd a219 9b3e c225 1f3e
000000f0: a667 e8be 0039 003d d3e5 4dbe 0da4 cdbd
-0.45318213 0.07443322 -0.44702786 -0.11797743 0.05526618 0.36391723 0.15652733 0.13899176
-0.024221856 -0.11093132 0.17515142 0.21618085 -0.16374332 0.02507759 0.35991412 0.07492866
-0.050308265 -0.009800409 0.35053012 0.43720987 -0.0059955264 -0.06286378 0.23000455 0.35801792
-0.19050165 -0.1657673 -0.13908137 0.108542815 0.25283045 -0.0021721357 -0.16954838 0.11412988
-0.15182877 -0.31225276 0.33004153 -0.31826574 -0.2210273 0.18018422 0.17412385 -0.3438223
0.054783054 0.06334021 -0.085274965 -0.12397452 -0.27470595 -0.15399928 -0.2594582 -0.078795865
-0.01299347 -0.19364034 0.17831427 -0.14876617 -0.3350643 0.09979628 -0.14372367 0.28396967
-0.14722893 -0.07447805 0.30292994 0.15541747 -0.45391577 0.03130436 -0.20107202 -0.10041056

fc2.weight f4 [32, 64]
00000000: 5707 ca3e 31f7 80be f261 523e e72e 153d
00000010: f58b 33bd 3f61 dabd a691 5ebe 06f7 c43e
00000020: abdc 963d 1ab2 c73c a95a 393c 90a8 84bd
00000030: 990d 473e 01dc abbe c29a 74bd e059 6f3d
00000040: 199d 02bf 4cfc 803e 3f8a 32bd fcbb 8fbd
00000050: 1256 623d 3d2d 79be 6278 3cbe 03fd ca3d
00000060: 3e15 8dbe b6d9 2a3e f958 813d 954a 9cbe
00000070: 420c 54be 27ab 9c3c cbc2 723e e2e5 863d
00000080: d899 a13d 1ab3 843d 2aa0 67bd b486 8c3d
00000090: f607 2a3e bd9f 5dbc ff21 ff3a f20f d63e
000000a0: 1258 f73c 2676 cdbd 1c74 d8be 6f84 333e
000000b0: a35f 9c3e 80f4 92be 2640 4a3e b448 c6bd
000000c0: 75ac 12be 2d7f 303e b16d 6dbe c973 c3be
000000d0: 892e 083e bbcc d9bd 9b1d 9a3d 38c0 55be
000000e0: 1709 933e cba7 e13d 10c0 15bc bd00 8abe
000000f0: 1211 2b3e 0b03 ebbd fd39 96be 734f 98be
00000100: b71c 313e eb68 afbe ed40 403e 86b8 f93d
00000110: 88be 35be 4af4 c8bc ce45 ddbd b2b3 b53e
00000120: 5804 1dbd 7a0d 363e cb43 f83d 50b5 83bc
00000130: 03ad b13d 0f3e a5bd 7f85 0cbe 0ff5 3f3e
00000140: b173 bdbe a4a3 413e 4789 d23c 5593 10bd
00000150: 44d9 853d fa8f 9dbd 309e 20be 571d 0cbd
00000160: fd64 85be 3436 853e 564e 08be 1384 51be
00000170: 0850 1bbe 5c43 413e 300b 1c3e a059 ee3d
00000180: 8c28 d3bb de4e f8bc 9a93 91bd feb8 1c3d
00000190: 4900 9a3e ebbd 3dbe a506 e7bc e6d0 a53e
000001a0: 39ac 093e 8bda 2cbe 0558 ecbe 9a55 4d3e
000001b0: fc56 313e 485d c1be 6432 603e 101e 6cbe
000001c0: d8a6 12be acc9 543e 483a 83be 6a3d f9be
000001d0: 33a6 0f3e d561 1fbe 8a09 393e b0b0 7ebe
000001e0: 103e a83e 2752 b73d 5f25 a1bc 0b87 9ebe
000001f0: 77ae 2c3e db0e 30be 2fef d9be d040 67be
00000200: 49ba 15be dd91 a53e 9a6b cebd 6037 bcba
00000210: 942e 573e a64d e33d 029d 3a3e 34dd 8dbe
00000220: 6793 aebe a0b4 1d3e a30d d13d 670f 623e
00000230: 25eb a6bd 1e37 763e 807b e93c beb2 89be
00000240: 8ccf 513e 5f47 bd3d 2d4e f63c a199 003e
00000250: cedf 8cbe 2b40 593e 69fd 583e ffa4 143e
00000260: 0094 ac3e 1fad 25bc 1439 5b3e d8e4 803e
00000270: f061 1c3e 7c61 763d e340 36bd 4c64 3ebd
00000280: fbe0 7aba 2559 5cbe ed3e 7f3d 2fef 88be
00000290: 9eca c7bd ad9f 393e c583 913d 8a76 dc3b
000002a0: 1f41 e6bd e623 be3d 843d b93e fcfd 21be
000002b0: 1c1e 59bd 315e a63e cb37 65bd 6919 873e
000002c0: ef59 e83d 180b 7bbd abac 2a3e 2e5e 113f
000002d0: 2edd 5fbe f472 f13c a19b 8abd da22 5c3e
000002e0: 8c9b 4bbd 3cf4 bf3d e5e2 fc3d e9c8 2d3e
000002f0: f10a 953c 370c 9a3e bc37 763e 2e83 043f
00000300: 02bf b93e 73a0 b5be 8869 383e 47ed 4d3d
00000310: 5e9d 9bbe fef0 a9bd 368e 46be 0238 6e3e
00000320: ab9e ff3d dde2 423d b29b 843d 933d 1abe
00000330: 2df2 653e eb9f 88be 7b18 63bb 46ea 463d
00000340: cfdc 42be 2c5b 5b3e 2785 06bd 9126 2abe
00000350: 4feb 103d f5bc 93be 45c2 84be 4959 183e
00000360: 3a6e e3be fd3c 643e 6f9e ebbe 2b31 babe
00000370: e5e7 2cbe f2da ec3d 0c4d 133c 02ab 173d
00000380: f69a 9e3c e49e c43d 2b26 79bd cbf1 283d
00000390: 9b60 1e3e 7cc4 0cbe d74a 2cbe 0233 e43e
000003a0: c75e 163d f190 69be 7c8c 8bbe 89dd bbbb
000003b0: 5f08 9a3e 8d77 30be abbf b63c 06a7 88be
000003c0: 858f aa3c 7714 453e 6a45 33be 5b12 8cbe
000003d0: 9fe4 1c3e ce98 f8be db2a bb3d a6e8 c2bd
000003e0: c63e 973e 9120 423e fc2c d63a 4767 cdbd
000003f0: b477 8a3e b22c 3bbe 75f6 9ebe e329 1cbe
0.39458725 -0.25188592 0.20545176 0.036421683 -0.043834645 -0.106630795 -0.21735248 0.38469714
0.07366308 0.024376918 0.011313119 -0.06477463 0.19438781 -0.33566287 -0.0597179 0.05843532
-0.5102096 0.25192487 -0.043588873 -0.07018277 0.055257864 -0.24333663 -0.18405297 0.099115394
-0.2755527 0.16684613 0.06315798 -0.30525652 -0.20707801 0.01912458 0.2370712 0.065868154
0.078906715 0.064794734 -0.05654923 0.0686163 0.166046 -0.013526854 0.0019465088 0.4180904
0.030193362 -0.10032301 -0.42276084 0.17530988 0.30541715 -0.28702164 0.19751033 -0.09681836
-0.143236 0.17236014 -0.23186375 -0.38174275 0.13299002 -0.10634752 0.07525178 -0.20874107
0.28717873 0.11018332 -0.00914003 -0.26953688 0.1670573 -0.1147519 -0.29341117 -0.29748115
0.1729611 -0.34259734 0.18774767 0.12193398 -0.17748463 -0.024530549 -0.1080433 0.3548866
-0.03833422 0.17778578 0.121223055 -0.016077667 0.086755775 -0.08068477 -0.137228 0.18745826
-0.37002328 0.1891008 0.025700225 -0.035296757 0.06535581 -0.07693477 -0.15685344 -0.03420767
-0.2605361 0.26017916 -0.13311133 -0.20460539 -0.15167248 0.18873352 0.15238643 0.11638188
-0.0064440425 -0.030311044 -0.07108231 0.03826236 0.30078343 -0.18529479 -0.02820141 0.3238594
0.13444604 -0.16880243 -0.46160904 0.20052186 0.17318338 -0.3776648 0.21894222 -0.23058343
-0.14321458 0.20780057 -0.25630403 -0.48679668 0.14028244 -0.15564664 0.18070045 -0.24872088
0.3285985 0.08951216 -0.01967114 -0.30962405 0.16863428 -0.17193167 -0.42565295 -0.22583318
-0.14621843 0.32337847 -0.10079117 -0.0014359765 0.21013862 0.11098795 0.18223956 -0.27707827
-0.34096834 0.15400934 0.10207679 0.22076188 -0.08150319 0.24044463 0.028501272 -0.26894182
0.20489329 0.092421286 0.030066574 0.12558605 -0.275145 0.21215884 0.21190418 0.14516066
0.33706665 -0.010112076 0.21408492 0.25174594 0.15271735 0.060151562 -0.044495475 -0.04648237
-0.0009570268 -0.21518381 0.06231587 -0.26744983 -0.09755443 0.18127318 0.07105211 0.006727998
-0.112428896 0.09284191 0.36179745 -0.15819544 -0.05300723 0.32493737 -0.05596141 0.26386574
0.113452785 -0.061289877 0.1666743 0.5678433 -0.21861717 0.02947376 -0.06767965 0.2149767
-0.049708888 0.09372756 0.12347964 0.16971172 0.018193694 0.30087444 0.24044698 0.51762664
0.3627854 -0.35473976 0.18009007 0.050275113 -0.303935 -0.08297919 -0.19390187 0.23263553
0.124814354 0.047579635 0.06475009 -0.15062551 0.22455664 -0.26684508 -0.0034652043 0.048563264
-0.19029544 0.21421498 -0.032841828 -0.16616274 0.035380658 -0.288551 -0.25929466 0.1487781
-0.44420034 0.2228889 -0.46019313 -0.36365637 -0.16885336 0.11565198 0.008990537 0.03702832
0.019361 0.096006185 -0.060827415 0.041246217 0.1546654 -0.13746828 -0.16825424 0.44570166
0.03671148 -0.22809197 -0.2725562 -0.005733196 0.30084512 -0.17233105 0.022308191 -0.2668993
0.020820389 0.19246088 -0.17506948 -0.27357754 0.15321587 -0.4855408 0.091390334 -0.095170304
0.2954008 0.18957736 0.0016340311 -0.10029464 0.2704445 -0.18278769 -0.31047407 -0.15250354

fc2.bias f4 [32]
00000000: a397 a2bd 2474 ecbc f69b 9e3d 69f3 47be
00000010: 4e37 df3d 9752 473e 8d3e d23d e324 12be
00000020: 48b0 0b3e a26c 803d b885 603d 574c 583d
00000030: 16cf 933c 8b7a 9fbc 0235 423e 36ad 783e
00000040: e0da f8bd 515c 2a3e 2995 bfbb c670 663d
00000050: 63e5 e8bd 904b 443e 82f2 3b3e 5cab 143e
00000060: cfce 2cbe b269 943d 79fd 3f3d 921f 3cbc
00000070: f3be a9bd 06a0 093e 05b1 023d 71f8 823d
-0.07939079 -0.028863974 0.07744591 -0.19526447 0.108992204 0.194651 0.10265837 -0.14271884
0.13641465 0.0627072 0.054815024 0.05280718 0.018043082 -0.019467613 0.18965533 0.24284825
-0.12151122 0.16636778 -0.0058466387 0.056259893 -0.11371877 0.1916945 0.18354228 0.14518493
-0.16875766 0.07246722 0.04687259 -0.011482136 -0.08288374 0.1343995 0.0319071 0.06395043

fc3.weight f4 [1, 32]
00000000: 1dff fb3e 276b d43e 0cee a8be d88a 1d3f
00000010: 3521 93be 7e1b ddbe 1059 cbbe bd23 bf3e
00000020: 2c3b 96be 5038 bb3e e776 b5be 9c72 a4be
00000030: 4bf5 e8be 95fc 383e eb3f c1be 4969 19bf
00000040: dfe4 e33e a5ee 93be 7d1d e43e 4b5d b9be
00000050: 54fa 013f 3b90 b5be 70fc a8be 5a88 b0be
00000060: 768f f43e 2df6 1f3f e37c 9fbe 48ed f83e
00000070: 9510 e63e 76c3 c6be b5be a2be c458 c6be
0.49218073 0.41488 -0.32994115 0.61539984 -0.28736272 -0.43185037 -0.39716387 0.37331954
-0.2934202 0.365664 -0.35442278 -0.3211869 -0.45499644 0.18065102 -0.37744078 -0.5992628
0.44510552 -0.2889301 0.44553748 -0.3620399 0.50772595 -0.35461602 -0.33005095 -0.34479028
0.47765702 0.6248501 -0.31149969 0.4861853 0.44934526 -0.38821 -0.31786123 -0.38739598
