Models/SavedModels/lung_cancer_model.pth (torch, 15404 bytes, 5 tensors)

layers.0.weight f4 [64, 15]
00000000: df78 393d 3b56 b73e a1db 11be d868 9e3e
00000010: 7462 ba3d 3217 623e 55f8 763b c9b4 4f3e
00000020: 55a9 a93e 5702 70be d0a6 8c3e dc17 e93d
00000030: 591c 103e fe4a 233e 2dc7 d33d 28a2 10be
00000040: 6e29 de3e 7e65 373e ae55 a9be c94e 423e
00000050: 49f6 f4be 119a 63be 5dfe ce3d 1048 933e
00000060: 056d f6be d4bf b7be 6b11 a7be eb63 293e
00000070: 9034 05be a2ca 04bf bd55 d23d 3b90 ffbe
00000080: 5c89 933e 89ae fd3d 8c45 cc3d 31d9 cf3c
00000090: 8d93 893d a378 ad3e aba7 7d3d f276 b6bd
000000a0: 991d 6f3e eae0 af3d 31ae 853e d03c af3e
000000b0: 7284 0c3e 9d9d 5a3d b53f c73d 7112 853e
000000c0: 3abd 913e 9cc8 6e3b 1b97 ebbd 91ed 693d
000000d0: 0630 17bd b7b6 9d3e 1681 293e 75f7 6a3e
000000e0: be55 443e ee91 2f3e d73c aa3e 8a78 74bd
000000f0: 0589 9abd 22c6 3abe fc6f bc3d a0a1 803e
00000100: b1d1 72bd 0b9c af3d 35cf 863e fa8f 5bbe
00000110: 2c3b 09be cb40 cbbe a9e2 313e e0e8 0e3d
00000120: 4167 de3e c3d7 86be bdb8 04bf 46de 44be
00000130: 0c20 2fbd b7d7 6c3e 76b2 b23e 6ab0 65bd
00000140: 01b6 aabd 4372 bdbe 18c8 13bd cdec 42bc
00000150: 2ad2 d93e ab37 aebe 8736 573e f622 08be
00000160: 57be 59be ee35 c63e 29a3 f0bd 772a 6b3d
00000170: e831 a33e a6b8 e03e f31e febe 0837 47be
00000180: 52a1 9f3d 544e 6cbe 9576 173d daae efbe
00000190: 0fac 96be 5c87 b13d 5ddb 173e 1129 80be
000001a0: 4113 64be 9ce7 ebbe 9d3c 15bf c304 c8be
000001b0: 6294 56be 8c83 52be fb9e df3e a040 173e
000001c0: dc19 0fbd e285 2abf d2e5 96be c2af 85be
000001d0: 0f69 2d3e 8efb b1be 3273 babd 2177 8bbe
000001e0: 2de1 03be 7f4a 953e c8e3 f2bc 20b3 73be
000001f0: 3390 a0be 8866 333d 5034 f7bc 35ca ccbd
00000200: 54d6 b73e 6527 5c3d 4038 003f 237a 823e
00000210: a737 96bd 8be3 7d3e e5ca 3dbd db8c 2bbd
00000220: cef7 10bf 8622 3abe 00f7 403e 69ce 833d
00000230: 0c94 873e 2d1f 733d 90bd f53e ac15 0abd
00000240: 1d68 4c3e fdd6 8a3e feeb 983e b4ec e43e
00000250: e7ca e63e 579a 2cbe 9eb5 623e 616f 84bd
00000260: 9a01 2cbe d1ac d0be c2e0 893e 9713 14be
00000270: bc76 16bd 1b97 273e e93d a43d c339 92bd
00000280: 5320 1c3e c70c 17be 1770 203e 8bcb 48be
00000290: c0a9 833e f523 84bd d71d aabc 0a3a d03e
000002a0: 882a a03e 0be6 babe 14f7 35be ae3f 87bd
000002b0: 7e81 8ebc 33d2 c33d 90b6 87be fd94 98be
000002c0: c10e 6cbe 286e a53e bc14 b83e d4c7 86be
000002d0: 7e98 b93c 64dc 0f3f c640 bd3d 4818 813d
000002e0: 7894 6d3e 5f8f 953e 0e84 fd3e 1f79 443e
000002f0: 44ba b1bd bd96 d2be 0b2c 403e 6c36 dabd
00000300: d836 d93e d495 d93e 9892 e7bd a280 e9bd
00000310: f4fa f13e 4f27 b53e 36e4 92be d2a1 b43e
00000320: 266a 1cbf c6ce adbe f18b 5b3e 20cd 17be
00000330: 4f2e 1bbe 64da b0be 28d9 b2be 6c1e 1b3c
00000340: 7564 73be a782 25be 91ee e63d b808 5f3e
00000350: 2f9a 6abe b6a4 22be 0a7e 22be f51e e23e
00000360: b7d6 20be 8bfe f03c 22c3 283e 6e55 b13d
00000370: fac2 a6be 638e b03e 16ca 8e3d ac9c 8cbe
00000380: b9ec 36bd 042e b53e f126 ff3e 7074 543e
00000390: dde6 71be 6645 d6bd 1b6b 88be 055c 243f
000003a0: 81d4 d33e 286f d23d 4415 473e 9e3c 313d
000003b0: 6e2a 333e 209e 3cbe c4c0 35be ba72 0dbe
000003c0: a23e 853e e222 d8be 6488 64be 239c 32bc
000003d0: b67c 7dbe 83a0 903d c72e bcbe 4174 363e
000003e0: 9af7 f8bc e12a 8e3e 3aac 83be 2011 a9be
000003f0: 9d9c 4e3e b4e1 303e e69a cf39 fdd7 8cbe
0.045281287 0.35807976 -0.14243938 0.30939364 0.0910081 0.22079161 0.0037684639 0.20283808
0.33137003 -0.23438393 0.27471018 0.11381504 0.14073314 0.15946576 0.10340724 -0.14124358
0.43390983 0.1790981 -0.3307318 0.18975367 -0.4784415 -0.2222674 0.1010711 0.28765917
-0.4813005 -0.3588854 -0.32630476 0.16542022 -0.13008332 -0.51871693 0.102702595 -0.49914727
0.28815734 0.123868056 0.099742025 0.02537212 0.06717596 0.338811 0.06192748 -0.08909406
0.23351134 0.08587821 0.2610946 0.34226084 0.13722399 0.053372968 0.09728948 0.25990632
0.2846468 0.003643549 -0.115034305 0.057111327 -0.036911033 0.30803463 0.16553149 0.2294596
0.19173333 0.17145512 0.33249542 -0.059685268 -0.07545666 -0.18239644 0.09201047 0.2512331
-0.05928201 0.08574685 0.2632996 -0.21441641 -0.13401479 -0.3969787 0.1737162 0.034890056
0.4343815 -0.26336488 -0.5184439 -0.19225416 -0.04275517 0.23129164 0.3490178 -0.056076445
-0.08335496 -0.37001237 -0.036079496 -0.011897278 0.42543155 -0.34026846 0.21016894 -0.13294587
-0.21264015 0.3871302 -0.1174987 0.057413545 0.31874013 0.43890876 -0.49632987 -0.19454587
0.07794441 -0.23076755 0.036978323 -0.4681309 -0.29428145 0.08668396 0.14829774 -0.2503133
-0.2227297 -0.4607514 -0.58295614 -0.39066133 -0.20955041 -0.20557994 0.4367598 0.14770746
-0.03493677 -0.6661054 -0.29472214 -0.26110655 0.16934608 -0.34762233 -0.09104003 -0.27239326
-0.12878866 0.29158399 -0.02964963 -0.237988 -0.31360015 0.043798953 -0.030176312 -0.099995054
0.35905707 0.053748507 0.5008583 0.25483808 -0.073348336 0.24793832 -0.046336073 -0.041882377
-0.5662812 -0.18177232 0.18844223 0.06435854 0.26480138 0.059355903 0.47996187 -0.033712074
0.19961591 0.27117148 0.29867548 0.4471184 0.45076677 -0.16855751 0.22139594 -0.06466556
-0.16797486 -0.40756848 0.2692929 -0.14460598 -0.036734328 0.16366236 0.08019621 -0.071399234
0.15246706 -0.14750968 0.15667759 -0.19608895 0.25715446 -0.06452171 -0.020766182 0.4066928
0.3128245 -0.36503634 -0.17770034 -0.06603943 -0.017395731 0.09561577 -0.26506472 -0.2980117
-0.23052503 0.32310605 0.3595332 -0.26324332 0.022655722 0.56195664 0.0924087 0.063034594
0.23201168 0.29210946 0.49514812 0.19186829 -0.086781055 -0.4113063 0.18766801 -0.106549114
0.42424655 0.42497122 -0.113072574 -0.11401488 0.47261775 0.35381553 -0.28689736 0.3527971
-0.6109947 -0.33946818 0.21440102 -0.14824343 -0.15154384 -0.3454162 -0.34931302 0.009467702
-0.2376879 -0.16163121 0.11275972 0.2178067 -0.22910379 -0.15883145 -0.15868393 0.44164243
-0.15706907 0.02941825 0.16480687 0.086588725 -0.3257063 0.34483632 0.069721386 -0.2746328
-0.04465935 0.3538667 0.49834397 0.20747542 -0.23623224 -0.104624555 -0.26644215 0.6420291
0.41373065 0.102751076 0.19441706 0.0432707 0.17496654 -0.18419695 -0.17749316 -0.13813296
0.26024348 -0.42214113 -0.22317654 -0.010901484 -0.24754605 0.07061865 -0.36754438 0.17817785
-0.030391503 0.2776709 -0.25717336 -0.33020878 0.2017693 0.17273599 0.00039597525 -0.27508536

layers.0.bias f4 [64]
00000000: 9305 bbbe b26e aa3d cc51 dabe 4c9d f43c
00000010: b92b b93d 9681 c73e b317 e23d e61b 3d3d
00000020: c3c9 6b3c fe6f cb3d d2d4 2f3e 9257 7c3e
00000030: 92ce 383e dd36 d8bd aa59 b23e 362d 6a3d
00000040: 9ee0 0bbe 741b ea3d 615d a83e 5f24 d23e
00000050: 235b e63c 9e53 61bd 3f41 2a3e 2764 b13e
00000060: 745b e6bd 7d1d fdbd c5a2 abbd 9360 233e
00000070: db3a 993e 74a6 ac3d 15d9 b9bc 68ea 883e
00000080: 594f 46bd cc96 a4be ea78 be3e 3d97 86be
00000090: 98d6 33be 2512 213e 4ea9 0c3e 3e6c 50be
000000a0: f37d cd3d 8f0b 5b3d 1ddc 373d b7be 28bd
000000b0: f600 2bbe 8e94 28be f291 1ebe 0e3f d4bd
000000c0: 7178 873d c983 1abd 0b54 3b3e 0f15 46be
000000d0: 5af2 a4be 9335 db3d ae93 9fbd 7335 b03e
000000e0: c237 15be 77f6 303e 38ec a53e 421b 113e
000000f0: 638c 9dbe 5ad8 f43c d66f 1fbe ed91 b5bd
-0.3652769 0.08321895 -0.4264053 0.029860161 0.090415426 0.38966054 0.110396765 0.046169184
0.014391365 0.0993347 0.17171028 0.2464278 0.1804755 -0.10557339 0.34834033 0.057172023
-0.13659903 0.114310175 0.32883742 0.41043374 0.02811963 -0.055011384 0.16626452 0.34646723
-0.11247912 -0.1235914 -0.08380655 0.15954809 0.29927716 0.08430186 -0.02268652 0.26741338
-0.048415516 -0.321463 0.37201625 -0.2628726 -0.1756233 0.15729578 0.1373646 -0.20353791
0.100337885 0.05347782 0.04488765 -0.041197505 -0.16699585 -0.16462919 -0.15485361 -0.10363589
0.06614769 -0.037723336 0.18293779 -0.1934397 -0.3221615 0.10703578 -0.077918395 0.3441578
-0.14572051 0.17281519 0.32406783 0.14170554 -0.3077117 0.02988832 -0.15570006 -0.08865724

layers.2.weight f4 [32, 64]
00000000: cfcd 793e 8280 b0be e8c9 5c3e 397f 643d
00000010: 1593 1fbe 83fe 6cbe aede 0bbe 97e1 763e
00000020: f552 fc3d 2829 d93d 1ec7 90bd 1807 99bd
00000030: b7b5 bf3e de7d c2be c01b e6bd b2b3 d13d
00000040: 33d2 e4be c20c 8a3e 2de0 11be 8bcf 1dbe
00000050: d2b6 083e 7843 97be aed9 14be 23d1 563e
00000060: 28cd adbe 8b3c f43d dae3 11be 9916 64be
00000070: 9956 91be 8d2e 133e 1096 9d3e 0813 4e3e
00000080: ec30 ba3d 15de dc3d aa65 25be 3b50 003d
00000090: 0616 7e3d 863d 73bd d52a acbd cc29 b83e
000000a0: 7ff4 603d c632 57be e83c 9dbe 02c7 533e
000000b0: 7d74 963e 2842 11be f62c 803e ede2 d0be
000000c0: d5f4 59be 7235 253e 7516 8cbe 98c2 6cbe
000000d0: 1c95 be3d e51b 6fbe 7d41 373d f3f8 89be
000000e0: 343d a73e 5847 eb3d 00c1 143d 0206 bfbe
000000f0: 5553 2e3e 3476 5ebe eddf 86be ad37 79be
00000100: 6ae8 0b3d cb64 aebe 3773 463e d295 073e
00000110: 1963 75be 4114 25be a404 d7bc 2416 843e
00000120: 63b8 343d cd7b c23e c073 c83b b1bf a6bc
00000130: 19df 063e fae8 46be f873 52be 8440 963e
00000140: bd49 a9be 95f6 5f3e 928c 2ebd b6e0 acbd
00000150: 1ff3 8e3d 434a 77bd e0a7 37be 7b8e 2ebd
00000160: 9d47 bcbe f625 613e 6b95 56be 2f8a d7bd
00000170: 4cb9 55be 4ca8 a43e 70ef 843e 3a28 8b3e
00000180: c899 143d 8486 ce3c 66f7 3fbe 7aee 863c
00000190: 7a5b 6f3e 92a6 64be 4911 4cbd 8fe1 a63e
000001a0: a595 023e e3c3 2fbe caef 9abe 1074 4f3e
000001b0: 5573 1a3e 8fe2 aabe f0fc 5d3e 7d67 85be
000001c0: c380 8ebe 7742 663e dff6 60be 59d4 b9be
000001d0: 584c 3a3e c289 47be 41a4 173e 81b5 a1be
000001e0: 701d ae3e 09a8 6f3d 8b30 a4bc c2da c0be
000001f0: a1d3 163e 2669 55be c2c8 00bf 2836 1ebe
00000200: d540 b8bd 999e 8f3e f918 6bbe 4202 ab3c
00000210: 41e5 8a3e 5a2e 5f3e 2240 cc3d 7d63 58be
00000220: 6c71 89be b011 333e fcbd 613e 5094 843e
00000230: 99bb 6dbd 41cc eb3e 33f4 b33d b161 aabe
00000240: f68d 8e3e 3bc7 313e 85e5 c63d 6271 f43d
00000250: 69d3 87be 4020 303e 88a4 8b3e 4fed 3d3e
00000260: d481 cf3e 3f9d acbd 6d1c a03e 3546 373e
00000270: cb50 363e f16f 4c3e f83f c9bd 7ffe 4bbd
00000280: a038 adbd 8057 77be 2ad4 fd3d 436e 4ebe
00000290: 066f 10be 9eee 5b3e 886b b93d 2526 92bd
000002a0: 6c0d 28be 06c7 1e3e b218 ee3d 0214 39be
000002b0: 6a68 77be d70a 4e3e 4582 00be adb3 8a3e
000002c0: 9c02 703e 1153 01be 9462 f13d 7c06 d73e
000002d0: 7941 a6be 25ba f73d 9757 03be 5eaa 703e
000002e0: 61c5 62be aa43 553e 4d48 283e 08a6 7e3e
000002f0: ff20 a03c 86e6 b73e b59a c13e 6e4a dc3e
00000300: e1e2 4d3e e5e9 22be 7971 4a3e 842d 2b3d
00000310: 04d6 9fbe b265 f8bd f915 20be 0f6b cc3e
00000320: 211f 3a3e 0fa1 a73d b15a f3bb bab0 a6bd
00000330: 5a61 923e f0bc 9abe 7ba6 9fbd 79d0 fc3d
00000340: afd0 67be 9884 353e 4916 b5bc 54ea 4abe
00000350: 4b4b ab3d dbfa abbd ce40 0fbe 64d0 243e
00000360: af18 b5be 8816 023e 0daf 3abe 3a36 90be
00000370: 5d21 7dbd 5253 143e 3dba 4b3d 00a9 163e
00000380: 917b a43c 5fa8 0d3e af30 29be 2e8e cbbc
00000390: ca30 e53d 205f 04be 1cb5 8fbe 348b ae3e
000003a0: 8512 3c3d 00fc 18be 7ff1 40be 055f b4bc
000003b0: fa20 473e 4730 c1bd 97e9 563c 151e 90be
000003c0: 5ddc c4bd 5c24 463e 1f92 7dbe 0f72 27be
000003d0: b191 ad3d a818 e9be cfed f53d b005 22be
000003e0: 4ff1 aa3e e057 173e a63e 83bd 61bf 4dbe
000003f0: a400 4e3e e90b 58be c079 97be ec74 9fbe
0.24394916 -0.34473044 0.21561396 0.05578539 -0.15583451 -0.23143964 -0.13659164 0.24109493
0.1232051 0.10603553 -0.070692286 -0.07472056 0.37443325 -0.37986654 -0.11235762 0.10239352
-0.4469162 0.26962858 -0.14245673 -0.15411203 0.1335099 -0.29543662 -0.14536163 0.20978217
-0.33945584 0.1192561 -0.14247075 -0.22274245 -0.2838638 0.14373226 0.3077855 0.20124447
0.09091362 0.10784546 -0.16152063 0.031326514 0.062032722 -0.059384845 -0.08406607 0.35969388
0.05492067 -0.21015462 -0.3071053 0.20681384 0.29385749 -0.14185393 0.25034302 -0.4079813
-0.21284802 0.16133669 -0.27360883 -0.23121107 0.09305784 -0.23350485 0.04474019 -0.26947746
0.32663882 0.11488217 0.03631687 -0.3730927 0.17023976 -0.21724778 -0.26342717 -0.24337645
0.034157194 -0.34061274 0.19379888 0.13240746 -0.23963584 -0.16121008 -0.02624733 0.25798142
0.044121157 0.37985078 0.006117314 -0.020355077 0.13171043 -0.19424811 -0.20552051 0.29346097
-0.3306407 0.21871407 -0.042614527 -0.08441298 0.069799654 -0.060373556 -0.17935133 -0.04261635
-0.36773387 0.21987137 -0.20955436 -0.10524403 -0.20871466 0.3215965 0.25963926 0.27179128
0.03627947 0.025210626 -0.18746719 0.016471136 0.2337474 -0.22329167 -0.049821172 0.32593963
0.12752397 -0.17164569 -0.3026107 0.20259118 0.15083058 -0.33375975 0.21678519 -0.26055518
-0.27832612 0.22486292 -0.21969174 -0.3629482 0.18193185 -0.19486144 0.14808752 -0.3158379
0.34006834 0.05850986 -0.020042678 -0.376669 0.14729168 -0.20840892 -0.5030633 -0.15450346
-0.08996741 0.28050688 -0.22958745 0.0208751 0.27128032 0.21795025 0.0997317 -0.21131702
-0.26844347 0.17487216 0.2204513 0.25894403 -0.058040235 0.4605427 0.08786812 -0.33277658
0.27842683 0.17361157 0.09711746 0.119356886 -0.2652848 0.17199802 0.27273965 0.18547557
0.40528738 -0.0842843 0.31271687 0.17897876 0.17804258 0.19964577 -0.09826654 -0.049803253
-0.08458066 -0.24154472 0.12393983 -0.20159249 -0.14104852 0.21477744 0.09053713 -0.07136182
-0.1641137 0.15505609 0.11625804 -0.18074039 -0.24160925 0.20121323 -0.12549694 0.27090207
0.23438495 -0.12629344 0.117863804 0.41997135 -0.32471827 0.12096051 -0.12826382 0.2350249
-0.22145607 0.20826593 0.1643383 0.24868023 0.019546984 0.35918063 0.37813345 0.43025535
0.20106079 -0.15909536 0.19769849 0.041791454 -0.31217968 -0.12128772 -0.15633382 0.3992543
0.18175937 0.08185016 -0.0074265827 -0.08139177 0.28589898 -0.30222273 -0.077954255 0.123444505
-0.226382 0.17726362 -0.022105353 -0.19815952 0.0836397 -0.08397456 -0.13989565 0.1609512
-0.35370395 0.12703907 -0.18230839 -0.28166372 -0.061799396 0.14484909 0.049738158 0.14712906
0.020078452 0.1383376 -0.16522478 -0.02484807 0.111909464 -0.12926912 -0.28067863 0.3409058
0.0459161 -0.1493988 -0.18842123 -0.022017965 0.19446173 -0.09433036 0.013117216 -0.2814795
-0.096123435 0.19349808 -0.24762772 -0.16352104 0.08475054 -0.45526624 0.12008249 -0.15822482
0.3338723 0.14779615 -0.064084336 -0.20092537 0.20117432 -0.21098293 -0.29585075 -0.31143892

layers.2.bias f4 [32]
00000000: cb05 b2bd 2d57 9abd b58f 9e3d a2be 4bbe
00000010: efeb b53d 54aa 543e 4529 ae3d 237d d4bd
00000020: c467 003e d42d 323c 1c7b 6c3d d996 033c
00000030: 77da 0d3d 082f 2cbd f590 313e a4ea 903e
00000040: e9a3 07be 4e44 293e 79e7 0cbd 7e1c 94bd
00000050: 2460 bdbd b1fc 513e 1f9b 3e3e e6f0 133e
00000060: f1d3 1cbe 49d6 ef3d 2b28 c03c 6c1d f3bc
00000070: f41c cfbd f436 083e 1a6f 143c 9ea2 5e3d
-0.08692511 -0.07536159 0.07742254 -0.1989694 0.088828914 0.207681 0.08503965 -0.103754304
0.12539583 0.010875184 0.057734594 0.00803157 0.034632172 -0.04203704 0.17340453 0.28304017
-0.1324612 0.16529962 -0.034400437 -0.07231997 -0.09246853 0.2050655 0.18613862 0.14447364
-0.15315224 0.117107935 0.023456654 -0.029677115 -0.10112944 0.13302213 0.009059692 0.054354303

layers.4.weight f4 [1, 32]
00000000: d8ee ac3e 4617 af3e 59b5 86be 8b4f c83e
00000010: 2e23 7ebe 42f5 fbbe 38d8 9abe 3611 823e
00000020: b519 8bbe 766c 8b3e 134a 98be 94db 91be
00000030: 6798 c7be ce09 023e f8f0 96be f881 11bf
00000040: 04c5 973e 0ef2 52be 8af5 933e 9821 9eba
00000050: 68f5 b43e c630 a9be aa17 85be d54e 93be
00000060: fe68 973e 8267 293f a3bb a4be 1258 b43e
00000070: 1b44 b33e 02dc 94be b855 8fbe 40d5 9cbe
0.33775973 0.34197444 -0.26310232 0.39123186 -0.24818107 -0.49210554 -0.30243087 0.25403756
-0.2716805 0.27231187 -0.29744014 -0.28487837 -0.3898346 0.12699053 -0.2948072 -0.5683894
0.29642498 -0.20600149 0.2889827 -0.0012064455 0.3534348 -0.33045024 -0.25994617 -0.28771082
0.2957229 0.66173565 -0.32174405 0.35223442 0.35012898 -0.29074103 -0.27995086 -0.30631447
