Models/SavedModels/lung_cancer_model.pth (torch, 15276 bytes, 5 tensors)

fc1.weight f4 [64, 15]
000000 aa 6f 14 bd d6 c4 72 3e a6 db e7 bd 0f c0 95 3e
       -0.036239304 0.237079 -0.113211915 0.29248092
000010 43 1f d0 3d 57 f6 8d 3e bf ef 6a bd bf 3f 2e 3e
       0.10162213 0.27727005 -0.057357546 0.17016505
000020 f0 be b7 3e dc d4 9d be e0 d5 4e 3e 12 2a ef 3d
       0.3588786 -0.3082646 0.20198774 0.11677946
000030 5e 56 70 3e 45 40 e9 3d ae f0 48 3d 84 6a eb bd
       0.23470446 0.113892116 0.049057655 -0.114949256
000040 63 10 d3 3e c4 26 a6 3e a4 ac c0 be 57 dc 89 3e
       0.4122344 0.3245145 -0.37631714 0.26925918
000050 3a 1b e4 be 73 0e 87 be 2f 94 14 bd ed 84 f2 bd
       -0.44552022 -0.2637821 -0.03627413 -0.1184176
000060 b7 2a b3 be 27 3f 86 be 91 b9 57 be 7e fe d8 3d
       -0.34993526 -0.26220056 -0.21066882 0.105954155
000070 7a fd fe bd c2 82 c0 be 19 e5 6c 3d bb 6a 62 be
       -0.124506906 -0.3759976 0.057835672 -0.22111027
000080 cb 24 3d 3e 51 82 0a 3e 39 ad 25 3e c4 cf a5 3d
       0.18471067 0.13526274 0.1617936 0.08096269
000090 c3 c9 ab 3d 09 10 83 3e ec 93 c2 bc ea 52 be 3b
       0.08388092 0.2559817 -0.023752175 0.005808224
0000a0 e2 f0 07 3e 15 2d 9a 3d 31 51 04 3e 6d db 85 3e
       0.13275483 0.0752813 0.12921597 0.2614397
0000b0 9d b0 05 3d 75 d3 23 bd 90 90 f5 3d 51 d6 95 3d
       0.032639135 -0.039996583 0.11990464 0.07316268
0000c0 4e 4f 23 3e 24 fd a5 3c 83 49 33 bd bc c9 a1 3c
       0.15948221 0.020262308 -0.043771278 0.019749515
0000d0 b8 99 4a bc 82 cf a7 3e 48 3c c2 3d 3a 1e 37 3e
       -0.012365751 0.32775503 0.09484154 0.17882624
0000e0 c6 0f 08 3e 48 f1 34 3e 5f ab 85 3e 7b c6 21 be
       0.13287267 0.17670166 0.26107308 -0.1579837
0000f0 9c e4 88 bd cd c2 12 be 48 e8 13 3d b0 51 0b 3e
       -0.06684229 -0.14332123 0.036110193 0.1360538
000100 06 67 ce bd fb ef d8 bd 6b e8 62 3e 03 ca 27 be
       -0.10078244 -0.10592648 0.22158973 -0.16385655
000110 f9 29 02 be f7 1f 6d be 36 77 8f 3d 0b 94 55 3b
       -0.12711324 -0.23156725 0.070051596 0.0032589461
000120 99 0a ae 3e c3 c5 0d be 40 e5 fa be 0b 25 2f be
       0.3399246 -0.13844971 -0.4900303 -0.17103975
000130 d0 28 df bd 1a 81 1d 3e aa a8 3e 3e 32 aa 37 bd
       -0.10896456 0.1538128 0.18619028 -0.044840045
000140 28 54 aa bd 8d e1 c6 be c2 48 d9 bd e4 10 23 be
       -0.08316833 -0.38843957 -0.106095806 -0.15924412
000150 1f 5a d1 3d 31 3e 38 be b1 01 bd 3d 8e bb 85 be
       0.10222267 -0.17992474 0.09228838 -0.26119655
000160 91 67 e1 bd 61 33 3f 3e c3 59 43 bd 39 9f be 3d
       -0.11006082 0.18671943 -0.047693025 0.09307713
000170 e1 ba 52 3e aa d0 a5 3e 10 56 cb be 7c d5 42 be
       0.20579101 0.3238576 -0.39714098 -0.1902675
000180 ff ae e8 3b ba 11 6a be 09 02 1d bd 2a af e5 be
       0.0071009393 -0.22858325 -0.03833202 -0.44860202
000190 72 b7 98 be 1f 14 ee 3d 5f 16 dc 3d f5 89 19 be
       -0.29827458 0.116249315 0.107464544 -0.14994033
0001a0 a3 e9 34 be f1 7b b7 be 55 bd 94 bd ef 02 dc be
       -0.1766725 -0.35836747 -0.07262675 -0.42970988
0001b0 93 bf dc be 6f c9 a1 be 9f 78 ed 3e 47 91 77 3e
       -0.4311491 -0.31598994 0.4638109 0.24176513
0001c0 ed b6 fd 3d 5a 46 54 be b1 dc 1b be d2 59 4f be
       0.12388406 -0.20729962 -0.15220906 -0.20249107
0001d0 e8 97 92 3c e7 b5 02 bf a4 b6 3f 3d d2 7f 0c be
       0.0178947 -0.5105881 0.04680504 -0.13720635
0001e0 54 82 27 be 4a 63 0c 3e 76 e6 31 3d 7d 00 a4 be
       -0.1635831 0.13709751 0.043432675 -0.32031623
0001f0 d7 3b 7c be 5f 08 16 bc c1 7e c9 bd da dc 0b be
       -0.24632202 -0.009157269 -0.098386295 -0.13658467
000200 fd 8e c9 3e ad 9d ad 3d 26 7e 02 3f ec 9e 86 3e
       0.39366904 0.0847734 0.5097374 0.26293123
000210 2c 72 eb bd 38 37 4c 3e c0 3d 09 bd 6a a2 21 bd
       -0.11496386 0.1994294 -0.033506155 -0.03946153
000220 df 83 03 bd 0a 61 19 be a4 1d e0 3d 9c c9 b7 bd
       -0.032108184 -0.14978424 0.109431535 -0.08974001
000230 af ce 9a 3e c7 3a 97 be 06 5f 11 3e d2 c4 ec 3c
       0.30235812 -0.2953703 0.14196405 0.028902445
000240 f6 29 b6 3d 9c 06 98 3e b4 f3 92 3e c0 01 b8 3e
       0.08894722 0.29692543 0.28701556 0.35938835
000250 72 90 a7 3e 14 36 a6 be 79 8d eb 3d ac cf 46 ba
       0.3272739 -0.32463133 0.11501593 -0.0007584046
000260 da e3 df bd 02 22 5e be b5 5f 84 3e 0c fc 87 be
       -0.10932131 -0.2169266 0.2585427 -0.26559484
000270 77 8b 4b 3d f1 75 04 3e b6 87 eb bb 4a 88 9b be
       0.04969355 0.12935616 -0.007187809 -0.30377418
000280 85 ab 53 3e 4e c3 fb bd 75 87 74 3d 3a 53 23 be
       0.20670898 -0.12293111 0.059699494 -0.15949717
000290 e7 26 48 3d 50 95 a9 bc 00 41 41 bd 83 b9 4e 3e
       0.048865225 -0.02070108 -0.04718113 0.20187955
0002a0 6c 39 88 3e e4 69 b6 be 84 27 4c be 89 49 bc bd
       0.2660631 -0.35627663 -0.19936949 -0.09193713
0002b0 b8 7f 99 ba 8b 15 79 bd 8e 2d 62 be 8f 9f d8 bd
       -0.0011711037 -0.06081156 -0.2208769 -0.105773084
0002c0 21 ed 4a be 08 f3 04 3e 28 ca 98 3e 5c db 73 be
       -0.1981702 0.12983334 0.29841733 -0.23814148
0002d0 4f 9b 52 3b cc da 1d 3e be 0a 02 3c 51 0d b3 bc
       0.0032136028 0.15415496 0.007937131 -0.021856936
0002e0 5d 5a 5d 3e b9 c3 25 3e 1d 25 8e 3e ea 65 b9 3c
       0.21616502 0.16187944 0.2776269 0.022631604
0002f0 c9 12 72 3c 19 d0 88 3d d6 ff 4a 3d 8c 8d 11 bd
       0.014774987 0.066803165 0.04956039 -0.03553538
000300 30 8c 59 3e 8b fe 60 3e fd aa 8c bd 21 3c 9a 3c
       0.21244884 0.219721 -0.06868551 0.0188275
000310 77 87 17 be 1f 33 15 3e 8b 45 c0 3d ba f8 e9 3c
       -0.1479777 0.14570282 0.09388264 0.028560985
000320 6f 18 f4 be e2 d6 09 be 6e 34 05 3e b4 7a 30 3e
       -0.4767489 -0.13460878 0.13008282 0.17234308
000330 59 db a4 be e2 f6 06 be d8 67 d8 be ce 1f 6f be
       -0.321986 -0.13180116 -0.42266726 -0.23351976
000340 5b 2c 00 3e 6f 79 76 3e c5 8d 59 3d 46 5e c6 3d
       0.1251692 0.2406976 0.053113718 0.0968595
000350 9b 92 78 be 78 9a 12 be 20 52 58 be c7 55 81 3e
       -0.24274676 -0.14316738 -0.21125078 0.25260755
000360 98 be 5c bd 6a b3 a4 bd 0e 79 1f 3e 71 40 86 3d
       -0.053892702 -0.08042033 0.15573522 0.0655526
000370 11 ea 9a be 96 a4 2c 3e de ed 50 3d e3 d6 71 be
       -0.30256703 0.1685966 0.051008098 -0.23617129
000380 57 f5 fe bd 63 96 ea 3e 92 8b 30 3e fc 16 45 3e
       -0.124491386 0.4581786 0.17240742 0.19247049
000390 38 64 80 be 80 09 28 bf e3 b3 00 bf b9 5b 1f 3d
       -0.2507646 -0.65639496 -0.50274485 0.038905833
0003a0 9f 87 3c 3e c0 e2 4e 3e bd 20 26 3e bb b2 d9 3d
       0.1841111 0.20203686 0.16223426 0.10629793
0003b0 e0 19 1e 3d 9a 9e 1b bf 3b 70 f6 bd 61 24 e2 be
       0.038598895 -0.6078888 -0.12033125 -0.4416838
0003c0 ca dd 88 bd ac 89 92 be 14 a3 b1 be a7 be da bd
       -0.06682928 -0.2862066 -0.3469473 -0.10680895
0003d0 7e 8e 88 be ba 04 c6 bd 79 97 1c be a7 ff 49 3e
       -0.26671213 -0.0966887 -0.15292157 0.1972643
0003e0 4e 75 fa 3d 3d c2 5a 3e cd e5 76 be e3 52 3d be
       0.12229405 0.21363159 -0.241111 -0.1848865
0003f0 33 3f 3d 3e ba ea ff bd f1 98 27 be 53 05 85 be
       0.1848114 -0.124959424 -0.16366936 -0.25980625

fc1.bias f4 [64]
000000 3c 5f e7 be 29 d6 d7 bb 0b 31 ee be 80 a4 13 be
       -0.45189846 -0.006586809 -0.46521792 -0.1441822
000010 fc aa 69 3d 7d 0a bc 3e ca 25 20 3e fa 5b 12 3e
       0.05704783 0.36726752 0.15639415 0.14292899
000020 d7 be 53 bc f5 d9 12 be 9b 06 44 3e e6 97 54 3e
       -0.012923918 -0.14340957 0.19143145 0.2076107
000030 2c 9c 15 be 96 5b e9 3c e4 20 b9 3e d2 5c 69 3d
       -0.14610356 0.028486054 0.36157906 0.056973286
000040 87 51 f6 3c 88 b1 96 bc 4e 75 b1 3e 5f 75 da 3e
       0.030068172 -0.0183952 0.3465981 0.42667672
000050 41 fe 99 bc bf 3c 42 bd 73 a6 86 3e e4 a6 b3 3e
       -0.018797996 -0.047421213 0.26298866 0.35088265
000060 63 5b 4a be a6 e8 34 be bb 89 04 be 50 d6 c8 3d
       -0.19761424 -0.17666873 -0.12943165 0.09806502
000070 84 18 82 3e a1 8c f3 ba a4 94 29 be d3 4d 60 3d
       0.2540933 -0.0018581339 -0.16560608 0.05476172
000080 0c 74 11 be 20 16 a5 be 83 ed a8 3e 8b af b6 be
       -0.14204425 -0.32243443 0.32993707 -0.35680804
000090 32 ae 5b be a8 39 47 3e f5 56 2e 3e 7d cd 92 be
       -0.21453169 0.19455588 0.17025359 -0.286724
0000a0 d3 38 73 3d 86 38 db 3c 04 62 d0 3c 5c e1 f0 bd
       0.059380364 0.02676035 0.025437362 -0.11761734
0000b0 3b da 8f be 30 d5 0e be 78 e5 83 be c3 0c d5 bd
       -0.28096184 -0.13948512 -0.25761008 -0.10402825
0000c0 a6 67 c6 bc 04 05 69 be de 9c 3c 3e 95 b1 34 be
       -0.024219345 -0.2275582 0.18419215 -0.17645867
0000d0 27 37 b3 be 0b 6e 88 3c 12 0e 28 be 19 57 b0 3e
       -0.35003015 0.016654035 -0.16411617 0.3444145
0000e0 c9 b5 38 be 19 8c 83 3d db be 68 3e c7 d7 11 3e
       -0.18038096 0.06423206 0.22729056 0.14242469
0000f0 cf 7e f3 be 86 ef e8 3b ab 0a 40 be 05 99 be bd
       -0.47557685 0.0071086315 -0.1875407 -0.0930653

fc2.weight f4 [32, 64]
000000 d2 8a c9 3e ae 2b d7 be 56 d9 5e 3e c0 8c 86 3d
       0.39363724 -0.42025512 0.21762595 0.06569815
000010 fa 7e 42 bd bf aa 39 be 91 e9 30 be f9 b0 bf 3e
       -0.047484376 -0.1813154 -0.17276599 0.37439707
000020 86 06 8d 3d e4 c0 ae 3c d9 15 49 bc fe 1d 64 bd
       0.0688601 0.021332212 -0.012273275 -0.055692665
000030 f5 80 3f 3e 4e d5 ab be 1d 35 b4 bd aa fe 4f 3d
       0.18701537 -0.33561176 -0.08799193 0.050779976
000040 a5 2b 15 bf 43 c9 69 3e fe e8 c6 bd c5 66 ae bd
       -0.5826972 0.22830682 -0.097124085 -0.085156955
000050 8e 5f 58 3d 96 a4 66 be 9d 24 77 be 36 6e 00 3e
       0.052825503 -0.22523722 -0.2413506 0.12542042
000060 89 78 a1 be 06 e2 24 3e 8c c0 fc bc 0b 86 93 be
       -0.31537274 0.16101846 -0.030853532 -0.28813204
000070 36 4e 80 be 43 42 1a 3c 8a 65 73 3e 75 1d 75 3d
       -0.2505967 0.009415212 0.23769203 0.059842546
000080 c4 70 a9 3d 2f a4 8c 3d 1f ca ae bd 13 50 9a 3d
       0.082734615 0.06867253 -0.08534645 0.07534804
000090 a0 37 0b 3e 6e d5 f3 3c 9c a0 af bc a9 ce 9d 3e
       0.13595438 0.029764857 -0.02143889 0.30821732
0000a0 7f 23 cb 3c 3e 40 34 be 3d 11 88 be a8 df 24 3e
       0.0247972 -0.17602631 -0.26575652 0.16100943
0000b0 94 b3 8f 3e f3 5c 8a be f8 0f 41 3e b4 ac f5 bd
       0.28066695 -0.2702404 0.18853748 -0.11995831
0000c0 cf e0 23 be df 47 0e 3e 23 9f 7d be 46 78 be be
       -0.16003726 0.13894604 -0.24767737 -0.37201136
0000d0 6e 8b 12 3e 8d 79 3c be 44 04 4c 3d bf 40 5e be
       0.14311 -0.18405743 0.049808756 -0.21704386
0000e0 43 78 8d 3e 85 b2 16 3d 2d 07 1f 3c ba 15 91 be
       0.27630815 0.036791343 0.009706301 -0.2833689
0000f0 7b e4 46 3e 1e 50 04 be 87 b2 68 be b4 6d 67 be
       0.19423096 -0.12921187 -0.22724353 -0.22600442
000100 25 f5 39 3e 60 6b c4 be 9e 08 1b 3e a1 49 e3 3d
       0.18159921 -0.3836317 0.15140006 0.11098028
000110 8e c8 45 be cf 17 eb bd 0d dc af bd d3 ea b7 3e
       -0.19314787 -0.114791505 -0.08586893 0.35921344
000120 74 e4 b0 3b 88 21 1a 3e dc 67 0f 3d 78 8d fb bd
       0.0053983275 0.15051854 0.035011157 -0.122828424
000130 42 aa e3 3d 7a ca 99 be 6c e8 ca bd 29 fb 08 3e
       0.111164585 -0.3003729 -0.09907612 0.1337706
000140 28 d1 09 bf f7 b0 4e 3e 8d d3 cd bd 19 14 92 bd
       -0.5383477 0.20184694 -0.10050116 -0.071327396
000150 c6 e2 a5 3d e3 64 c0 bd 96 5e 7d be 8b 66 e7 3c
       0.08099894 -0.093942426 -0.24743113 0.028247138
000160 29 c0 8f be 1c 66 8c 3e 93 e2 62 be 18 7d 82 be
       -0.28076294 0.27421653 -0.22156744 -0.25486064
000170 41 94 67 be dd ca 2e 3e 1d c0 e7 3d 2e 0f c1 3d
       -0.22615148 0.17069574 0.113159396 0.094267234
000180 66 0b 42 bc d3 26 70 bd 24 cc a7 bd 34 ad 26 3d
       -0.011843538 -0.058630776 -0.081932336 0.040692523
000190 b4 a7 92 3e cf a5 d5 bd 50 53 27 be 53 95 90 3e
       0.28643572 -0.10432016 -0.16340375 0.28238925
0001a0 b0 9d b4 3d 54 fc 22 be 11 d2 d9 be 14 51 3a 3e
       0.08819139 -0.15916568 -0.4254308 0.18194991
0001b0 1f ec 19 3e d3 85 c1 be 36 41 5e 3e ba c9 4d be
       0.1503148 -0.37797412 0.21704563 -0.20096484
0001c0 28 c7 63 be fc 86 3e 3e 4e a3 6b be 20 bd d0 be
       -0.22243941 0.1860618 -0.23011515 -0.4076929
0001d0 d8 7c 14 3e f8 1d 6f be d2 2a fa 3d 4e be 75 be
       0.14500749 -0.23351276 0.122151986 -0.23998377
0001e0 b3 d1 84 3e 6a e9 9c 3d ca 07 1e 3b 60 e6 80 be
       0.25941238 0.07661708 0.002411353 -0.25175762
0001f0 9c 65 61 3e e6 47 75 be 1c 04 f3 be dc 10 2a be
       0.22011417 -0.23953208 -0.47464073 -0.16607994
000200 70 0e 1a be 72 9a 10 3f 71 05 b0 bd 45 f7 99 3c
       -0.1504457 0.56485665 -0.08594788 0.018794665
000210 97 7d 33 3e 2d 1c e2 3d e0 06 07 3e 47 fd 88 be
       0.17528377 0.1104053 0.13186216 -0.26755735
000220 9d 35 d3 be 11 36 3b 3e 07 6f d0 3d 65 65 46 3e
       -0.4125184 0.18282343 0.10177427 0.19374616
000230 5d 99 8f bd 87 96 71 3e a5 cb f4 3c 9e 93 dd be
       -0.070116736 0.23592578 0.029882262 -0.43276685
000240 58 1a 49 3e 4d 8c c0 3d 89 ec b4 3c 3e 23 b3 3d
       0.19638956 0.0940176 0.022085445 0.08746956
000250 70 2b 70 be 47 d5 36 3e 88 bf 3f 3e 62 b0 05 3e
       -0.2345407 0.17854796 0.18725407 0.13055566
000260 6f 7c 9f 3e 35 5e 26 bb 6d b1 38 3e 0f fc 75 3e
       0.31149623 -0.0025385742 0.18036433 0.24021934
000270 bc e1 12 3e 62 0e c6 3d af 12 7f bd 91 c9 6b bd
       0.14343923 0.09670712 -0.062273677 -0.057565276
000280 b2 4d 00 bd 6f f4 5e be c7 be 83 3d 6b ad 81 be
       -0.031324096 -0.21772932 0.06432872 -0.2532762
000290 59 a7 a7 bd 47 7e 13 3e fd a1 de 3b 57 68 55 3d
       -0.08186216 0.1440364 0.006794213 0.05210146
0002a0 6d 58 29 be 53 d4 7a 3d af de f4 3d c8 49 21 be
       -0.16537638 0.061237644 0.11956536 -0.15750802
0002b0 46 13 c1 bc 31 00 9a 3e 88 f5 8c bd 29 8b 84 3e
       -0.02356876 0.3007827 -0.06882769 0.2588742
0002c0 40 72 22 3e ac c7 83 bd 14 3a 09 3e df f5 0e 3f
       0.15863895 -0.06434569 0.13401061 0.5584392
0002d0 d2 ad 40 be e4 c7 80 3d 8b 6a a1 bd 35 0c 7e 3e
       -0.18816307 0.06288126 -0.078816496 0.24809344
0002e0 33 14 55 bd f4 cf 41 3e 48 c6 0c 3e d1 4b 28 3e
       -0.052021217 0.18926984 0.13747513 0.16435172
0002f0 a4 47 52 3c a2 6c aa 3e 35 0c 6a 3e 69 2e f6 3e
       0.012834463 0.33286005 0.22856219 0.48082283
000300 8f f7 be 3e 35 ac ad be d1 3f 55 3e 4f 72 ad 3d
       0.37298247 -0.33920446 0.20825125 0.08469068
000310 0c ac a4 be ef b0 04 be df 71 83 be 0d 1f ba 3e
       -0.3216251 -0.1295812 -0.25672814 0.36351815
000320 73 08 e5 3d 2f b1 a4 3d 84 39 9d 3d f7 e8 05 be
       0.11183252 0.080416076 0.07676986 -0.1307715
000330 8e d8 4d 3e 95 44 ae be 71 55 a8 3c 37 f5 8b 3d
       0.2010214 -0.340367 0.020548554 0.068338804
000340 c9 a4 ac be 65 36 66 3e 73 58 bd bd d3 07 57 be
       -0.3371947 0.22481687 -0.09245386 -0.20999078
000350 fb 15 8b 3d 31 d4 3d be 82 7a 6e be 15 2f 4f 3e
       0.06791302 -0.18537976 -0.2328892 0.20232804
000360 cd c8 ff be 23 9b 73 3e 6f be cc be df 53 b9 be
       -0.49957886 0.23789649 -0.3998904 -0.361968
000370 a3 22 2a be 41 15 30 3e 88 81 1f 3d 88 f8 88 3d
       -0.16614775 0.17195608 0.03894189 0.066880286
000380 70 c4 82 3d 3a 6a b6 3d ce 39 81 bd 6a cf 27 3d
       0.06385124 0.0890698 -0.063098535 0.04096929
000390 4a f2 63 3e b6 0a 9b bd 7b 57 5f be 51 dd a9 3e
       0.22260395 -0.07570402 -0.21810715 0.33176664
0003a0 03 c0 d2 3c 4a 0a a0 be a2 32 6a be 13 bf 8a 3b
       0.025726324 -0.3125785 -0.22870877 0.0042342036
0003b0 a7 b0 93 3e d9 ad 3e be d4 68 de 3c e8 d7 99 be
       0.28845713 -0.18621005 0.027149595 -0.30047536
0003c0 47 d9 92 bc 18 21 40 3e 93 ab 0d be df de 80 be
       -0.017925872 0.18762624 -0.13834982 -0.25170037
0003d0 b0 a9 23 3e 4a 8b de be 01 2f e9 3d 79 cc c7 bd
       0.159827 -0.43465644 0.113859184 -0.09755797
0003e0 6a 6f be 3e e8 2e 61 3e b6 e4 91 3a 16 29 0a be
       0.37194377 0.2199055 0.0011130783 -0.13492236
0003f0 64 1d 85 3e c6 f5 48 be 15 0c 87 be e5 93 2b be
       0.25998986 -0.19625005 -0.26376405 -0.16755636

fc2.bias f4 [32]
000000 c6 dd d5 bd c2 9c 95 bd 7a fe 6b 3d 0b 89 37 be
       -0.104426906 -0.0730529 0.057615735 -0.17923371
000010 e5 f5 fb 3d 0d ab 40 3e ea ef c3 3d d3 95 19 be
       0.1230276 0.1881525 0.09567244 -0.1499856
000020 52 07 08 3e a9 8a 10 3e 1a ec 94 3d 9e 9e d6 3c
       0.13284042 0.14115395 0.07271595 0.026198681
000030 70 03 ef 3c ea 17 8c bb 74 13 46 3e 9a 28 74 3e
       0.029176444 -0.0042753117 0.19343358 0.23843613
000040 cd 5c dc bd 7e a0 16 3e 05 ea 5a bc 19 8b ee bc
       -0.10759888 0.1470966 -0.013361459 -0.029119061
000050 eb 6d d7 bd 0b d7 41 3e 23 d3 31 3e 5a 6d f6 3d
       -0.10519012 0.18929689 0.17365699 0.12032576
000060 d1 cf 2e be 6b 9a e6 3d fe 34 56 3d 84 1f 90 bc
       -0.17071463 0.11259922 0.05229663 -0.017593153
000070 a0 8e a3 bd 15 c7 13 3e 5d 26 fd 3c 33 b6 7d 3d
       -0.07986188 0.14431413 0.030902082 0.061941337

fc3.weight f4 [1, 32]
000000 54 81 fb 3e 28 01 ea 3e 83 0a a5 be 03 51 26 3f
       0.49122107 0.45704007 -0.32234582 0.64967364
000010 e7 31 9a be 48 3f e3 be 84 b1 bf be b7 6b bc 3e
       -0.30116197 -0.44384217 -0.3744012 0.3680093
000020 8a 35 ab be 28 6c 19 3f c9 f0 cb be 4e 96 9b be
       -0.33439285 0.5993066 -0.39832142 -0.3038811
000030 45 6f ed be eb 02 b4 3e e3 e9 c3 be 7e cb 09 bf
       -0.46373954 0.35158476 -0.3826438 -0.5382613
000040 7b 10 f5 3e 76 61 8a be 5b ef e5 3e 2f c0 17 3f
       0.47864136 -0.27027482 0.44909176 0.59277624
000050 f0 52 04 3f f8 0d c6 be f6 cb b9 be e1 4c a5 be
       0.5168905 -0.38682532 -0.36288422 -0.32285216
000060 70 a1 eb 3e 0c f3 2a 3f 72 c8 a6 be f0 36 05 3f
       0.46021605 0.6677711 -0.32574803 0.5203695
000070 19 0c fa 3e b1 35 cc be 71 a9 a5 be 5c 1a c5 be
       0.48837355 -0.39884713 -0.32355836 -0.38496673
