Models/SavedModels/lung_cancer_model.pth (torch, 15276 bytes, 5 tensors)

fc1.weight f4 [64, 15]
0	0x3dbcd681	0.09220601
1	0x3e1f86d4	0.15578777
2	0xbdbb2aca	-0.09139021
3	0x3e966815	0.29376283
4	0x3da9b2ab	0.08286031
5	0x3dce687a	0.10078521
6	0x3c26cf54	0.010181267
7	0x3e74ab21	0.23893405
8	0x3e9b7669	0.30363777
9	0xbe1b5cdd	-0.15172143
10	0x3e9f5133	0.31116638
11	0x3dbfba56	0.09361713
12	0x3deb3026	0.11483793
13	0x3e0f8d3d	0.14018722
14	0x3de27e6d	0.1105927
15	0xbdea3db8	-0.11437553
16	0x3e8f625d	0.28004733
17	0x3e1e56a4	0.15462738
18	0xbe8920ff	-0.26782987
19	0x3d98d93a	0.07463308
20	0xbe954023	-0.29150495
21	0x3d86b97d	0.06578348
22	0x3d3909f9	0.045175526
23	0x3e587a6e	0.21140453
24	0xbec33aab	-0.38130698
25	0xbe88c336	-0.26711434
26	0xbe82f8fd	-0.25580588
27	0x3c2412d5	0.0100142555
28	0xbdf8dcfe	-0.12151526
29	0xbed6349b	-0.4183701
30	0x3dda107b	0.10647675
31	0xbe84eef5	-0.2596356
32	0x3e1db4c6	0.15400991
33	0x3e25afb4	0.16180307
34	0x3da3f7ae	0.080062255
35	0x3e46f86c	0.19430703
36	0x3e24e9b9	0.16104783
37	0x3ea9d2e1	0.331687
38	0x3dc3ded6	0.09563987
39	0xbcae02dc	-0.021241598
40	0x3e1a4f0c	0.15069216
41	0x3d2b9356	0.041888557
42	0x3e7da59d	0.24770208
43	0x3ead5ef8	0.33861518
44	0x3def6ae8	0.116903126
45	0xbc861124	-0.016365595
46	0x3ddc6e80	0.10763264
47	0x3e1dcacc	0.15409392
48	0x3e801dfe	0.25022882
49	0xbb6c7981	-0.0036083164
50	0xbdffdf28	-0.124937356
51	0x3d0f640a	0.035007514
52	0xbda44b62	-0.08022191
53	0x3e99b5c3	0.30021486
54	0x3e22ad6a	0.15886465
55	0x3e6816de	0.22664973
56	0x3e289399	0.16462554
57	0x3e0165bd	0.12636466
58	0x3ea4a251	0.32155088
59	0xbd9cedbc	-0.07662532
60	0xbdb51e8b	-0.08843716
61	0xbe00a3bd	-0.12562461
62	0x3bb9c5d7	0.0056693363
63	0x3dc2c8ac	0.095109314
64	0xbd44ab21	-0.048014764
65	0xbdee17d9	-0.11625642
66	0x3e740845	0.2383128
67	0xbe1214ec	-0.14265794
68	0xbe5175e5	-0.2045513
69	0xbe7e7bf1	-0.24851967
70	0x3e124a91	0.14286257
71	0x3db6f70b	0.089338385
72	0x3ec24f26	0.3795101
73	0xbe995459	-0.29947165
74	0xbed7a259	-0.4211605
75	0xbdf282b2	-0.118413344
76	0xbdad6a7e	-0.084675774
77	0x3e384f41	0.17998983
78	0x3e633656	0.22188696
79	0x3d208731	0.03919143
80	0xbe2d176f	-0.1690347
81	0xbea36051	-0.3190942
82	0x3d689582	0.056783207
83	0xbde32c4e	-0.11092435
84	0x3e672f60	0.22576666
85	0xbe4c481a	-0.1994938
86	0x3e668568	0.22511828
87	0xbdb47818	-0.088119686
88	0xbe5574a4	-0.20845276
89	0x3e73b9a8	0.23801291
90	0xbbe9001a	-0.007110608
91	0xbd805c36	-0.06267588
92	0x3e3b560b	0.18294542
93	0x3ea0cb13	0.31404933
94	0xbec73f10	-0.389153
95	0xbe83ec28	-0.2576611
96	0x3e08af24	0.13348061
97	0xbcde68dc	-0.02714961
98	0xbda1ba9b	-0.0789692
99	0xbe9b56be	-0.30339617
100	0xbe6fa795	-0.23403771
101	0x3dbf47ab	0.093398415
102	0x3d8cb80c	0.06871042
103	0xbe9874cf	-0.29776618
104	0xbdcc7af8	-0.09984392
105	0xbe578905	-0.21048363
106	0xbe2be865	-0.1678787
107	0xbe47b2ea	-0.19501844
108	0xbe5a052a	-0.21291032
109	0xbe388c66	-0.18022308
110	0x3eb41f5c	0.35180175
111	0x3db0e4a8	0.08637363
112	0x3d03e28c	0.032198474
113	0xbe91f968	-0.28510594
114	0xbe2da5ed	-0.16957827
115	0xbde6cf88	-0.11270052
116	0x3d55c2cf	0.052187737
117	0xbe8fd7a0	-0.28094196
118	0xbdef2008	-0.11676031
119	0xbe1e490e	-0.15457556
120	0xbd3a739e	-0.045520417
121	0x3d49de77	0.049284425
122	0xbc99cfed	-0.018775905
123	0xbe609f02	-0.21935657
124	0xbe951aa0	-0.29121876
125	0xbc3d8aec	-0.011568766
126	0xbc83580e	-0.016033199
127	0xbe00a17a	-0.12561598
128	0x3e987108	0.29773736
129	0x3d49727d	0.04918145
130	0x3eb26fbf	0.3485088
131	0x3e5de0e1	0.21667816
132	0xbde7557e	-0.11295603
133	0x3e6accd3	0.22929697
134	0xbb825801	-0.003977776
135	0xbc978e4e	-0.018500473
136	0xbe881f11	-0.26586202
137	0xbe26caa6	-0.16288242
138	0x3e667bf1	0.22508217
139	0x3dbb13ae	0.09134613
140	0x3e712365	0.23548658
141	0xbd54fb22	-0.05199731
142	0x3ea5443f	0.3227863
143	0xbd8a7a45	-0.06761602
144	0x3d98bf3e	0.074583516
145	0x3e3ce175	0.1844538
146	0x3e840114	0.25782073
147	0x3eb110c5	0.34583107
148	0x3ec22536	0.37919015
149	0xbde57456	-0.1120383
150	0x3e252637	0.16127859
151	0x3aa515dc	0.0012595016
152	0xbdb0d8c2	-0.08635093
153	0xbea8e68f	-0.32988402
154	0x3e47cc3c	0.19511503
155	0xbe801b52	-0.25020844
156	0x3d2fd18f	0.04292446
157	0x3e4c1a26	0.1993185
158	0x3cb7c301	0.022431852
159	0xbe4fb02b	-0.20282046
160	0x3e1a82ba	0.1508893
161	0xbdb1c6a1	-0.086804636
162	0x3de6ed00	0.11275673
163	0xbe753661	-0.23946525
164	0x3e218612	0.157738
165	0xbc27a475	-0.010232081
166	0xbd780a6a	-0.060556807
167	0x3e8418ec	0.25800264
168	0x3e2fe115	0.17175706
169	0xbe82a9ca	-0.25520164
170	0xbe54c35f	-0.20777653
171	0xbd98b9b1	-0.07457293
172	0x3e0e61f0	0.13904548
173	0xbc6244fd	-0.013810393
174	0xbe748903	-0.23880391
175	0xbdee6760	-0.11640811
176	0xbe8af6ac	-0.2714132
177	0x3e166bdd	0.14689584
178	0x3e81dfec	0.2536615
179	0xbe4d331e	-0.20039031
180	0x3ad8dbfc	0.0016545053
181	0x3e5fc3b7	0.21852003
182	0x3cfe6438	0.031053647
183	0xbcd337a0	-0.02578336
184	0x3e6bf0fd	0.23041148
185	0x3e76faaf	0.24119066
186	0x3e71aba9	0.2360064
187	0x3dbb498b	0.091448866
188	0xbd714e8c	-0.0589128
189	0xbc42a235	-0.0118794935
190	0xbcf04c25	-0.029333184
191	0xbdca40d2	-0.09875645
192	0x3ea49a3f	0.3214893
193	0x3ea81e21	0.32835487
194	0xbc5ca85a	-0.0134678725
195	0xbd9e41e2	-0.0772741
196	0x3e2207f0	0.1582334
197	0x3d89044e	0.06690274
198	0xbda2ce68	-0.07949525
199	0x3e52d44e	0.205888
200	0xbecb6e94	-0.39732802
201	0xbe839d43	-0.2570592
202	0x3e70cfa0	0.23516703
203	0xba5cb4ad	-0.0008419257
204	0xbcc3422a	-0.02383526
205	0xbe1f67da	-0.1556696
206	0xbe21c234	-0.15796739
207	0xbea51f87	-0.32250616
208	0xbdc2e13c	-0.09515616
209	0xbc6923fb	-0.01422977
210	0x3e4347c1	0.1907034
211	0x3e0d5c51	0.13804747
212	0xbe527946	-0.20554075
213	0xbe4bed4d	-0.19914742
214	0xbe2a3159	-0.16620387
215	0x3ec628ad	0.38702908
216	0xbc26914b	-0.0101664765
217	0x3cf381a7	0.029724909
218	0x3db11171	0.08645905
219	0xbc9c1b2e	-0.019055929
220	0xbe96aa6a	-0.2942689
221	0x3e72bc33	0.23704605
222	0x3c182ed5	0.009288509
223	0xbe4a919f	-0.19782113
224	0xbdf06593	-0.11738124
225	0x3e8f9277	0.2804143
226	0x3e4a5f77	0.1976298
227	0x3e0fe3bd	0.14051719
228	0xbe04399c	-0.12912601
229	0xbdf21307	-0.118200354
230	0xbe10d03d	-0.14141937
231	0x3ea52e73	0.32262
232	0x3e5923a7	0.21205007
233	0x3e7ccb09	0.24686827
234	0x3e6f4719	0.23366965
235	0x3e1936d4	0.14962322
236	0x3db81165	0.08987693
237	0xbe0769aa	-0.13223901
238	0xbddd1a29	-0.10796005
239	0xbe2102f4	-0.15723783
240	0x3e41b63e	0.18917176
241	0xbe3c7da1	-0.18407299
242	0xbe0e6fac	-0.13909787
243	0xbccf8905	-0.02533389
244	0xbe01791a	-0.12643853
245	0x3b218806	0.0024647727
246	0xbe99a6d1	-0.30010083
247	0x3e408a7b	0.18802826
248	0xbdc3066c	-0.09522709
249	0x3e56edcb	0.20989148
250	0xbe7b8742	-0.24563316
251	0xbe2fb2dd	-0.17158075
252	0x3d628e3d	0.05531143
253	0xbd29a434	-0.041416362
254	0x3c940e16	0.018073123
255	0xbe897290	-0.26845217

fc1.bias f4 [64]
0	0xbeaaac7a	-0.33334714
1	0x3e0c6040	0.13708591
2	0xbebcf2b8	-0.3690393
3	0xbd98e8e6	-0.07466297
4	0x3d6ca9f1	0.057779256
5	0x3ec27dbb	0.3798655
6	0x3e16ab1c	0.1471371
7	0xbbf302c8	-0.007416103
8	0xbbaee9eb	-0.005337944
9	0x3cd5660f	0.026049642
10	0x3e53e737	0.2069367
11	0x3e5ab7b2	0.21359137
12	0x3dc8ed59	0.098108955
13	0xbdaaa5b7	-0.08332389
14	0x3eb6aad5	0.3567721
15	0xbd934f0b	-0.071928106
16	0xbbd24274	-0.0064166132
17	0x3d5d013d	0.05395626
18	0x3ea70922	0.32624155
19	0x3eccbfb7	0.39990017
20	0xbcf47dae	-0.029845085
21	0x3c009116	0.007847091
22	0x3e7b2532	0.24525908
23	0x3ea60f78	0.32433677
24	0xbe2f8e5f	-0.17144154
25	0xbdfb3c12	-0.12267317
26	0xbdc193d5	-0.09452025
27	0x3e55dcc7	0.20885001
28	0x3e8acd1b	0.27109608
29	0x3d62a3ea	0.055332102
30	0xbde5c566	-0.112192914
31	0x3e59d5f4	0.21273023
32	0xbde47ce1	-0.11156631
33	0xbe8e5a9c	-0.27803504
34	0x3ebccf10	0.36876726
35	0xbe59baf3	-0.21262722
36	0xbe3c0245	-0.18360241
37	0x3e0cfa0f	0.13767265
38	0x3dfe88fc	0.124284714
39	0xbe5a6abc	-0.21329778
40	0x3db18272	0.086674586
41	0x3d02696a	0.031838812
42	0xbd09a8bd	-0.033608187
43	0xbd4e5961	-0.050378207
44	0xbe50d1e3	-0.20392565
45	0xbde0afa6	-0.10971002
46	0xbe2a21d9	-0.16614474
47	0xbd0994a8	-0.033589035
48	0x3cbe03bd	0.023195142
49	0xbdba3f99	-0.090941615
50	0x3e517b18	0.20457113
51	0xbe23e45c	-0.16005081
52	0xbe9b99c2	-0.30390745
53	0x3df3d95e	0.11906694
54	0xbdcfcd14	-0.101465374
55	0x3e8262d4	0.25466025
56	0xbe22dae0	-0.15903807
57	0x3e31bd79	0.17357434
58	0x3e967053	0.29382572
59	0x3e3a9138	0.18219459
60	0xbe8b1b5a	-0.27169305
61	0x3cb9667c	0.022631876
62	0xbe3fe56a	-0.18739858
63	0xbd9ca239	-0.07648129

fc2.weight f4 [32, 64]
0	0x3e3cf73e	0.1845369
1	0xbe41bbd2	-0.18919304
2	0x3e1ba46a	0.15199438
3	0x3d22d1ee	0.039750986
4	0xbda6eca9	-0.08150608
5	0xbe0b16e5	-0.13582952
6	0xbd604bf2	-0.054759927
7	0xbc195a38	-0.009359889
8	0x3c84388c	0.016140245
9	0x3ba17241	0.00492695
10	0xbd9ae150	-0.07562506
11	0x3c3bd8a7	0.011465228
12	0x3e3f88cd	0.18704529
13	0xbbf4f641	-0.007475645
14	0xbdfc85df	-0.123302214
15	0xbd30d409	-0.043170962
16	0xbe8e0b2a	-0.27742893
17	0x3e660bf0	0.22465491
18	0xbdb93153	-0.09042611
19	0xbdac760f	-0.084209554
20	0x3c630c87	0.013857967
21	0xbe509a44	-0.20371348
22	0xbdd4cfab	-0.10391172
23	0x3de72e33	0.11288109
24	0xbe16fea4	-0.14745575
25	0x3d5c149d	0.053730596
26	0x3cb19d92	0.02168158
27	0xbe21331e	-0.15742156
28	0xbe69f259	-0.22846355
29	0xbce10b20	-0.027471125
30	0x3e602451	0.21888854
31	0x3dcc8921	0.09987093
32	0x3d3406d0	0.04395181
33	0x3d5f37bd	0.054496516
34	0xbe06116e	-0.13092586
35	0x3c95ed29	0.018301563
36	0x3cfa2359	0.030534433
37	0xbca9c6c6	-0.020724665
38	0x3cce776b	0.025203427
39	0x3e6f58b1	0.23373677
40	0x3a69b65e	0.00089154195
41	0xbd80ea51	-0.06294692
42	0xbe43bbbb	-0.19114582
43	0x3e30ea9b	0.17276995
44	0x3e72e678	0.2372073
45	0xbd14f94f	-0.03637057
46	0x3e4f38c0	0.20236492
47	0xbd87cacc	-0.06630477
48	0xbe18e84f	-0.14932369
49	0x3e14ce79	0.14531888
50	0xbe35ff61	-0.177732
51	0xbdc737b3	-0.09727421
52	0x3c67f530	0.014157578
53	0xbdd6ff30	-0.10497892
54	0x3c2f8bae	0.010714455
55	0xbe3531ad	-0.17694731
56	0x3c84a7be	0.016193267
57	0x3d8b8658	0.068127334
58	0xbc8fb4d2	-0.017542277
59	0xbe828d49	-0.25498417
60	0x3e058c86	0.13041887
61	0xbda2c3fa	-0.07947536
62	0xbbf1ff09	-0.007385139
63	0xbd9482a5	-0.07251481
64	0x3c84d9d0	0.016217142
65	0xbe74cef2	-0.23907068
66	0x3e1d7e0b	0.15380113
67	0x3e15c0ae	0.14624283
68	0xbe528499	-0.20558394
69	0xbdafa252	-0.08575882
70	0x3c8b2186	0.016983759
71	0xbb8999c1	-0.004199237
72	0xbc07ee88	-0.008296616
73	0x3e648e80	0.22319984
74	0x3cc29879	0.023754345
75	0x3b9dc8ad	0.004815182
76	0x3cc28edb	0.02374976
77	0xbcf9eff8	-0.030509934
78	0xbe356b17	-0.17716633
79	0x3e426b20	0.18986177
80	0xbe3baa08	-0.1832658
81	0x3e3caa2a	0.18424287
82	0xbd41425a	-0.04718242
83	0xbd7201ac	-0.059083626
84	0x3d1f9efc	0.03896998
85	0xbd0ceb98	-0.034404367
86	0xbe13074d	-0.14358254
87	0xbd4c0bc1	-0.049815897
88	0xbe4736a8	-0.19454443
89	0x3e4264b9	0.18983735
90	0xbe1fd755	-0.15609486
91	0xbd979fd6	-0.07403533
92	0xbe3d7f3f	-0.18505572
93	0x3e5bdcb2	0.21470907
94	0x3e320a8e	0.17386839
95	0x3e3c5119	0.18390311
96	0x3c7da8f4	0.015482176
97	0xb98e5a31	-0.00027151548
98	0xbdc03d4d	-0.09386692
99	0x3ccd04e7	0.025026752
100	0x3e59b1cc	0.2125923
101	0xbe3ccaa2	-0.18436673
102	0xbcf4ed64	-0.029898353
103	0x3e6d0217	0.23145328
104	0x3e040301	0.12891771
105	0xbdc07a75	-0.09398357
106	0xbe7ebfe1	-0.24877883
107	0x3e484fff	0.19561766
108	0x3de7adbc	0.11312434
109	0xbe660510	-0.22462869
110	0x3e562734	0.20913392
111	0xbcc7d0d1	-0.024391564
112	0xbe33c11d	-0.17554136
113	0x3e55f5ee	0.20894596
114	0xbe3e756e	-0.18599483
115	0xbe63d5a5	-0.22249468
116	0x3e066834	0.13125688
117	0xbdd80c01	-0.105491646
118	0x3e00b5bb	0.12569325
119	0xbe6dbcf5	-0.23216613
120	0x3de40fe3	0.11135843
121	0x3cd2dcad	0.025739992
122	0xbc759c5e	-0.014990894
123	0xbe669060	-0.22516012
124	0x3e146b23	0.14493994
125	0xbdfb1062	-0.12258984
126	0xbe508ea6	-0.20366916
127	0xbcd1fb92	-0.025632653
128	0xbd2a4f97	-0.04157981
129	0x3e32d739	0.17464913
130	0xbe3cc6b7	-0.18435179
131	0xbd87998c	-0.066210836
132	0x3e6c09a6	0.23050556
133	0x3e4b8a2e	0.1987693
134	0x3cb553f3	0.022134757
135	0x3dbb8b06	0.09157376
136	0xbe1aa341	-0.15101339
137	0x3e2b8c72	0.16752794
138	0x3e4491c3	0.19196229
139	0x3e59cf84	0.21270567
140	0xbca25330	-0.019815058
141	0x3e8135b9	0.252363
142	0x3d5da4b4	0.05411215
143	0xbe183d28	-0.1486708
144	0x3d9d5d56	0.07683818
145	0x3dc8f3a3	0.09812095
146	0x3dc15ca6	0.094414994
147	0x3dca5390	0.098792195
148	0xbe0df3f4	-0.13862592
149	0x3e056b4a	0.13029209
150	0x3e72e541	0.23720266
151	0x3e18c98f	0.14920639
152	0x3e635d03	0.2220345
153	0xbcef0148	-0.029175416
154	0x3e78eb21	0.24308445
155	0x3e040421	0.128922
156	0x3e1ad3ce	0.1511986
157	0x3e125f04	0.14294058
158	0xbd8c245d	-0.06842873
159	0xbc649736	-0.013952067
160	0xbd76b128	-0.060227543
161	0xbe4ac8d4	-0.19803172
162	0x3db8952a	0.09012826
163	0xbe096463	-0.134172
164	0xbdd53c38	-0.104118764
165	0x3e3194d9	0.17341937
166	0x3d824998	0.06361693
167	0x3d9f2b69	0.07771952
168	0x3a8c0112	0.0010681471
169	0x3d504b73	0.050853204
170	0x3d6db8ce	0.05803757
171	0xbe24cc09	-0.16093458
172	0xbe51de39	-0.20494927
173	0x3dcda6d1	0.10041583
174	0xbd8e4ad9	-0.0694787
175	0x3dc01b87	0.093802504
176	0x3df0049d	0.1171963
177	0xbdd52692	-0.10407747
178	0x3d999e41	0.07500888
179	0x3e918905	0.2842485
180	0xbe5eadcc	-0.21745986
181	0x3c87540f	0.016519574
182	0xbd9e8e9c	-0.07742044
183	0x3e1a05a5	0.15041216
184	0x3e0c0bf6	0.13676438
185	0x3e0e741b	0.13911478
186	0x3e01659a	0.12636414
187	0x3cc91b6d	0.02454921
188	0x3bcdf896	0.0062857373
189	0x3e88ba9b	0.2670487
190	0x3d674ebe	0.05647158
191	0x3e8849d7	0.26618835
192	0x3e3763f8	0.17909229
193	0xbe0265a7	-0.1273409
194	0x3e2bb6e6	0.16768989
195	0x3d1cf084	0.03831531
196	0xbe5cf9e6	-0.21579704
197	0xbd761039	-0.060074065
198	0xbdaedf68	-0.08538705
199	0x3c890e7a	0.016730536
200	0x3e02bf51	0.12768294
201	0x3cb20522	0.021730963
202	0x3d762eb8	0.06010315
203	0xb98bd94e	-0.0002667405
204	0x3e239363	0.15974192
205	0xbe1cebbd	-0.15324302
206	0xbd8c4aad	-0.06850181
207	0x3caaffb2	0.020873878
208	0xbe04e0b5	-0.12976344
209	0x3e1505f6	0.14553055
210	0xba4d8978	-0.0007840614
211	0xbe2be12f	-0.1678512
212	0x3d1082d7	0.03528103
213	0xbd9a53c4	-0.07535508
214	0xbdce8cd0	-0.100854516
215	0x3e0b8a06	0.1362687
216	0xbe5c9dc6	-0.21544561
217	0x3dba0887	0.09083658
218	0xbddb6fad	-0.1071466
219	0xbe39577d	-0.1809978
220	0xbd2b07a2	-0.041755326
221	0x3dd63850	0.104599595
222	0x3bb3fd07	0.0054928097
223	0x3db9a01a	0.0906374
224	0x3cd0b941	0.025478961
225	0x3de75e2f	0.11297261
226	0xbdab5f77	-0.08367818
227	0xbca3e208	-0.020005241
228	0x3dbb7769	0.09153635
229	0xbdc9e279	-0.09857649
230	0xbe166a43	-0.14688973
231	0x3e6ea661	0.23305656
232	0x3d27fefb	0.041014653
233	0xbd97e8e3	-0.074174665
234	0xbdedd3d9	-0.11612672
235	0xbcecc33b	-0.028901687
236	0x3e239a93	0.15976934
237	0xbc92597c	-0.017864935
238	0x3b87d80d	0.0041456283
239	0xbe3b3af8	-0.18284214
240	0xbc893026	-0.016746592
241	0x3e3d6280	0.18494606
242	0xbe37afbf	-0.17938136
243	0xbd722065	-0.059112925
244	0x3d8ce82d	0.068802215
245	0xbe86b455	-0.26309457
246	0x3dd9afbe	0.10629223
247	0xbdceec09	-0.10103614
248	0x3db80547	0.089853816
249	0x3deab0bf	0.11459493
250	0xbd90ddca	-0.07073553
251	0xbd9bfc4d	-0.07616482
252	0x3e3c4fd7	0.18389831
253	0xbd0f1649	-0.034933362
254	0x3dd8cd66	0.10586052
255	0xbdea7647	-0.11448341

fc2.bias f4 [32]
0	0xbdf5c7c7	-0.12000995
1	0xbdc24878	-0.094864786
2	0x3da43ed4	0.08019796
3	0xbe50a33f	-0.20374773
4	0x3dd4a217	0.10382479
5	0x3e4f1cc2	0.20225814
6	0x3db1a886	0.086747214
7	0xbdf68b86	-0.12038331
8	0x3dfb833c	0.1228089
9	0x3b953b8b	0.004554217
10	0x3d772694	0.060339525
11	0x3c357a49	0.011076518
12	0x3d016e1b	0.031599145
13	0xbd377867	-0.04479256
14	0x3e2749c2	0.1633673
15	0x3e815a94	0.25264418
16	0xbe080750	-0.1328404
17	0x3e2c4cb9	0.16826142
18	0xbd294f6a	-0.0413355
19	0xbd96f11c	-0.07370207
20	0xbde66240	-0.112492085
21	0x3e47b2c7	0.19501792
22	0x3e422c8c	0.18962306
23	0x3e0a7b0e	0.13523504
24	0xbe314ca7	-0.17314397
25	0x3c166d17	0.0091812825
26	0x3cd4791d	0.025936658
27	0xbd212e52	-0.039350815
28	0xbdde77cf	-0.108626954
29	0x3e0a50cd	0.13507386
30	0xbb3c1d47	-0.0028703974
31	0x3d638ad1	0.055552308

fc3.weight f4 [1, 32]
0	0x3e5978d4	0.21237499
1	0x3e864f4e	0.2623238
2	0xbe312184	-0.17297941
3	0x3e911bba	0.28341466
4	0xbe35ac33	-0.1774147
5	0xbe904235	-0.28175512
6	0xbe5a3ab4	-0.21311456
7	0x3e144ac1	0.14481641
8	0xbe2f9eb2	-0.17150381
9	0x3d926496	0.071480915
10	0xbe6870ab	-0.2269923
11	0xbe42e356	-0.19032034
12	0xbe9b6956	-0.30353802
13	0x3e072c4f	0.13200496
14	0xbe3a0c67	-0.18168794
15	0xbea45bc5	-0.32101265
16	0x3e1999ea	0.1500012
17	0xbe036c45	-0.1283427
18	0x3e418ec4	0.18902117
19	0xbb37f7f8	-0.0028071385
20	0x3e71edc0	0.2362585
21	0xbe46f5b9	-0.19429673
22	0xbe3c3494	-0.18379432
23	0xbe3af740	-0.18258381
24	0x3e34a2fb	0.17640297
25	0x3eb0d11d	0.3453454
26	0xbe2cb7f7	-0.16867052
27	0x3e8896c5	0.26677528
28	0x3e884b2e	0.26619858
29	0xbe646d44	-0.22307307
30	0xbe1bda53	-0.15220003
31	0xbe627197	-0.22113644
