Models/SavedModels/lung_cancer_model.pth (torch, 44204 bytes, 5 tensors)

fc1.weight f4 [128, 15]
0.11774217 0.31312832 -0.116657645 0.33746222 0.051532216 0.0830387 -0.050608516 0.17861325
0.29681307 -0.17545474 0.2900644 0.08942137 0.08956627 0.13082401 0.12435341 -0.07606824
0.4575025 0.25305608 -0.31290516 0.27476266 -0.38901162 -0.16829745 0.082180314 -0.08758473
-0.3029905 -0.26519638 -0.21922448 0.084057614 -0.06936449 -0.35420552 0.19071957 -0.23692657
0.22851326 0.0932774 0.051365126 0.27731353 0.16695194 0.32403216 0.04537654 -0.047949005
0.16018552 0.062260143 0.18727273 0.31694627 0.07964377 -0.2519963 0.28856006 0.021548774
0.06140199 -0.3136273 -0.37801355 -0.08385778 -0.28263766 0.16704135 0.2815498 -0.0424276
0.047293786 -0.034896497 0.048646707 -0.0068605295 -0.07250537 -0.11720438 0.04863944 0.072600044
0.03645548 -0.045408085 0.30531153 -0.21670511 -0.15016572 -0.29326308 0.16981544 -0.014194952
0.33945292 -0.29705405 -0.39933106 -0.08170318 -0.2039636 0.11848551 0.22216174 0.1984962
-0.25453424 -0.25895777 0.01698412 -0.07719454 0.23326507 -0.061833248 0.14569502 -0.3455111
-0.16321158 0.26398712 0.039209668 -0.13853888 0.19721045 0.34071803 -0.3160739 -0.23504764
0.09446732 -0.075046614 -0.05229188 -0.3205704 -0.22283588 0.09594892 0.06812787 -0.15786369
-0.09225505 -0.30828354 -0.7097724 -0.20016262 -0.4389259 -0.23660098 0.25952554 0.19545306
0.35476807 -0.50334215 -0.3906553 -0.28822318 0.123745546 -0.29164088 -0.08505976 -0.487777
-0.13083415 0.3415441 0.0021015515 -0.24103369 -0.30450314 -0.09182412 -0.16146833 -0.084177375
0.32515818 -0.02926434 0.4756098 0.23993997 -0.094242334 0.25572595 -0.26135433 -0.032052238
0.06461837 -0.41294312 0.039604053 -0.14790837 0.046239756 -0.33182937 0.11454507 -0.25882867
-0.00537307 -0.09432767 0.09860649 0.3595526 0.15227172 -0.3428019 0.32033414 -0.3986216
0.18048541 0.04108771 0.43173286 -0.07740081 0.2448892 0.17411721 -0.041983094 -0.13960737
0.20739193 0.2196041 0.14304225 -0.16065459 0.0350378 -0.10654021 -0.07892897 0.39579397
0.09786098 -0.27334264 -0.16304216 0.13270213 0.14994508 0.13762009 -0.30239016 -0.22194797
-0.19995919 0.24760717 0.13489379 -0.30532107 -0.018194692 0.07865039 0.07517087 0.02343813
0.2600382 0.26888698 0.31872964 0.053948335 -0.0689082 0.115677975 -0.008491711 -0.005468707
0.31121373 0.30178684 0.11511399 -0.12448593 0.12881832 0.020244427 0.1731889 0.07166454
-0.382675 -0.10505508 0.20490605 0.12485267 -0.1154064 -0.23557582 -0.22940923 -0.106204
0.06042045 0.14255248 0.0012989127 0.2932991 -0.21819614 -0.22169256 -0.33830246 0.23768324
0.22537166 -0.015918793 0.36963633 -0.10296462 -0.018233852 0.2926714 -0.25733688 0.066937216
-0.4778351 0.41967896 0.6028967 0.20867506 -0.14628449 -0.29638365 -0.023577776 0.2138881
0.089071564 0.1837352 0.33435798 0.0031774763 0.2412779 -0.34937036 -0.20846415 -0.01777365
0.1878263 0.07506028 -0.11841557 -0.12259983 0.071725026 -0.11671077 -0.21523766 0.052250687
0.08553387 0.25532264 -0.09111045 -0.16614367 0.021135233 -0.056005765 0.049305003 -0.40806514
00000000: cf22 f13d 5b52 a03e 34ea eebd d9c7 ac3e
00000010: 7213 533d 3210 aa3d e04a 4fbd 64e6 363e
00000020: e2f7 973e 68aa 33be 5283 943e 8d22 b73d
00000030: 856e b73d bbf6 053e 00ad fe3d aac9 9bbd
00000040: c53d ea3e 9190 813e 1b35 a0be b1ad 8c3e
00000050: 882c c7be 2b56 2cbe 274e a83d 9f5f b3bd
00000060: 9221 9bbe d2c7 87be 627c 60be 6626 ac3d
00000070: f80e 8ebd 6d5a b5be fe4b 433e e19c 72be
00000080: 61ff 693e 3908 bf3d 3d64 523d 0afc 8d3e
00000090: 73f5 2a3e 8be7 a53e c0dc 393d 2d66 44bd
000000a0: ac07 243e 7e04 7f3d 6cc4 3f3e c846 a23e
000000b0: 461c a33d a905 81be 25be 933e 0e87 b03c
000000c0: a780 7b3d c293 a0be fe8a c1be a1bd abbd
000000d0: e2b5 90be e30c 2b3e 4c27 903e 90c8 2dbd
000000e0: 21b7 413d a1ef 0ebd c541 473d 4bce e0bb
000000f0: b27d 94bd da08 f0bd 263a 473d 55af 943d
00000100: 5752 153d d4fd 39bd cb51 9c3e f2e7 5dbe
00000110: 0bc5 19be 9426 96be 19e4 2d3e f291 68bc
00000120: c6cc ad3e 7817 98be 1f75 ccbe ff53 a7bd
00000130: d5db 50be 88a8 f23d 5e7e 633e 9642 4b3e
00000140: 5052 82be 1d96 84be 4822 8b3c 2c18 9ebd
00000150: 0add 6e3e dc44 7dbd 1331 153e d5e6 b0be
00000160: f020 27be 5229 873e 519a 203d 23dd 0dbe
00000170: 89f1 493e 9872 ae3e 70d4 a1be 54b0 70be
00000180: 1578 c13d 0ab2 99bd 0330 56bd ce21 a4be
00000190: 172f 64be de80 c43d a086 8b3d 05a7 21be
000001a0: 37f0 bcbd 57d7 9dbe a5b3 35bf 6ef7 4cbe
000001b0: e5ba e0be 8747 72be 88e0 843e d924 483e
000001c0: 29a4 b53e 08db 00bf f903 c8be fd91 93be
000001d0: 4e6e fd3d f451 95be d033 aebd e8bd f9be
000001e0: 63f9 05be dede ae3e 2fba 093b 89d1 76be
000001f0: d6e7 9bbe 490e bcbd f457 25be 3065 acbd
00000200: 227b a63e c5bb efbc 2183 f33e d3b2 753e
00000210: 2002 c1bd 83ee 823e 3cd0 85be 3549 03bd
00000220: a356 843d 486d d3be dc37 223d 4b75 17be
00000230: e665 3d3d 8ae5 a9be 9b96 ea3d 3185 84be
00000240: 9410 b0bb de2e c1bd 33f2 c93d 4717 b83e
00000250: 1eed 1b3e bb83 afbe d602 a43e 2118 ccbe
00000260: 2bd1 383e 964b 283d 170c dd3e 5184 9ebd
00000270: 3cc4 7a3e c84b 323e 77f6 2bbd 3cf5 0ebe
00000280: 8d5e 543e e6df 603e ab79 123e a382 24be
00000290: cc83 0f3d c131 dabd 83a5 a1bd 82a5 ca3e
000002a0: 566b c83d 91f3 8bbe 86f4 26be 11e3 073e
000002b0: 348b 193e 48ec 0c3e e2d2 9abe 5446 63be
000002c0: 1ac2 4cbe bc8c 7d3e 9921 0a3e 0b53 9cbe
000002d0: 090d 95bc 7513 a13d 2ff3 993d 5201 c03c
000002e0: ba23 853e 8eab 893e 8830 a33e eef8 5c3d
000002f0: be1f 8dbd 93e8 ec3d d120 0bbc d732 b3bb
00000300: 6857 9f3e ce83 9a3e e2c0 eb3d 7bf2 febd
00000310: f3e8 033e a4d7 a53c 6e58 313e dcc4 923d
00000320: faed c3be 1e27 d7bd e4d2 513e c2b2 ff3d
00000330: 315a ecbd ca3a 71be 41ea 6abe 7c81 d9bd
00000340: 6f7b 773d 47f9 113e 4740 aa3a 4d2b 963e
00000350: cf6e 5fbe 6003 63be fb35 adbe 3c63 733e
00000360: d4c7 663e 2168 82bc f940 bd3e 1ddf d2bd
00000370: 295f 95bc 07d9 953e a9c1 83be 6116 893d
00000380: cda6 f4be 29e0 d63e 7057 1a3f eaae 553e
00000390: 9acb 15be 99bf 97be 2e26 c1bc 7b05 5b3e
000003a0: 276b b63d 1525 3c3e f830 ab3e 353d 503b
000003b0: 8e11 773e ace0 b2be a077 55be 0c9a 91bc
000003c0: 8a55 403e 34b9 993d dd83 f2bd 9f15 fbbd
000003d0: 92e4 923d 0e06 efbd 4367 5cbe d104 563d
000003e0: 622c af3d a6b9 823e 1e98 babd 9121 2abe
000003f0: cc23 ad3c 4d66 65bd 0bf4 493d eaed d0be

fc1.bias f4 [128]
-0.25452575 -0.11426202 -0.11436249 -0.029731669 0.22342472 0.08553722 0.14193533 0.119178735
0.17157035 0.28189936 -0.34300372 0.04682611 -0.27469596 0.18299077 -0.06486239 -0.009049425
0.31282568 -0.26690793 0.2715553 0.133128 0.26114142 -0.20427376 0.1885777 0.036121503
0.06728323 0.115019746 -0.16009702 -0.17896405 0.3673302 -0.24551608 -0.16966866 0.07000493
-0.09957449 -0.045702368 -0.19014634 0.09813467 -0.25901428 0.12125878 0.25086135 0.12607718
0.07259328 0.10260596 0.026318183 -0.080638446 -0.16340552 -0.22138564 -0.19095628 0.33519647
0.068526335 0.12937531 0.21542828 -0.04525592 -0.017176963 -0.2196707 -0.13218063 0.21185705
-0.17803517 0.013020179 0.022192936 0.26552317 0.067644045 0.11376179 0.23482665 0.12937112
0.08941092 -0.090069264 -0.22428231 -0.10757604 -0.038220126 -0.058879178 0.15356213 0.0808369
0.2668226 -0.24415062 -0.24224113 -0.042056743 -0.04108421 0.18095732 -0.24531554 0.04840031
-0.12581347 -0.062349435 0.17110088 -0.2559293 0.08305943 -0.11251982 0.07628102 0.12200122
0.046388764 0.08083973 0.05034803 -0.11010375 -0.09537997 -0.19040427 -0.010548727 -0.28579894
0.22814183 -0.08900423 -0.10512851 0.099289894 0.07143371 -0.090742126 0.21516262 -0.11261972
0.15967387 0.1718307 -0.21003732 -0.24217534 -0.033193413 0.13871011 0.2621174 0.264898
0.021292763 -0.25326693 0.06802328 -0.21545364 -0.15716782 -0.048071288 0.18668078 0.22895859
0.043202594 -0.221592 -0.32769433 -0.15391532 0.027331134 0.09512447 -0.038142763 0.3162923
00000000: 3351 82be 3502 eabd e236 eabd d48f f3bc
00000010: 73c9 643e 232e af3d 7f57 113e fb13 f43d
00000020: 23b0 2f3e 1d55 903e 2f9e afbe bccc 3f3d
00000030: f3a4 8cbe ef61 3b3e 93d6 84bd 0a44 14bc
00000040: b02a a03e 28a8 88be 4c09 8b3e b552 083e
00000050: 54b4 853e 242d 51be 831a 413e 24f4 133d
00000060: cacb 893d 798f eb3d 79f0 23be 5a42 37be
00000070: b412 bc3e 9168 7bbe 9fbd 2dbe bf5e 8f3d
00000080: b6ed cbbd 6832 3bbd b9b5 42be d4fa c83d
00000090: 859d 84be 8656 f83d e670 803e 601a 013e
000000a0: c9ab 943d 1323 d23d 3b99 d73c c525 a5bd
000000b0: c753 27be ebb2 62be 0b8a 43be df9e ab3e
000000c0: 8957 8c3d f67a 043e 3b99 5c3e 465e 39bd
000000d0: b4b6 8cbc 5bf1 60be 5c5a 07be 0ef1 583e
000000e0: da4e 36be 9752 553c f6cd b53c a7f2 873e
000000f0: f688 8a3d f1fb e83d 6676 703e dd79 043e
00000100: 131d b73d 3c76 b8bd 43aa 65be d450 dcbd
00000110: b58c 1cbd 4b2b 71bd 643f 1d3e d18d a53d
00000120: f99c 883e 9f02 7abe 0f0e 78be b143 2cbd
00000130: eb47 28bd e04c 393e ff33 7bbe 673f 463d
00000140: 3fd5 00be 1f62 7fbd 1235 2f3e 2a09 83be
00000150: 101b aa3d cb70 e6bd 3939 9c3d c7db f93d
00000160: 2502 3e3d 4d8f a53d bc39 4e3d 137e e1bd
00000170: 9356 c3bd 56f9 42be 91d4 2cbc 3d54 92be
00000180: 039e 693e da47 b6bd 9e4d d7bd 8058 cb3d
00000190: d64b 923d 02d7 b9bd 9753 5c3e 2ba5 e6bd
000001a0: 8c81 233e 63f4 2f3e 0614 57be d0fc 77be
000001b0: d1f5 07bd 060a 0e3e 4034 863e b6a0 873e
000001c0: 296e ae3c 34ac 81be ca4f 8b3d e19f 5cbe
000001d0: 9af0 20be 66e6 44bd 3f29 3f3e 1f74 6a3e
000001e0: 34f5 303d 03e9 62be 8dc7 a7be fa9b 1dbe
000001f0: 8be5 df3c 9ed0 c23d 963b 1cbd 10f1 a13e

fc2.weight f4 [64, 128]
0.115895174 -0.26042014 0.07838573 -0.026312133 -0.034348037 -0.21457063 -0.12582514 0.37263417
0.24312453 -0.06235364 0.12966083 -0.17850223 0.12597089 -0.104128145 0.32379434 0.19571126
-0.032096088 0.22242025 0.00041377282 -0.16100504 -0.016002512 -0.08078242 -0.19480163 0.16940339
-0.23336741 0.1567162 -0.10496313 -0.21400969 -0.08267011 0.19095191 -0.12016938 0.19841374
-0.028545376 0.1945729 0.1747649 -0.0010219984 0.10589056 0.009616426 -0.116670445 -0.16662772
0.13524939 -0.19575164 -0.1093405 0.06086985 0.14223781 -0.08108908 0.0354712 -0.15397616
-0.100222096 0.08076204 -0.10139123 -0.21949461 -0.05532768 -0.37759078 0.07753188 -0.17685106
0.11174574 0.113457166 0.056887086 -0.079296485 0.0046427194 -0.14029771 -0.10491508 -0.1465636
0.063685074 0.12979066 0.049623773 0.30329376 -0.13190466 0.24289156 -0.22498211 0.16178039
0.031131504 0.10312728 0.1984126 -0.0173649 -0.13535382 0.05533496 0.18950063 -0.106529005
0.13627265 0.0063006277 0.08076418 -0.20671456 -0.34452873 -0.085759684 -0.1329121 -0.016917478
-0.038371008 -0.3733671 0.11024181 0.08613766 0.012047165 -0.05627699 0.04755643 0.16931093
-0.024358908 0.29251078 0.30992052 -0.20468222 0.15418796 0.076211326 -0.015249911 -0.26327303
-0.06992245 -0.25378713 0.08656851 0.24656844 0.16713308 -0.056912277 -0.12784685 0.028875317
-0.21840417 0.09920972 -0.12591563 0.2055811 0.13871962 -0.30923262 -0.18134299 -0.2183817
-0.10687906 0.1581537 0.1855937 0.0074416427 -0.013869829 -0.109891854 0.19658089 -0.091804415
0.031075336 0.024133652 -0.044195633 0.05383543 -0.034285724 0.001395101 -0.044481367 -0.08384267
0.014251575 0.015785469 -0.056254424 0.05422155 -0.08908011 -0.0968166 -0.05459297 -0.042166904
0.00029252123 -0.026774982 0.03075856 -0.077571854 0.002791305 0.0015306771 0.023346037 0.07645449
0.05439847 -0.05971224 -0.07243005 -0.011197107 -0.044337977 0.030874506 -0.008396759 0.060874812
0.027585315 -0.016251996 -0.008690639 0.009552136 -0.02257026 0.07132361 -0.07856501 0.043081008
-0.056342613 -0.07743539 -0.01814583 0.03194893 0.051101845 0.022180393 -0.018978186 0.0015047727
-0.035830986 -0.018758256 -0.016272848 0.07521518 0.04151074 -0.07073047 -0.011198791 -0.05436501
-0.014030844 -0.08110091 0.011463917 -0.073949285 0.0761202 0.07602047 -0.060842905 -0.07294125
-0.0076968684 -0.035080887 0.025947876 -0.059831318 0.036180995 -0.08806892 -0.046648722 -0.056856032
0.031800143 -0.01403808 -0.09279363 -0.050480355 -0.040904086 -0.0936664 -0.00046128978 0.031496115
-0.02435143 -0.04653512 -0.011832071 -0.07020525 -0.064183965 -0.0020158067 0.068420194 -0.038825948
0.032111637 -0.046377745 -0.033211492 -0.09432422 0.0757205 0.086066164 -0.013279463 0.04490181
0.06053921 0.032641586 0.034876022 -0.084144875 -0.09469812 -0.07915299 0.01623275 -0.07645386
-0.07899748 -0.042842083 -0.08146624 0.00011909753 0.012751624 -0.057571147 0.04680114 -0.033556182
-0.035376944 0.056034155 0.06434364 -0.021785669 -0.07460307 -0.047363985 0.011255302 0.05181258
0.044003673 -0.05080133 -0.09520502 -0.08836133 -0.03851022 0.011088488 -0.051472355 -0.07572557
00000000: 735a ed3d ca55 85be b388 a03d 8b8c d7bc
00000010: 87b0 0cbd 67b8 5bbe 4ed8 00be e8c9 be3e
00000020: a3f5 783e 8866 7fbd cfc5 043e 4ac9 36be
00000030: 83fe 003e 2341 d5bd 5fc8 a53e 8868 483e
00000040: 3077 03bd 22c2 633e a6ef d839 81de 24be
00000050: b317 83bc 4171 a5bd 147a 47be 1578 2d3e
00000060: def7 6ebe 367a 203e e9f6 d6bd 5b25 5bbe
00000070: f24e a9bd e688 433e 5d1b f6bd f92c 4b3e
00000080: fed7 e9bc 1e3e 473e 92f5 323e 93f4 85ba
00000090: 26dd d83d 378e 1d3c eaf0 eebd 75a0 2abe
000000a0: d17e 0a3e 1e73 48be e9ed dfbd aa52 793d
000000b0: caa6 113e 0812 a6bd 404a 113d edab 1dbe
000000c0: 3e41 cdbd 9266 a53d 35a6 cfbd 32c3 60be
000000d0: 479f 62bd 9453 c1be 09c9 9e3d 7218 35be
000000e0: f3da e43d 3b5c e83d 6f02 693d 3266 a2bd
000000f0: f421 983b 34aa 0fbe b8dd d6bd c514 16be
00000100: 526d 823d d8e7 043e 4c42 4b3d 5249 9b3e
00000110: 0412 07be 91b8 783e b661 66be c2a9 253e
00000120: 7f07 ff3c 6534 d33d ac2c 4b3e d640 8ebc
00000130: 319a 0abe e9a6 623d 740c 423e e12b dabd
00000140: 0f8b 0b3e 7f75 ce3b b167 a53d fbac 53be
00000150: 1266 b0be c6a2 afbd 1c1a 08be 8696 8abc
00000160: eb2a 1dbd f929 bfbe 75c6 e13d f168 b03d
00000170: 7961 453c b382 66bd 88ca 423d d85f 2d3e
00000180: 558c c7bc f9c3 953e e7ad 9e3e 3798 51be
00000190: 73e3 1d3e af14 9c3d c3da 79bc b9cb 86be
000001a0: 8033 8fbd 63f0 81be d54a b13d 707c 7c3e
000001b0: ef24 2b3e d91c 69bd 49ea 02be ee8b ec3c
000001c0: 58a5 5fbe 772e cb3d 07f0 00be da83 523e
000001d0: 840c 0e3e bd53 9ebe fab1 39be 749f 5fbe
000001e0: 69e3 dabd 0bf3 213e 460c 3e3e 06d9 f33b
000001f0: 473e 63bc fb0e e1bd 804c 493e f403 bcbd
00000200: b491 fe3c f0b3 c53c 7b06 35bd 8a82 5c3d
00000210: 306f 0cbd d2db b63a 1832 36bd b5b5 abbd
00000220: 707f 693c 8750 813c 0a6b 66bd 6a17 5e3d
00000230: a26f b6bd c847 c6bd e19c 5fbd 34b7 2cbd
00000240: 895d 9939 3557 dbbc 60f9 fb3c fedd 9ebd
00000250: 54ee 363b 00a1 c83a 3040 bf3c 2c94 9c3d
00000260: eed0 5e3d d294 74bd 3556 94bd 1274 37bc
00000270: bd9b 35bd 88ec fc3c 8f92 09bc de57 793d
00000280: 99fa e13c e822 85bc 2f63 0ebc 9080 1c3c
00000290: 44e5 b8bc 1d12 923d b1e6 a0bd b675 303d
000002a0: 83c7 66bd 7296 9ebd 90a6 94bc e2dc 023d
000002b0: 2b50 513d a8b3 b53c 2478 9bbc cb3b c53a
000002c0: 83c3 12bd eaaa 99bc a34e 85bc 6b0a 9a3d
000002d0: 2a07 2a3d 23db 90bd 227b 37bc d8ad 5ebd
000002e0: a0e1 65bc 3c18 a6bd 27d3 3b3c b972 97bd
000002f0: e8e4 9b3d 9fb0 9b3d 6936 79bd 3962 95bd
00000300: 0336 fcbb fab0 0fbd a490 d43c af11 75bd
00000310: 8632 143d 7a5d b4bd bb12 3fbd dfe1 68bd
00000320: de40 023d faff 65bc 960a bebd 7dc4 4ebd
00000330: 0b8b 27bd 2bd4 bfbd 44d9 f1b9 1202 013d
00000340: a67c c7bc 9c9b 3ebd 4ddb 41bc c5c7 8fbd
00000350: e272 83bd a01b 04bb e31f 8c3d f507 1fbd
00000360: 7e87 033d 97f6 3dbd c608 08bd 0f2d c1bd
00000370: 5913 9b3d 7543 b03d 1b92 59bc f6ea 373d
00000380: f6f7 773d 2fb3 053d 29da 0e3d 2654 acbd
00000390: 17f1 c1bd f61a a2bd 8bfa 843c d793 9cbd
000003a0: 6ec9 a1bd 2e7b 2fbd c6d7 a6bd 00c4 f938
000003b0: 30ec 503c b9cf 6bbd 8db2 3f3d 3572 09bd
000003c0: 6ae7 10bd 1284 653d 99c6 833d dc77 b2bc
000003d0: 7fc9 98bd bd00 42bd 2868 383c 6e39 543d
000003e0: 323d 343d 0e15 50bd d9fa c2bd c9f6 b4bd
000003f0: e4bc 1dbd 7dac 353c add4 52bd 0216 9bbd

fc2.bias f4 [64]
-0.072495885 -0.013940859 -0.01654719 0.028728057 0.04852427 -0.015028664 0.0337494 -0.010779276
0.09367326 -0.08000195 -0.044100877 -0.07634443 0.12654096 -0.03902044 0.032994453 0.011169162
0.10618271 -0.069501914 -0.024020705 0.056277443 0.02352371 0.012046292 -0.0011941539 -0.056066472
-0.051440895 0.16611947 -0.013176834 -0.0889139 -0.011620806 -0.07147597 0.09047218 -0.047984328
-0.013692446 0.14634949 -0.08740843 0.115175515 0.011958299 0.013584982 -0.020860797 0.014412536
0.08972356 0.087669194 -0.07952623 -0.009010264 0.14048095 -0.12950733 0.02764864 0.021348905
-0.11979563 -0.13639201 -0.058382876 0.08043829 -0.12707335 0.004466336 -0.11411848 0.007303676
0.072446354 0.05426387 0.09170336 0.054718502 0.027503433 0.039163403 0.11307106 0.05703524
00000000: b978 94bd 3368 64bc f98d 87bc 1a57 eb3c
00000010: 63c1 463d c93a 76bc d03c 0a3d 8f9b 30bc
00000020: c4d7 bf3d 10d8 a3bd 1fa3 34bd 785a 9cbd
00000030: f493 013e e6d3 1fbd 3125 073d dcfe 363c
00000040: 5276 d93d 0557 8ebd 12c7 c4bc 2d83 663d
00000050: ccb4 c03c d05d 453c 2885 9cba f5a5 65bd
00000060: b0b3 52bd 391b 2a3e a6e3 57bc 7e18 b6bd
00000070: 3165 3ebc fe61 92bd 7a49 b93d 378b 44bd
00000080: 4856 60bc a4dc 153e 3103 b3bd 24e1 eb3d
00000090: beec 433c 8b93 5e3c 43e4 aabc 8f22 6c3c
000000a0: fcc0 b73d e88b b33d a6de a2bd c99f 13bc
000000b0: 3dda 0f3e 929d 04be 677f e23c e6e3 ae3c
000000c0: 6957 f5bd 59aa 0bbe e222 6fbd d5bc a43d
000000d0: 841f 02be 585a 923b f3b6 e9bd ad53 ef3b
000000e0: c15e 943d cb43 5e3d f9ce bb3d 8220 603d
000000f0: e14e e13c ce69 203d cd91 e73d c99d 693d

fc3.weight f4 [1, 64]
0.20229855 -0.0012724318 0.24698642 -0.27798873 -0.24547198 -0.24660261 -0.27604958 -0.2893976
-0.27229434 0.026064515 0.25061232 -0.0009865718 -0.1678884 -0.0051690666 0.26907635 -0.26859745
0.35086346 0.27541375 -0.30116376 0.07311277 -0.19888836 -0.22805436 0.2849534 0.20716317
0.29758477 -0.19666539 -0.24513121 0.27861246 0.21982004 0.21450178 -0.28447863 0.2057015
-0.09876801 -0.26540336 0.23411831 -0.19418828 0.30462408 0.25765747 0.27505296 0.2805715
-0.36990714 -0.24377818 0.21137221 -0.2833235 -0.26420268 0.3005046 -0.36635244 -0.28501052
0.20816635 0.21492222 -0.06374329 -0.20236953 0.31526268 -0.26069984 0.22702442 -0.22822246
-0.23976949 -0.41645822 -0.20861134 0.27819455 -0.22444971 -0.29766694 -0.25789467 0.071616255
00000000: 5a27 4f3e bac7 a6ba 02ea 7c3e 8a54 8ebe
00000010: 025d 7bbe 6585 7cbe 5f56 8dbe ec2b 94be
00000020: 2a6a 8bbe 4085 d53c 4250 803e db4f 81ba
00000030: f0ea 2bbe 4661 a9bb 60c4 893e 9b85 89be
00000040: 60a4 b33e 0803 8d3e 2332 9abe 26bc 953d
00000050: 64a9 4bbe 1587 69be 69e5 913e 9522 543e
00000060: 085d 983e a762 49be ad03 7bbe 4ba6 8e3e
00000070: 8118 613e 5ba6 5b3e 2fa7 91be 6aa3 523e
00000080: e246 cabd f3e2 87be b6bc 6f3e 4bd9 46be
00000090: b0f7 9b3e aeeb 833e bed3 8c3e 11a7 8f3e
000000a0: 7864 bdbe fda0 79be f571 583e c70f 91be
000000b0: 9345 87be bddb 993e 8c92 bbbe e6ec 91be
000000c0: 8f29 553e 9214 5c3e d88b 82bd f539 4fbe
000000d0: 1c6a a13e 737a 85be 1779 683e 26b3 69be
000000e0: 2286 75be 033a d5be 369e 55be 846f 8e3e
000000f0: 25d6 65be cd67 98be c50a 84be 8bab 923d
