Models/SavedModels/lung_cancer_model.pth (torch, 15276 bytes, 5 tensors)

fc1.weight f4 [64, 15]
000000 be 48 b4 3d 74 02 24 3e 28 c5 c7 bd b3 80 97 3e
       0.08802937 0.16016561 -0.097544014 0.29590377
000010 cb 28 a4 3d ae 29 d5 3d 43 ae 82 3c 91 65 78 3e
       0.08015593 0.104083404 0.015952235 0.24257495
000020 7a 91 9b 3e 34 ec 1e be 7e 6a 9e 3e e8 87 b1 3d
       0.30384427 -0.15519792 0.30940622 0.086685
000030 2c 6e f1 3d d8 f3 0e 3e 22 a9 e2 3d 2d 5f 09 be
       0.11788592 0.13960207 0.11067416 -0.13415213
000040 4c 09 95 3e c9 a4 2c 3e aa 04 8f be ca 03 91 3d
       0.29108655 0.16859736 -0.27933246 0.07080801
000050 c3 23 9a be f3 77 4e bc 3b 8b 1b 3d 85 8c 52 3e
       -0.3010541 -0.01260184 0.037974577 0.20561416
000060 15 06 b8 be e2 13 86 be 08 f8 71 be 4e a1 54 3c
       -0.3594214 -0.26187044 -0.23629773 0.012977911
000070 61 e4 e9 bd 0a 98 d3 be c8 9e d9 3d 7f 69 85 be
       -0.11420513 -0.41326934 0.10625988 -0.2605705
000080 a7 ab 14 3e ca 2b 23 3e e8 4d a1 3d 67 e1 2c 3e
       0.14518605 0.15934673 0.078761876 0.16882859
000090 4d c7 1a 3e 01 f9 aa 3e 37 25 c5 3d 5e 90 c2 bc
       0.1511509 0.333931 0.09626239 -0.02375048
0000a0 9d bd 1b 3e 08 9f 26 3d 13 aa 81 3e 76 14 ae 3e
       0.1520905 0.040679008 0.2532507 0.33999985
0000b0 50 74 f4 3d c5 8c c5 bc e4 d1 e3 3d 78 f7 2a 3e
       0.11936247 -0.024114976 0.11124018 0.16695964
0000c0 c2 3a 7e 3e 61 aa fe bb 8a d4 03 be cc e2 27 3d
       0.24827102 -0.0077717756 -0.12874046 0.040987775
0000d0 08 2f 83 bd 83 d4 9b 3e a2 6a 20 3e 0d d9 5c 3e
       -0.06405455 0.3043557 0.15665677 0.21567173
0000e0 b7 78 20 3e 0c b5 10 3e 12 50 a4 3e a4 35 a3 bd
       0.15671049 0.14131564 0.3209234 -0.079692155
0000f0 5a 92 9b bd 49 25 f4 bd 98 ab 15 3c e7 a5 c5 3d
       -0.07596274 -0.11921174 0.009135149 0.09650784
000100 66 a5 48 bd 8b f6 dd bd 0d 20 61 3e e6 e6 2a be
       -0.04898586 -0.1083804 0.21984883 -0.16689643
000110 d1 c2 4c be 5b 81 7f be 6f 02 15 3e c4 9d bf 3d
       -0.19996192 -0.24951689 0.1455171 0.09356263
000120 8a 5e c3 3e e2 cd 9a be 9c aa d7 be fa 9a ef bd
       0.38158065 -0.302352 -0.42122352 -0.11699481
000130 e2 70 c9 bd cb 07 3b 3e 60 ee 6a 3e 46 ca 17 3d
       -0.09835984 0.18264692 0.22942495 0.037058137
000140 4e 12 25 be 15 24 a6 be aa 3e 2a 3d 34 4f e8 bd
       -0.16120264 -0.32449403 0.041563667 -0.11343232
000150 c0 7d 66 3e f6 22 4d be 4d 2e 6a 3e 4e 1e be bd
       0.22508907 -0.20032868 0.22869225 -0.09283124
000160 46 af 5c be 70 ca 70 3e 00 27 bf bb f2 42 60 bd
       -0.21551237 0.23514724 -0.0058335066 -0.054751344
000170 73 03 3f 3e ee ad a5 3e 59 19 c6 be da bf 85 be
       0.1865366 0.3235926 -0.38691214 -0.26122934
000180 79 53 06 3e d2 19 1d bd c5 13 a5 bd 54 fe 92 be
       0.1311778 -0.038354702 -0.08060411 -0.28709662
000190 3b 92 68 be 79 9a d8 3d 0c 0c 90 3d 45 e8 94 be
       -0.22712032 0.10576338 0.07033548 -0.29083458
0001a0 95 41 e3 bd 7e 8f 4b be 33 e3 2c be fc e4 41 be
       -0.11096493 -0.19878957 -0.16883545 -0.18935007
0001b0 8a 4e 66 be 7e 1a 3d be 23 c5 b1 3e 2f 01 ae 3d
       -0.22490898 -0.18467137 0.34720716 0.084963195
0001c0 da 03 05 3d 63 7e 91 be ed a5 2d be 26 fc cd bd
       0.032474376 -0.28416738 -0.16957827 -0.10057859
0001d0 02 39 52 3d 43 3e 8f be 3b 2b e1 bd 0e 49 1e be
       0.051323898 -0.2797719 -0.10994574 -0.15457556
0001e0 ec 4e 2f bd b4 f6 55 3d 86 d4 5e bc fc 8e 6f be
       -0.042799875 0.052237228 -0.013600474 -0.23394388
0001f0 85 b6 90 be aa ae e2 bc 6b 2f 85 bc ed 5f 03 be
       -0.2826425 -0.027671177 -0.016257962 -0.12829562
000200 27 fd 96 3e 62 de 6d 3d 2a 1f b3 3e 43 04 61 3e
       0.29490015 0.05807341 0.34984714 0.21974282
000210 ed 4e dd bd 77 16 64 3e ed bf 73 3c 2b 56 cc bc
       -0.108060695 0.22274195 0.014877302 -0.024943432
000220 00 20 85 be 54 b5 20 be 0f b4 66 3e c4 20 cb 3d
       -0.26000977 -0.15694171 0.22529624 0.09918359
000230 32 7f 70 3e e0 93 6e bd cf 86 a3 3e 84 36 8a bd
       0.23486021 -0.058246493 0.31938788 -0.06748679
000240 af 7f 99 3d c5 1a 3a 3e 4c 8d 87 3e d3 1f ae 3e
       0.07495057 0.18174274 0.26474988 0.34008655
000250 f6 0a c2 3e 55 1d de bd e1 ec 23 3e 12 5b 9c bb
       0.37898988 -0.108454384 0.16008331 -0.0047715986
000260 df 31 ac bd 01 e4 a4 be f1 e1 47 3e 63 0b 7f be
       -0.0840795 -0.32205203 0.19519784 -0.24906687
000270 08 11 36 3d f7 d6 45 3e 12 17 9e 3c 26 d7 4c be
       0.044449836 0.19320284 0.01929811 -0.20003948
000280 02 ff 1d 3e f8 3f a6 bd 80 26 e4 3d 01 e4 74 be
       0.15429309 -0.0811767 0.11140156 -0.23915102
000290 b6 2a 16 3e 30 dc 6f bc 95 af 75 bd 7d 26 86 3e
       0.1466473 -0.014639899 -0.0599819 0.2620124
0002a0 df cf 37 3e 30 b2 84 be 50 89 54 be 17 fa 74 bd
       0.1795039 -0.25917196 -0.20755506 -0.059808817
0002b0 a3 90 11 3e 3f dc 88 bc 0a 66 73 be e5 49 d9 bd
       0.14215331 -0.016706584 -0.23769394 -0.106097974
0002c0 60 a9 89 be 36 6b 19 3e c7 bf 80 3e 0f 05 5d be
       -0.26887035 0.14982304 0.25146315 -0.21583961
0002d0 b1 58 66 ba 5f d8 4f 3e 2a f1 c6 3c 5f 3a 96 bc
       -0.000878702 0.20297383 0.024284918 -0.01833838
0002e0 9d f3 77 3e e0 e7 6d 3e ea e9 7d 3e 05 04 bd 3d
       0.24214025 0.23232985 0.24796262 0.09229282
0002f0 98 f9 20 bd a3 8b 19 bd 78 db 8f 3c 42 01 ce bd
       -0.03930053 -0.037486684 0.017560706 -0.10058834
000300 fb 6e a4 3e 8f 09 aa 3e 1f e3 99 bb bf 95 a3 bd
       0.3211592 0.33210418 -0.0046962644 -0.07987546
000310 cc 27 1a 3e 44 ee 8d 3d 76 40 a9 bd a9 5d 56 3e
       0.15054244 0.06930211 -0.08264248 0.20934166
000320 8f 4c d2 be 1b a0 83 be bc 93 70 3e 0e ff f4 ba
       -0.41074035 -0.25708088 0.23493856 -0.0018691735
000330 7d 4c d6 bc da 67 1f be 34 c2 21 be 03 7b a8 be
       -0.02615952 -0.1556696 -0.15796739 -0.3290635
000340 d8 a3 c7 bd 81 f8 79 bc 93 6b 47 3e b7 02 18 3e
       -0.097480476 -0.015257002 0.1947463 0.14844786
000350 48 eb 48 be 76 87 37 be a8 82 25 be 40 75 c6 3e
       -0.19621003 -0.17922768 -0.16163123 0.3876133
000360 83 09 51 bc b2 dc ae 3c f5 3c b0 3d 53 14 a4 bc
       -0.012758615 0.02134547 0.08605377 -0.020029223
000370 b7 d4 92 be ab cd 74 3e 07 13 f5 3b 7a 66 4c be
       -0.28677914 0.23906581 0.007479075 -0.19960967
000380 be 7c ee bd 7d 00 92 3e e2 88 49 3e 4d 36 11 3e
       -0.116448864 0.28515998 0.19681123 0.1418087
000390 7f 23 02 be 09 ff fc bd d8 90 0a be 95 fc a3 3e
       -0.12708853 -0.123533316 -0.13531816 0.32028642
0003a0 0c fb 4d 3e bb 33 81 3e a0 bf 73 3e 72 e0 1d 3e
       0.20115298 0.2523478 0.23803568 0.1541765
0003b0 0f 88 cc 3d 4d 38 07 be cb 97 d2 bd e1 3a 0e be
       0.099868886 -0.13205071 -0.102828585 -0.13889648
0003c0 f2 fc 0a 3e c0 fe 3b be f1 51 09 be d2 31 a8 bd
       0.13573053 -0.18358898 -0.13410164 -0.082126275
0003d0 82 40 23 be e8 7b 89 bb d9 36 3b be 11 a7 7b 3e
       -0.15942577 -0.004195679 -0.18282641 0.2457545
0003e0 19 e5 a4 3d 3b c7 3c 3e 42 0f 8a be 26 87 7e be
       0.080515094 0.18435375 -0.26964766 -0.24856243
0003f0 bb b2 f2 3d b3 9c 50 bd 19 6b 1c bd 7c 34 8a be
       0.118504964 -0.05093069 -0.038188074 -0.26993167

fc1.bias f4 [64]
000000 c4 4b aa be c1 78 01 3e 86 9b bf be 63 51 34 bd
       -0.3326093 0.1264372 -0.37423342 -0.04402293
000010 ab f9 6d 3d bb 89 c1 3e b0 37 17 3e 18 9d 10 bc
       0.05809943 0.37800393 0.14767337 -0.008826517
000020 6b 8b 18 bc 18 59 81 3c 2c 2c 52 3e 73 63 56 3e
       -0.009310584 0.015789554 0.20524663 0.20936374
000030 24 65 60 3d 5f 80 ab bd d2 bf b6 3e 31 b4 8b bd
       0.054783955 -0.08374094 0.35693222 -0.06821478
000040 6f 84 4a 3d e5 6c 81 3d 05 f5 a6 3e 6c af d0 3e
       0.049442705 0.06319598 0.3260881 0.40758836
000050 00 ef c2 bc 5c f6 ee 3a 1f 8e 78 3e 16 ae a5 3e
       -0.023795605 0.001823138 0.24272965 0.3235938
000060 a5 f9 2c be 26 b9 fd bd d5 1a 96 bd 49 72 53 3e
       -0.16892107 -0.1238883 -0.073293366 0.20649065
000070 4d dd 89 3e 0f 1f 3d 3d 91 b5 d7 bd 3f bd 59 3e
       0.26926652 0.046172198 -0.10532678 0.21263598
000080 12 ae d3 bd 29 45 8f be b7 36 ba 3e ea 94 55 be
       -0.10335936 -0.27982453 0.3636987 -0.20857587
000090 89 a8 3b be 8e 7e 0c 3e 2b 92 fc 3d a0 a9 59 be
       -0.1832601 0.13720152 0.12332567 -0.21256113
0000a0 23 e9 ba 3d fb 03 02 3d 18 9c d9 bc d3 c5 4c bd
       0.091264986 0.031742077 -0.02656369 -0.049993347
0000b0 29 48 50 be 74 3d fe bd a4 21 27 be 99 a4 93 bc
       -0.20340027 -0.12414065 -0.16321427 -0.018022822
0000c0 70 b1 a6 3c 04 b1 b7 bd e5 e8 4e 3e ae 4a 20 be
       0.02034828 -0.0896931 0.2020603 -0.15653488
0000d0 b9 d0 9a be 79 e9 d3 3d d7 96 ce bd e4 b7 83 3e
       -0.30237368 0.10347266 -0.10087364 0.25726235
0000e0 3d 56 2d be 2d 01 32 3e 4b 03 97 3e 87 dd 37 3e
       -0.16927429 0.17383261 0.294947 0.179556
0000f0 74 8a 85 be 02 7d a1 3c f0 bf 46 be 28 3e a5 bd
       -0.26082194 0.019712929 -0.19409156 -0.08068496

fc2.weight f4 [32, 64]
000000 54 e8 39 3e 0b 1b 37 be ec ed 1c 3e b4 25 d6 3c
       0.18155032 -0.1788141 0.15325135 0.026141025
000010 b8 f5 9a bd 02 0e 1a be 8f b5 41 bd a3 53 2b bc
       -0.075663984 -0.15044406 -0.04729229 -0.010456952
000020 8e 84 00 3c e1 ae c5 3b a1 21 7e bd 5c 89 b0 3c
       0.0078441035 0.00603281 -0.06204379 0.021549873
000030 38 93 48 3e b0 58 86 bd 46 06 f3 bd ce e5 16 bd
       0.1958741 -0.065598845 -0.11866431 -0.036840253
000040 0b 9c 8f be 27 e1 64 3e 92 74 c4 bd 18 13 b6 bd
       -0.2804874 0.22351514 -0.095925465 -0.088903606
000050 04 4d 00 3c f2 e7 43 be 7c e8 b8 bd 19 67 02 3e
       0.007830862 -0.19131449 -0.09028718 0.12734641
000060 c1 92 17 be 3b 37 51 3d 86 1c 86 3c c1 77 15 be
       -0.14802076 0.051078063 0.016371023 -0.14596464
000070 1a 59 6c be e0 ef 8b 3c 0d 47 63 3e e6 e9 db 3d
       -0.23080865 0.017082155 0.22195072 0.10737972
000080 73 af 29 3d 93 09 35 3d cc c4 0e be b7 00 48 3c
       0.041427087 0.044198584 -0.1394226 0.012207202
000090 9d 4a fa 3c db 64 99 3b 77 1b cc 3c a3 eb 6d 3e
       0.030553157 0.0046812124 0.02491544 0.2323442
0000a0 f2 73 fd bb ba ce 81 bd c3 95 3d be 45 10 30 3e
       -0.007734769 -0.06338258 -0.18514161 0.17193706
0000b0 f0 a0 73 3e 8f ce 12 bd 5f 83 4e 3e cc ba c3 3c
       0.23791862 -0.03584152 0.20167302 0.023892783
0000c0 1d a9 1c be 3e 4f 12 3e b8 f5 27 be 92 8d c9 bd
       -0.15298887 0.14288041 -0.16402328 -0.098414555
0000d0 c0 d3 53 3c f5 3e dc bd cd d7 10 3c ca 08 38 be
       0.012928903 -0.107541956 0.008840513 -0.17972103
0000e0 bc ef b7 3c 45 11 8c 3d c8 00 c1 bb 46 1d 86 be
       0.022453181 0.068392314 -0.0058899857 -0.2619421
0000f0 10 52 06 3e 8e 71 8a bd a5 2f 6a 3d 99 c4 95 bd
       0.13117242 -0.0675994 0.057174344 -0.07312889
000100 39 3e 86 3c a1 63 76 be e4 a9 1e 3e 6f 09 15 3e
       0.016387092 -0.24061443 0.15494496 0.1455438
000110 f0 02 4e be 76 9d ab bd c0 dd 91 3c 47 7f 07 bc
       -0.20118308 -0.08379643 0.017805934 -0.008270091
000120 5c 4b 09 bc a4 1f 63 3e d8 c1 24 3d ec 0b 0d 3c
       -0.0083797835 0.22180039 0.040223926 0.008608799
000130 5b 6b e2 3c 2d 1f f2 bc 0a b2 32 be 41 ed 3f 3e
       0.027639082 -0.029555881 -0.17450729 0.18742849
000140 b2 26 35 be 06 fa 3b 3e 43 4e 33 bd 11 ea 6b bd
       -0.17690542 0.18357095 -0.043775808 -0.05759627
000150 cb 5e 1f 3d 83 da 06 bd fb c2 10 be 84 2a 3f bd
       0.03890876 -0.032923233 -0.14136879 -0.046671405
000160 4c 22 46 be 8b 35 42 3e ce 95 1a be ca 1f 8d bd
       -0.1934902 0.18965738 -0.15096208 -0.06890829
000170 b9 be 3b be c5 6d 69 3e 17 15 31 3e ac cc 3c 3e
       -0.18334474 0.2279578 0.17293201 0.18437451
000180 30 37 84 3c 0c 5f d8 3a d0 01 ca bd 06 e3 c8 3c
       0.016139597 0.0016507818 -0.09863627 0.024522316
000190 ac a7 59 3e 14 a3 3c be c2 ef b2 bc d1 65 6c 3e
       0.21255368 -0.18421584 -0.021842841 0.23085715
0001a0 e4 b5 02 3e 26 56 c4 bd d8 e4 79 be b5 dd 48 3e
       0.12764698 -0.09586744 -0.24403703 0.19615825
0001b0 78 86 e6 3d d2 4e 55 be 3a 32 55 3e c0 f3 22 bd
       0.11256117 -0.20830849 0.20819941 -0.03978324
0001c0 72 fd 31 be ff a9 55 3e 1b 5c 3c be 48 19 59 be
       -0.17381838 0.2086563 -0.1839451 -0.2120105
0001d0 45 9d 07 3e da 10 fb bd d2 d3 00 3e d1 6a 66 be
       0.13243587 -0.122590736 0.12580803 -0.22501685
0001e0 82 bd ef 3d 63 bf e2 3c 76 ef 63 bc 16 72 65 be
       0.117060676 0.02767915 -0.013912072 -0.22406802
0001f0 b2 62 15 3e c3 02 f3 bd 66 52 4c be ec c2 be bc
       0.1458843 -0.11865761 -0.19953308 -0.023286305
000200 03 4c 25 bd 36 45 32 3e a4 e1 3b be 48 ca 50 bd
       -0.040355694 0.17409214 -0.18347794 -0.05097416
000210 2e 24 69 3e e3 36 4c 3e 83 db b3 3c b7 9f c9 3d
       0.22767708 0.19942813 0.021955257 0.09844916
000220 c1 c6 18 be 72 e6 27 3e ea b5 41 3e 66 6f 56 3e
       -0.14919569 0.16396502 0.18917051 0.20940933
000230 47 73 0d bd d0 5c 81 3e 30 19 59 3d 0c e7 11 be
       -0.034533765 0.25266123 0.053002536 -0.14248294
000240 7b d9 ad 3d db 7e c5 3d d0 5b be 3d 2c bd d0 3d
       0.08488747 0.096433364 0.092948556 0.10192332
000250 a1 17 0b be d5 0d 05 3e 64 5d 71 3e d8 76 17 3e
       -0.13583232 0.12993558 0.23570782 0.14791429
000260 fe 8a 64 3e 7a 17 de bc da e8 76 3e 9a be fe 3d
       0.22318646 -0.027110804 0.24112263 0.12438698
000270 00 d2 1c 3e 23 9e 01 3e 0c 3e 91 bd 66 a0 7e bc
       0.15314484 0.1265798 -0.070919126 -0.015541172
000280 5a f2 46 bd 39 3f 47 be d6 c5 c5 3d c3 94 07 be
       -0.04857097 -0.19457711 0.09656875 -0.13240342
000290 50 44 d5 bd be 4d 30 3e 6e db 74 3d 4f 9e 9e 3d
       -0.1041342 0.17217156 0.059779577 0.07745039
0002a0 c5 75 0b 3c 61 2c 56 3d f3 80 67 3d 63 72 24 be
       0.008511965 0.052288417 0.05651946 -0.1605926
0002b0 d5 34 51 be 9d 78 c9 3d 33 4a 86 bd 4c 40 bf 3d
       -0.2043031 0.09837458 -0.06557121 0.093384355
0002c0 3c d8 ed 3d 20 b4 c9 bd 18 c9 97 3d 76 58 92 3e
       0.11613509 -0.09848809 0.074114025 0.28583115
0002d0 84 67 62 be 01 07 ff 3c 57 4d 9a bd 38 07 1c 3e
       -0.221098 0.03113127 -0.07534283 0.15237129
0002e0 98 76 d7 3d 67 9b 10 3e 77 24 02 3e 66 1c ae 3c
       0.10520667 0.14121781 0.12709223 0.021253776
0002f0 20 54 fc 3b 1b be 87 3e 7a d6 5e 3d d4 64 88 3e
       0.007700458 0.26512226 0.05440376 0.26639426
000300 e4 81 37 3e f5 95 00 be 5f 9c 2c 3e 70 e9 11 3d
       0.17920643 -0.12557204 0.16856526 0.035623014
000310 f8 f6 55 be 75 89 91 bd 46 1c a3 bd a4 04 34 3c
       -0.20894992 -0.07106296 -0.07964377 0.010987435
000320 81 04 03 3e 23 6a 9e 3c 43 39 a4 3d f1 30 2d 3c
       0.12794687 0.01933772 0.08018734 0.010570751
000330 ca a5 31 3e 0a c8 3b be 19 89 82 bd a5 62 37 3d
       0.173484 -0.18338028 -0.063738056 0.04477181
000340 69 0a 0f be aa 3c 14 3e 19 fc 52 bb f1 d7 2e be
       -0.13968815 0.14476267 -0.003219372 -0.17074563
000350 bd 5a 1f 3d 8d 77 90 bd 48 8d c1 bd 10 74 21 3e
       0.038904894 -0.070540525 -0.094507754 0.1576693
000360 15 99 60 be 3f b7 b9 3d a5 35 ea bd 05 2e 34 be
       -0.21933396 0.090681545 -0.11436013 -0.1759568
000370 6e e8 36 bd 90 6a 00 3e 76 a2 46 3b 64 2e ba 3d
       -0.044655256 0.1254065 0.0030309237 0.090908796
000380 c6 6a db 3c cc 1c e8 3d 85 cb a4 bd 03 e6 af bc
       0.026784312 0.113336176 -0.08046631 -0.021471983
000390 b3 ed bb 3d 2f d7 b2 bd b9 cb 15 be e6 43 6e 3e
       0.09176197 -0.08732449 -0.14628495 0.23268089
0003a0 14 00 28 3d 9f f0 9b bd d9 17 ea bd d2 06 dc bc
       0.0410157 -0.07614254 -0.1143033 -0.02685872
0003b0 96 aa 23 3e bb d7 92 bc 40 01 e4 3b 21 66 32 be
       0.15983042 -0.017925134 0.006958157 -0.17421772
0003c0 44 48 7b bc 23 98 3a 3e 0d 93 34 be e6 1d 77 bd
       -0.015337054 0.18222098 -0.1763422 -0.060331248
0003d0 44 b2 91 3d 10 d6 8a be fb 96 db 3d f5 cf d5 bd
       0.071140796 -0.27116442 0.107221566 -0.10440055
0003e0 de 5c b8 3d c6 0f f3 3d 0e ad 80 bd 80 97 9a bd
       0.09002088 0.11868243 -0.062830076 -0.075484276
0003f0 8d 9d 39 3e da 0f c8 bc 48 dd b5 3d 0e 27 ec bd
       0.18126507 -0.024421621 0.08880097 -0.115308866

fc2.bias f4 [32]
000000 89 31 f9 bd 65 57 b7 bd 31 e3 a4 3d c3 45 4e be
       -0.12167651 -0.08952216 0.08051146 -0.201438
000010 20 d8 d2 3d 2d ab 47 3e 9d 2c b1 3d b4 99 f5 bd
       0.10295129 0.19498892 0.086510874 -0.11992207
000020 59 18 f9 3d a8 a0 9e 3b d0 99 78 3d 77 f0 2b 3c
       0.12162847 0.004840929 0.060693562 0.010494343
000030 a8 7f ff 3c 23 6e 37 bd 89 50 26 3e 11 4e 81 3e
       0.0311888 -0.04478277 0.16241659 0.25254872
000040 8b 57 04 be 1c 3f 2c 3e 82 82 24 bd 30 2a 96 bd
       -0.1292402 0.1682095 -0.040163524 -0.073322654
000050 1d c9 e4 bd a9 08 47 3e ad ba 42 3e bf fc 09 3e
       -0.11171172 0.19436897 0.19016524 0.13475321
000060 0a 9f 30 be 95 c6 77 3c db 42 df 3c bb 51 25 bd
       -0.17248169 0.015123029 0.027253559 -0.040361147
000070 ba 50 db bd cd 8b 09 3e 8a e5 42 b9 38 f7 60 3d
       -0.10708757 0.13432236 -0.00018586792 0.054923266

fc3.weight f4 [1, 32]
000000 63 c5 58 3e cc f2 85 3e 9b 73 2f be 41 40 91 3e
       0.21169047 0.26161802 -0.17133944 0.28369334
000010 d7 86 34 be 87 1c 8b be 82 95 58 be 55 0e 14 3e
       -0.17629562 -0.27170202 -0.21150783 0.14458592
000020 d9 7a 2e be 15 c4 92 3d 2e 30 67 be 5d 46 42 be
       -0.1703905 0.07166306 -0.22576973 -0.18972154
000030 b0 5b 9a be fd 2d 07 3e 9d c6 39 be d5 42 a3 be
       -0.30148077 0.13201137 -0.18142171 -0.31886926
000040 2e 64 19 3e 95 1c 02 be 2b 7d 41 3e f6 e7 18 bb
       0.14979622 -0.12706216 0.18895404 -0.002333162
000050 68 31 72 3e 4c e7 45 be 35 ab 3b be 74 a1 39 be
       0.2365166 -0.19326514 -0.18327029 -0.18127996
000060 40 94 34 3e 11 25 b1 3e f5 8f 2c be 63 4f 88 3e
       0.17634678 0.34598592 -0.1685179 0.26623067
000070 85 6d 88 3e 79 38 63 be 76 2e 20 be 8e 95 61 be
       0.26646057 -0.22189511 -0.15642723 -0.22029707
